saved_model_schema_version: 1
meta_graphs {
  meta_info_def {
    stripped_op_list {
      op {
        name: "Add"
        input_arg {
          name: "x"
          type_attr: "T"
        }
        input_arg {
          name: "y"
          type_attr: "T"
        }
        output_arg {
          name: "z"
          type_attr: "T"
        }
        attr {
          name: "T"
          type: "type"
          allowed_values {
            list {
              type: DT_HALF
              type: DT_FLOAT
              type: DT_DOUBLE
              type: DT_UINT8
              type: DT_INT8
              type: DT_INT16
              type: DT_INT32
              type: DT_INT64
              type: DT_COMPLEX64
              type: DT_COMPLEX128
              type: DT_STRING
            }
          }
        }
      }
      op {
        name: "AddN"
        input_arg {
          name: "inputs"
          type_attr: "T"
          number_attr: "N"
        }
        output_arg {
          name: "sum"
          type_attr: "T"
        }
        attr {
          name: "N"
          type: "int"
          has_minimum: true
          minimum: 1
        }
        attr {
          name: "T"
          type: "type"
          allowed_values {
            list {
              type: DT_FLOAT
              type: DT_DOUBLE
              type: DT_INT64
              type: DT_INT32
              type: DT_UINT8
              type: DT_UINT16
              type: DT_INT16
              type: DT_INT8
              type: DT_COMPLEX64
              type: DT_COMPLEX128
              type: DT_QINT8
              type: DT_QUINT8
              type: DT_QINT32
              type: DT_HALF
            }
          }
        }
        is_aggregate: true
        is_commutative: true
      }
      op {
        name: "ArgMax"
        input_arg {
          name: "input"
          type_attr: "T"
        }
        input_arg {
          name: "dimension"
          type_attr: "Tidx"
        }
        output_arg {
          name: "output"
          type: DT_INT64
        }
        attr {
          name: "T"
          type: "type"
          allowed_values {
            list {
              type: DT_FLOAT
              type: DT_DOUBLE
              type: DT_INT64
              type: DT_INT32
              type: DT_UINT8
              type: DT_UINT16
              type: DT_INT16
              type: DT_INT8
              type: DT_COMPLEX64
              type: DT_COMPLEX128
              type: DT_QINT8
              type: DT_QUINT8
              type: DT_QINT32
              type: DT_HALF
            }
          }
        }
        attr {
          name: "Tidx"
          type: "type"
          default_value {
            type: DT_INT32
          }
          allowed_values {
            list {
              type: DT_INT32
              type: DT_INT64
            }
          }
        }
      }
      op {
        name: "Assign"
        input_arg {
          name: "ref"
          type_attr: "T"
          is_ref: true
        }
        input_arg {
          name: "value"
          type_attr: "T"
        }
        output_arg {
          name: "output_ref"
          type_attr: "T"
          is_ref: true
        }
        attr {
          name: "T"
          type: "type"
        }
        attr {
          name: "validate_shape"
          type: "bool"
          default_value {
            b: true
          }
        }
        attr {
          name: "use_locking"
          type: "bool"
          default_value {
            b: true
          }
        }
        allows_uninitialized_input: true
      }
      op {
        name: "BiasAdd"
        input_arg {
          name: "value"
          type_attr: "T"
        }
        input_arg {
          name: "bias"
          type_attr: "T"
        }
        output_arg {
          name: "output"
          type_attr: "T"
        }
        attr {
          name: "T"
          type: "type"
          allowed_values {
            list {
              type: DT_FLOAT
              type: DT_DOUBLE
              type: DT_INT64
              type: DT_INT32
              type: DT_UINT8
              type: DT_UINT16
              type: DT_INT16
              type: DT_INT8
              type: DT_COMPLEX64
              type: DT_COMPLEX128
              type: DT_QINT8
              type: DT_QUINT8
              type: DT_QINT32
              type: DT_HALF
            }
          }
        }
        attr {
          name: "data_format"
          type: "string"
          default_value {
            s: "NHWC"
          }
          allowed_values {
            list {
              s: "NHWC"
              s: "NCHW"
            }
          }
        }
      }
      op {
        name: "Cast"
        input_arg {
          name: "x"
          type_attr: "SrcT"
        }
        output_arg {
          name: "y"
          type_attr: "DstT"
        }
        attr {
          name: "SrcT"
          type: "type"
        }
        attr {
          name: "DstT"
          type: "type"
        }
      }
      op {
        name: "ConcatV2"
        input_arg {
          name: "values"
          type_attr: "T"
          number_attr: "N"
        }
        input_arg {
          name: "axis"
          type_attr: "Tidx"
        }
        output_arg {
          name: "output"
          type_attr: "T"
        }
        attr {
          name: "N"
          type: "int"
          has_minimum: true
          minimum: 2
        }
        attr {
          name: "T"
          type: "type"
        }
        attr {
          name: "Tidx"
          type: "type"
          default_value {
            type: DT_INT32
          }
          allowed_values {
            list {
              type: DT_INT32
              type: DT_INT64
            }
          }
        }
      }
      op {
        name: "Const"
        output_arg {
          name: "output"
          type_attr: "dtype"
        }
        attr {
          name: "value"
          type: "tensor"
        }
        attr {
          name: "dtype"
          type: "type"
        }
      }
      op {
        name: "ExpandDims"
        input_arg {
          name: "input"
          type_attr: "T"
        }
        input_arg {
          name: "dim"
          type_attr: "Tdim"
        }
        output_arg {
          name: "output"
          type_attr: "T"
        }
        attr {
          name: "T"
          type: "type"
        }
        attr {
          name: "Tdim"
          type: "type"
          default_value {
            type: DT_INT32
          }
          allowed_values {
            list {
              type: DT_INT32
              type: DT_INT64
            }
          }
        }
      }
      op {
        name: "Fill"
        input_arg {
          name: "dims"
          type: DT_INT32
        }
        input_arg {
          name: "value"
          type_attr: "T"
        }
        output_arg {
          name: "output"
          type_attr: "T"
        }
        attr {
          name: "T"
          type: "type"
        }
      }
      op {
        name: "Gather"
        input_arg {
          name: "params"
          type_attr: "Tparams"
        }
        input_arg {
          name: "indices"
          type_attr: "Tindices"
        }
        output_arg {
          name: "output"
          type_attr: "Tparams"
        }
        attr {
          name: "validate_indices"
          type: "bool"
          default_value {
            b: true
          }
        }
        attr {
          name: "Tparams"
          type: "type"
        }
        attr {
          name: "Tindices"
          type: "type"
          allowed_values {
            list {
              type: DT_INT32
              type: DT_INT64
            }
          }
        }
      }
      op {
        name: "GreaterEqual"
        input_arg {
          name: "x"
          type_attr: "T"
        }
        input_arg {
          name: "y"
          type_attr: "T"
        }
        output_arg {
          name: "z"
          type: DT_BOOL
        }
        attr {
          name: "T"
          type: "type"
          allowed_values {
            list {
              type: DT_FLOAT
              type: DT_DOUBLE
              type: DT_INT32
              type: DT_INT64
              type: DT_UINT8
              type: DT_INT16
              type: DT_INT8
              type: DT_UINT16
              type: DT_HALF
            }
          }
        }
      }
      op {
        name: "HashTable"
        output_arg {
          name: "table_handle"
          type: DT_STRING
          is_ref: true
        }
        attr {
          name: "container"
          type: "string"
          default_value {
            s: ""
          }
        }
        attr {
          name: "shared_name"
          type: "string"
          default_value {
            s: ""
          }
        }
        attr {
          name: "use_node_name_sharing"
          type: "bool"
          default_value {
            b: false
          }
        }
        attr {
          name: "key_dtype"
          type: "type"
        }
        attr {
          name: "value_dtype"
          type: "type"
        }
        is_stateful: true
      }
      op {
        name: "Identity"
        input_arg {
          name: "input"
          type_attr: "T"
        }
        output_arg {
          name: "output"
          type_attr: "T"
        }
        attr {
          name: "T"
          type: "type"
        }
      }
      op {
        name: "InitializeTable"
        input_arg {
          name: "table_handle"
          type: DT_STRING
          is_ref: true
        }
        input_arg {
          name: "keys"
          type_attr: "Tkey"
        }
        input_arg {
          name: "values"
          type_attr: "Tval"
        }
        attr {
          name: "Tkey"
          type: "type"
        }
        attr {
          name: "Tval"
          type: "type"
        }
      }
      op {
        name: "ListDiff"
        input_arg {
          name: "x"
          type_attr: "T"
        }
        input_arg {
          name: "y"
          type_attr: "T"
        }
        output_arg {
          name: "out"
          type_attr: "T"
        }
        output_arg {
          name: "idx"
          type_attr: "out_idx"
        }
        attr {
          name: "T"
          type: "type"
        }
        attr {
          name: "out_idx"
          type: "type"
          default_value {
            type: DT_INT32
          }
          allowed_values {
            list {
              type: DT_INT32
              type: DT_INT64
            }
          }
        }
      }
      op {
        name: "LookupTableFind"
        input_arg {
          name: "table_handle"
          type: DT_STRING
          is_ref: true
        }
        input_arg {
          name: "keys"
          type_attr: "Tin"
        }
        input_arg {
          name: "default_value"
          type_attr: "Tout"
        }
        output_arg {
          name: "values"
          type_attr: "Tout"
        }
        attr {
          name: "Tin"
          type: "type"
        }
        attr {
          name: "Tout"
          type: "type"
        }
      }
      op {
        name: "MatMul"
        input_arg {
          name: "a"
          type_attr: "T"
        }
        input_arg {
          name: "b"
          type_attr: "T"
        }
        output_arg {
          name: "product"
          type_attr: "T"
        }
        attr {
          name: "transpose_a"
          type: "bool"
          default_value {
            b: false
          }
        }
        attr {
          name: "transpose_b"
          type: "bool"
          default_value {
            b: false
          }
        }
        attr {
          name: "T"
          type: "type"
          allowed_values {
            list {
              type: DT_HALF
              type: DT_FLOAT
              type: DT_DOUBLE
              type: DT_INT32
              type: DT_COMPLEX64
              type: DT_COMPLEX128
            }
          }
        }
      }
      op {
        name: "MergeV2Checkpoints"
        input_arg {
          name: "checkpoint_prefixes"
          type: DT_STRING
        }
        input_arg {
          name: "destination_prefix"
          type: DT_STRING
        }
        attr {
          name: "delete_old_dirs"
          type: "bool"
          default_value {
            b: true
          }
        }
      }
      op {
        name: "Mul"
        input_arg {
          name: "x"
          type_attr: "T"
        }
        input_arg {
          name: "y"
          type_attr: "T"
        }
        output_arg {
          name: "z"
          type_attr: "T"
        }
        attr {
          name: "T"
          type: "type"
          allowed_values {
            list {
              type: DT_HALF
              type: DT_FLOAT
              type: DT_DOUBLE
              type: DT_UINT8
              type: DT_INT8
              type: DT_UINT16
              type: DT_INT16
              type: DT_INT32
              type: DT_INT64
              type: DT_COMPLEX64
              type: DT_COMPLEX128
            }
          }
        }
        is_commutative: true
      }
      op {
        name: "NoOp"
      }
      op {
        name: "NotEqual"
        input_arg {
          name: "x"
          type_attr: "T"
        }
        input_arg {
          name: "y"
          type_attr: "T"
        }
        output_arg {
          name: "z"
          type: DT_BOOL
        }
        attr {
          name: "T"
          type: "type"
          allowed_values {
            list {
              type: DT_HALF
              type: DT_FLOAT
              type: DT_DOUBLE
              type: DT_UINT8
              type: DT_INT8
              type: DT_INT16
              type: DT_INT32
              type: DT_INT64
              type: DT_COMPLEX64
              type: DT_QUINT8
              type: DT_QINT8
              type: DT_QINT32
              type: DT_STRING
              type: DT_BOOL
              type: DT_COMPLEX128
            }
          }
        }
        is_commutative: true
      }
      op {
        name: "Pack"
        input_arg {
          name: "values"
          type_attr: "T"
          number_attr: "N"
        }
        output_arg {
          name: "output"
          type_attr: "T"
        }
        attr {
          name: "N"
          type: "int"
          has_minimum: true
          minimum: 1
        }
        attr {
          name: "T"
          type: "type"
        }
        attr {
          name: "axis"
          type: "int"
          default_value {
            i: 0
          }
        }
      }
      op {
        name: "Placeholder"
        output_arg {
          name: "output"
          type_attr: "dtype"
        }
        attr {
          name: "dtype"
          type: "type"
        }
        attr {
          name: "shape"
          type: "shape"
          default_value {
            shape {
            }
          }
        }
      }
      op {
        name: "Prod"
        input_arg {
          name: "input"
          type_attr: "T"
        }
        input_arg {
          name: "reduction_indices"
          type_attr: "Tidx"
        }
        output_arg {
          name: "output"
          type_attr: "T"
        }
        attr {
          name: "keep_dims"
          type: "bool"
          default_value {
            b: false
          }
        }
        attr {
          name: "T"
          type: "type"
          allowed_values {
            list {
              type: DT_FLOAT
              type: DT_DOUBLE
              type: DT_INT64
              type: DT_INT32
              type: DT_UINT8
              type: DT_UINT16
              type: DT_INT16
              type: DT_INT8
              type: DT_COMPLEX64
              type: DT_COMPLEX128
              type: DT_QINT8
              type: DT_QUINT8
              type: DT_QINT32
              type: DT_HALF
            }
          }
        }
        attr {
          name: "Tidx"
          type: "type"
          default_value {
            type: DT_INT32
          }
          allowed_values {
            list {
              type: DT_INT32
              type: DT_INT64
            }
          }
        }
      }
      op {
        name: "Range"
        input_arg {
          name: "start"
          type_attr: "Tidx"
        }
        input_arg {
          name: "limit"
          type_attr: "Tidx"
        }
        input_arg {
          name: "delta"
          type_attr: "Tidx"
        }
        output_arg {
          name: "output"
          type_attr: "Tidx"
        }
        attr {
          name: "Tidx"
          type: "type"
          default_value {
            type: DT_INT32
          }
          allowed_values {
            list {
              type: DT_FLOAT
              type: DT_DOUBLE
              type: DT_INT32
              type: DT_INT64
            }
          }
        }
      }
      op {
        name: "Reshape"
        input_arg {
          name: "tensor"
          type_attr: "T"
        }
        input_arg {
          name: "shape"
          type_attr: "Tshape"
        }
        output_arg {
          name: "output"
          type_attr: "T"
        }
        attr {
          name: "T"
          type: "type"
        }
        attr {
          name: "Tshape"
          type: "type"
          default_value {
            type: DT_INT32
          }
          allowed_values {
            list {
              type: DT_INT32
              type: DT_INT64
            }
          }
        }
      }
      op {
        name: "RestoreV2"
        input_arg {
          name: "prefix"
          type: DT_STRING
        }
        input_arg {
          name: "tensor_names"
          type: DT_STRING
        }
        input_arg {
          name: "shape_and_slices"
          type: DT_STRING
        }
        output_arg {
          name: "tensors"
          type_list_attr: "dtypes"
        }
        attr {
          name: "dtypes"
          type: "list(type)"
          has_minimum: true
          minimum: 1
        }
      }
      op {
        name: "SaveV2"
        input_arg {
          name: "prefix"
          type: DT_STRING
        }
        input_arg {
          name: "tensor_names"
          type: DT_STRING
        }
        input_arg {
          name: "shape_and_slices"
          type: DT_STRING
        }
        input_arg {
          name: "tensors"
          type_list_attr: "dtypes"
        }
        attr {
          name: "dtypes"
          type: "list(type)"
          has_minimum: true
          minimum: 1
        }
      }
      op {
        name: "Select"
        input_arg {
          name: "condition"
          type: DT_BOOL
        }
        input_arg {
          name: "t"
          type_attr: "T"
        }
        input_arg {
          name: "e"
          type_attr: "T"
        }
        output_arg {
          name: "output"
          type_attr: "T"
        }
        attr {
          name: "T"
          type: "type"
        }
      }
      op {
        name: "Shape"
        input_arg {
          name: "input"
          type_attr: "T"
        }
        output_arg {
          name: "output"
          type_attr: "out_type"
        }
        attr {
          name: "T"
          type: "type"
        }
        attr {
          name: "out_type"
          type: "type"
          default_value {
            type: DT_INT32
          }
          allowed_values {
            list {
              type: DT_INT32
              type: DT_INT64
            }
          }
        }
      }
      op {
        name: "ShardedFilename"
        input_arg {
          name: "basename"
          type: DT_STRING
        }
        input_arg {
          name: "shard"
          type: DT_INT32
        }
        input_arg {
          name: "num_shards"
          type: DT_INT32
        }
        output_arg {
          name: "filename"
          type: DT_STRING
        }
      }
      op {
        name: "Sigmoid"
        input_arg {
          name: "x"
          type_attr: "T"
        }
        output_arg {
          name: "y"
          type_attr: "T"
        }
        attr {
          name: "T"
          type: "type"
          allowed_values {
            list {
              type: DT_HALF
              type: DT_FLOAT
              type: DT_DOUBLE
              type: DT_COMPLEX64
              type: DT_COMPLEX128
            }
          }
        }
      }
      op {
        name: "Slice"
        input_arg {
          name: "input"
          type_attr: "T"
        }
        input_arg {
          name: "begin"
          type_attr: "Index"
        }
        input_arg {
          name: "size"
          type_attr: "Index"
        }
        output_arg {
          name: "output"
          type_attr: "T"
        }
        attr {
          name: "T"
          type: "type"
        }
        attr {
          name: "Index"
          type: "type"
          allowed_values {
            list {
              type: DT_INT32
              type: DT_INT64
            }
          }
        }
      }
      op {
        name: "Softmax"
        input_arg {
          name: "logits"
          type_attr: "T"
        }
        output_arg {
          name: "softmax"
          type_attr: "T"
        }
        attr {
          name: "T"
          type: "type"
          allowed_values {
            list {
              type: DT_HALF
              type: DT_FLOAT
              type: DT_DOUBLE
            }
          }
        }
      }
      op {
        name: "SparseReorder"
        input_arg {
          name: "input_indices"
          type: DT_INT64
        }
        input_arg {
          name: "input_values"
          type_attr: "T"
        }
        input_arg {
          name: "input_shape"
          type: DT_INT64
        }
        output_arg {
          name: "output_indices"
          type: DT_INT64
        }
        output_arg {
          name: "output_values"
          type_attr: "T"
        }
        attr {
          name: "T"
          type: "type"
        }
      }
      op {
        name: "SparseReshape"
        input_arg {
          name: "input_indices"
          type: DT_INT64
        }
        input_arg {
          name: "input_shape"
          type: DT_INT64
        }
        input_arg {
          name: "new_shape"
          type: DT_INT64
        }
        output_arg {
          name: "output_indices"
          type: DT_INT64
        }
        output_arg {
          name: "output_shape"
          type: DT_INT64
        }
      }
      op {
        name: "SparseSegmentSum"
        input_arg {
          name: "data"
          type_attr: "T"
        }
        input_arg {
          name: "indices"
          type_attr: "Tidx"
        }
        input_arg {
          name: "segment_ids"
          type: DT_INT32
        }
        output_arg {
          name: "output"
          type_attr: "T"
        }
        attr {
          name: "T"
          type: "type"
          allowed_values {
            list {
              type: DT_FLOAT
              type: DT_DOUBLE
              type: DT_INT32
              type: DT_INT64
              type: DT_UINT8
              type: DT_INT16
              type: DT_INT8
              type: DT_UINT16
              type: DT_HALF
            }
          }
        }
        attr {
          name: "Tidx"
          type: "type"
          default_value {
            type: DT_INT32
          }
          allowed_values {
            list {
              type: DT_INT32
              type: DT_INT64
            }
          }
        }
      }
      op {
        name: "SparseToDense"
        input_arg {
          name: "sparse_indices"
          type_attr: "Tindices"
        }
        input_arg {
          name: "output_shape"
          type_attr: "Tindices"
        }
        input_arg {
          name: "sparse_values"
          type_attr: "T"
        }
        input_arg {
          name: "default_value"
          type_attr: "T"
        }
        output_arg {
          name: "dense"
          type_attr: "T"
        }
        attr {
          name: "validate_indices"
          type: "bool"
          default_value {
            b: true
          }
        }
        attr {
          name: "T"
          type: "type"
        }
        attr {
          name: "Tindices"
          type: "type"
          allowed_values {
            list {
              type: DT_INT32
              type: DT_INT64
            }
          }
        }
      }
      op {
        name: "StridedSlice"
        input_arg {
          name: "input"
          type_attr: "T"
        }
        input_arg {
          name: "begin"
          type_attr: "Index"
        }
        input_arg {
          name: "end"
          type_attr: "Index"
        }
        input_arg {
          name: "strides"
          type_attr: "Index"
        }
        output_arg {
          name: "output"
          type_attr: "T"
        }
        attr {
          name: "T"
          type: "type"
        }
        attr {
          name: "Index"
          type: "type"
          allowed_values {
            list {
              type: DT_INT32
              type: DT_INT64
            }
          }
        }
        attr {
          name: "begin_mask"
          type: "int"
          default_value {
            i: 0
          }
        }
        attr {
          name: "end_mask"
          type: "int"
          default_value {
            i: 0
          }
        }
        attr {
          name: "ellipsis_mask"
          type: "int"
          default_value {
            i: 0
          }
        }
        attr {
          name: "new_axis_mask"
          type: "int"
          default_value {
            i: 0
          }
        }
        attr {
          name: "shrink_axis_mask"
          type: "int"
          default_value {
            i: 0
          }
        }
      }
      op {
        name: "StringJoin"
        input_arg {
          name: "inputs"
          type: DT_STRING
          number_attr: "N"
        }
        output_arg {
          name: "output"
          type: DT_STRING
        }
        attr {
          name: "N"
          type: "int"
          has_minimum: true
          minimum: 1
        }
        attr {
          name: "separator"
          type: "string"
          default_value {
            s: ""
          }
        }
      }
      op {
        name: "Sum"
        input_arg {
          name: "input"
          type_attr: "T"
        }
        input_arg {
          name: "reduction_indices"
          type_attr: "Tidx"
        }
        output_arg {
          name: "output"
          type_attr: "T"
        }
        attr {
          name: "keep_dims"
          type: "bool"
          default_value {
            b: false
          }
        }
        attr {
          name: "T"
          type: "type"
          allowed_values {
            list {
              type: DT_FLOAT
              type: DT_DOUBLE
              type: DT_INT64
              type: DT_INT32
              type: DT_UINT8
              type: DT_UINT16
              type: DT_INT16
              type: DT_INT8
              type: DT_COMPLEX64
              type: DT_COMPLEX128
              type: DT_QINT8
              type: DT_QUINT8
              type: DT_QINT32
              type: DT_HALF
            }
          }
        }
        attr {
          name: "Tidx"
          type: "type"
          default_value {
            type: DT_INT32
          }
          allowed_values {
            list {
              type: DT_INT32
              type: DT_INT64
            }
          }
        }
      }
      op {
        name: "Tile"
        input_arg {
          name: "input"
          type_attr: "T"
        }
        input_arg {
          name: "multiples"
          type_attr: "Tmultiples"
        }
        output_arg {
          name: "output"
          type_attr: "T"
        }
        attr {
          name: "T"
          type: "type"
        }
        attr {
          name: "Tmultiples"
          type: "type"
          default_value {
            type: DT_INT32
          }
          allowed_values {
            list {
              type: DT_INT32
              type: DT_INT64
            }
          }
        }
      }
      op {
        name: "Unique"
        input_arg {
          name: "x"
          type_attr: "T"
        }
        output_arg {
          name: "y"
          type_attr: "T"
        }
        output_arg {
          name: "idx"
          type_attr: "out_idx"
        }
        attr {
          name: "T"
          type: "type"
        }
        attr {
          name: "out_idx"
          type: "type"
          default_value {
            type: DT_INT32
          }
          allowed_values {
            list {
              type: DT_INT32
              type: DT_INT64
            }
          }
        }
      }
      op {
        name: "Unpack"
        input_arg {
          name: "value"
          type_attr: "T"
        }
        output_arg {
          name: "output"
          type_attr: "T"
          number_attr: "num"
        }
        attr {
          name: "num"
          type: "int"
          has_minimum: true
        }
        attr {
          name: "T"
          type: "type"
        }
        attr {
          name: "axis"
          type: "int"
          default_value {
            i: 0
          }
        }
      }
      op {
        name: "VariableV2"
        output_arg {
          name: "ref"
          type_attr: "dtype"
          is_ref: true
        }
        attr {
          name: "shape"
          type: "shape"
        }
        attr {
          name: "dtype"
          type: "type"
        }
        attr {
          name: "container"
          type: "string"
          default_value {
            s: ""
          }
        }
        attr {
          name: "shared_name"
          type: "string"
          default_value {
            s: ""
          }
        }
        is_stateful: true
      }
      op {
        name: "Where"
        input_arg {
          name: "input"
          type: DT_BOOL
        }
        output_arg {
          name: "index"
          type: DT_INT64
        }
      }
      op {
        name: "ZerosLike"
        input_arg {
          name: "x"
          type_attr: "T"
        }
        output_arg {
          name: "y"
          type_attr: "T"
        }
        attr {
          name: "T"
          type: "type"
        }
      }
    }
    tags: "serve"
    tensorflow_version: "1.1.0"
    tensorflow_git_version: "v1.1.0-rc0-61-g1ec6ed5"
  }
  graph_def {
    node {
      name: "global_step/Initializer/Const"
      op: "Const"
      attr {
        key: "_class"
        value {
          list {
            s: "loc:@global_step"
          }
        }
      }
      attr {
        key: "_output_shapes"
        value {
          list {
            shape {
            }
          }
        }
      }
      attr {
        key: "dtype"
        value {
          type: DT_INT64
        }
      }
      attr {
        key: "value"
        value {
          tensor {
            dtype: DT_INT64
            tensor_shape {
            }
            int64_val: 0
          }
        }
      }
    }
    node {
      name: "global_step"
      op: "VariableV2"
      attr {
        key: "_class"
        value {
          list {
            s: "loc:@global_step"
          }
        }
      }
      attr {
        key: "_output_shapes"
        value {
          list {
            shape {
            }
          }
        }
      }
      attr {
        key: "container"
        value {
          s: ""
        }
      }
      attr {
        key: "dtype"
        value {
          type: DT_INT64
        }
      }
      attr {
        key: "shape"
        value {
          shape {
          }
        }
      }
      attr {
        key: "shared_name"
        value {
          s: ""
        }
      }
    }
    node {
      name: "global_step/Assign"
      op: "Assign"
      input: "global_step"
      input: "global_step/Initializer/Const"
      attr {
        key: "T"
        value {
          type: DT_INT64
        }
      }
      attr {
        key: "_class"
        value {
          list {
            s: "loc:@global_step"
          }
        }
      }
      attr {
        key: "_output_shapes"
        value {
          list {
            shape {
            }
          }
        }
      }
      attr {
        key: "use_locking"
        value {
          b: true
        }
      }
      attr {
        key: "validate_shape"
        value {
          b: true
        }
      }
    }
    node {
      name: "global_step/read"
      op: "Identity"
      input: "global_step"
      attr {
        key: "T"
        value {
          type: DT_INT64
        }
      }
      attr {
        key: "_class"
        value {
          list {
            s: "loc:@global_step"
          }
        }
      }
      attr {
        key: "_output_shapes"
        value {
          list {
            shape {
            }
          }
        }
      }
    }
    node {
      name: "Age"
      op: "Placeholder"
      attr {
        key: "_output_shapes"
        value {
          list {
            shape {
              dim {
                size: -1
              }
              dim {
                size: 1
              }
            }
          }
        }
      }
      attr {
        key: "dtype"
        value {
          type: DT_DOUBLE
        }
      }
      attr {
        key: "shape"
        value {
          shape {
          }
        }
      }
    }
    node {
      name: "Income"
      op: "Placeholder"
      attr {
        key: "_output_shapes"
        value {
          list {
            shape {
              dim {
                size: -1
              }
              dim {
                size: 1
              }
            }
          }
        }
      }
      attr {
        key: "dtype"
        value {
          type: DT_DOUBLE
        }
      }
      attr {
        key: "shape"
        value {
          shape {
          }
        }
      }
    }
    node {
      name: "Deductions"
      op: "Placeholder"
      attr {
        key: "_output_shapes"
        value {
          list {
            shape {
              dim {
                size: -1
              }
              dim {
                size: 1
              }
            }
          }
        }
      }
      attr {
        key: "dtype"
        value {
          type: DT_DOUBLE
        }
      }
      attr {
        key: "shape"
        value {
          shape {
          }
        }
      }
    }
    node {
      name: "Hours"
      op: "Placeholder"
      attr {
        key: "_output_shapes"
        value {
          list {
            shape {
              dim {
                size: -1
              }
              dim {
                size: 1
              }
            }
          }
        }
      }
      attr {
        key: "dtype"
        value {
          type: DT_DOUBLE
        }
      }
      attr {
        key: "shape"
        value {
          shape {
          }
        }
      }
    }
    node {
      name: "Employment"
      op: "Placeholder"
      attr {
        key: "_output_shapes"
        value {
          list {
            shape {
              dim {
                size: -1
              }
              dim {
                size: 1
              }
            }
          }
        }
      }
      attr {
        key: "dtype"
        value {
          type: DT_STRING
        }
      }
      attr {
        key: "shape"
        value {
          shape {
          }
        }
      }
    }
    node {
      name: "Education"
      op: "Placeholder"
      attr {
        key: "_output_shapes"
        value {
          list {
            shape {
              dim {
                size: -1
              }
              dim {
                size: 1
              }
            }
          }
        }
      }
      attr {
        key: "dtype"
        value {
          type: DT_STRING
        }
      }
      attr {
        key: "shape"
        value {
          shape {
          }
        }
      }
    }
    node {
      name: "Marital"
      op: "Placeholder"
      attr {
        key: "_output_shapes"
        value {
          list {
            shape {
              dim {
                size: -1
              }
              dim {
                size: 1
              }
            }
          }
        }
      }
      attr {
        key: "dtype"
        value {
          type: DT_STRING
        }
      }
      attr {
        key: "shape"
        value {
          shape {
          }
        }
      }
    }
    node {
      name: "Occupation"
      op: "Placeholder"
      attr {
        key: "_output_shapes"
        value {
          list {
            shape {
              dim {
                size: -1
              }
              dim {
                size: 1
              }
            }
          }
        }
      }
      attr {
        key: "dtype"
        value {
          type: DT_STRING
        }
      }
      attr {
        key: "shape"
        value {
          shape {
          }
        }
      }
    }
    node {
      name: "Gender"
      op: "Placeholder"
      attr {
        key: "_output_shapes"
        value {
          list {
            shape {
              dim {
                size: -1
              }
              dim {
                size: 1
              }
            }
          }
        }
      }
      attr {
        key: "dtype"
        value {
          type: DT_STRING
        }
      }
      attr {
        key: "shape"
        value {
          shape {
          }
        }
      }
    }
    node {
      name: "linear/linear/ToFloat"
      op: "Cast"
      input: "Age"
      attr {
        key: "DstT"
        value {
          type: DT_FLOAT
        }
      }
      attr {
        key: "SrcT"
        value {
          type: DT_DOUBLE
        }
      }
      attr {
        key: "_output_shapes"
        value {
          list {
            shape {
              dim {
                size: -1
              }
              dim {
                size: 1
              }
            }
          }
        }
      }
    }
    node {
      name: "linear/Age/weight/part_0/Initializer/Const"
      op: "Const"
      attr {
        key: "_class"
        value {
          list {
            s: "loc:@linear/Age/weight/part_0"
          }
        }
      }
      attr {
        key: "_output_shapes"
        value {
          list {
            shape {
              dim {
                size: 1
              }
              dim {
                size: 1
              }
            }
          }
        }
      }
      attr {
        key: "dtype"
        value {
          type: DT_FLOAT
        }
      }
      attr {
        key: "value"
        value {
          tensor {
            dtype: DT_FLOAT
            tensor_shape {
              dim {
                size: 1
              }
              dim {
                size: 1
              }
            }
            float_val: 0.0
          }
        }
      }
    }
    node {
      name: "linear/Age/weight/part_0"
      op: "VariableV2"
      attr {
        key: "_class"
        value {
          list {
            s: "loc:@linear/Age/weight/part_0"
          }
        }
      }
      attr {
        key: "_output_shapes"
        value {
          list {
            shape {
              dim {
                size: 1
              }
              dim {
                size: 1
              }
            }
          }
        }
      }
      attr {
        key: "container"
        value {
          s: ""
        }
      }
      attr {
        key: "dtype"
        value {
          type: DT_FLOAT
        }
      }
      attr {
        key: "shape"
        value {
          shape {
            dim {
              size: 1
            }
            dim {
              size: 1
            }
          }
        }
      }
      attr {
        key: "shared_name"
        value {
          s: ""
        }
      }
    }
    node {
      name: "linear/Age/weight/part_0/Assign"
      op: "Assign"
      input: "linear/Age/weight/part_0"
      input: "linear/Age/weight/part_0/Initializer/Const"
      attr {
        key: "T"
        value {
          type: DT_FLOAT
        }
      }
      attr {
        key: "_class"
        value {
          list {
            s: "loc:@linear/Age/weight/part_0"
          }
        }
      }
      attr {
        key: "_output_shapes"
        value {
          list {
            shape {
              dim {
                size: 1
              }
              dim {
                size: 1
              }
            }
          }
        }
      }
      attr {
        key: "use_locking"
        value {
          b: true
        }
      }
      attr {
        key: "validate_shape"
        value {
          b: true
        }
      }
    }
    node {
      name: "linear/Age/weight/part_0/read"
      op: "Identity"
      input: "linear/Age/weight/part_0"
      attr {
        key: "T"
        value {
          type: DT_FLOAT
        }
      }
      attr {
        key: "_class"
        value {
          list {
            s: "loc:@linear/Age/weight/part_0"
          }
        }
      }
      attr {
        key: "_output_shapes"
        value {
          list {
            shape {
              dim {
                size: 1
              }
              dim {
                size: 1
              }
            }
          }
        }
      }
    }
    node {
      name: "linear/Age/weight"
      op: "Identity"
      input: "linear/Age/weight/part_0/read"
      attr {
        key: "T"
        value {
          type: DT_FLOAT
        }
      }
      attr {
        key: "_output_shapes"
        value {
          list {
            shape {
              dim {
                size: 1
              }
              dim {
                size: 1
              }
            }
          }
        }
      }
    }
    node {
      name: "linear/linear/Age/matmul"
      op: "MatMul"
      input: "linear/linear/ToFloat"
      input: "linear/Age/weight"
      attr {
        key: "T"
        value {
          type: DT_FLOAT
        }
      }
      attr {
        key: "_output_shapes"
        value {
          list {
            shape {
              dim {
                size: -1
              }
              dim {
                size: 1
              }
            }
          }
        }
      }
      attr {
        key: "transpose_a"
        value {
          b: false
        }
      }
      attr {
        key: "transpose_b"
        value {
          b: false
        }
      }
    }
    node {
      name: "linear/linear/Reshape/shape"
      op: "Const"
      attr {
        key: "_output_shapes"
        value {
          list {
            shape {
              dim {
                size: 2
              }
            }
          }
        }
      }
      attr {
        key: "dtype"
        value {
          type: DT_INT32
        }
      }
      attr {
        key: "value"
        value {
          tensor {
            dtype: DT_INT32
            tensor_shape {
              dim {
                size: 2
              }
            }
            tensor_content: "\377\377\377\377\001\000\000\000"
          }
        }
      }
    }
    node {
      name: "linear/linear/Reshape"
      op: "Reshape"
      input: "linear/linear/Age/matmul"
      input: "linear/linear/Reshape/shape"
      attr {
        key: "T"
        value {
          type: DT_FLOAT
        }
      }
      attr {
        key: "Tshape"
        value {
          type: DT_INT32
        }
      }
      attr {
        key: "_output_shapes"
        value {
          list {
            shape {
              dim {
                size: -1
              }
              dim {
                size: 1
              }
            }
          }
        }
      }
    }
    node {
      name: "linear/linear/ToFloat_1"
      op: "Cast"
      input: "Deductions"
      attr {
        key: "DstT"
        value {
          type: DT_FLOAT
        }
      }
      attr {
        key: "SrcT"
        value {
          type: DT_DOUBLE
        }
      }
      attr {
        key: "_output_shapes"
        value {
          list {
            shape {
              dim {
                size: -1
              }
              dim {
                size: 1
              }
            }
          }
        }
      }
    }
    node {
      name: "linear/Deductions/weight/part_0/Initializer/Const"
      op: "Const"
      attr {
        key: "_class"
        value {
          list {
            s: "loc:@linear/Deductions/weight/part_0"
          }
        }
      }
      attr {
        key: "_output_shapes"
        value {
          list {
            shape {
              dim {
                size: 1
              }
              dim {
                size: 1
              }
            }
          }
        }
      }
      attr {
        key: "dtype"
        value {
          type: DT_FLOAT
        }
      }
      attr {
        key: "value"
        value {
          tensor {
            dtype: DT_FLOAT
            tensor_shape {
              dim {
                size: 1
              }
              dim {
                size: 1
              }
            }
            float_val: 0.0
          }
        }
      }
    }
    node {
      name: "linear/Deductions/weight/part_0"
      op: "VariableV2"
      attr {
        key: "_class"
        value {
          list {
            s: "loc:@linear/Deductions/weight/part_0"
          }
        }
      }
      attr {
        key: "_output_shapes"
        value {
          list {
            shape {
              dim {
                size: 1
              }
              dim {
                size: 1
              }
            }
          }
        }
      }
      attr {
        key: "container"
        value {
          s: ""
        }
      }
      attr {
        key: "dtype"
        value {
          type: DT_FLOAT
        }
      }
      attr {
        key: "shape"
        value {
          shape {
            dim {
              size: 1
            }
            dim {
              size: 1
            }
          }
        }
      }
      attr {
        key: "shared_name"
        value {
          s: ""
        }
      }
    }
    node {
      name: "linear/Deductions/weight/part_0/Assign"
      op: "Assign"
      input: "linear/Deductions/weight/part_0"
      input: "linear/Deductions/weight/part_0/Initializer/Const"
      attr {
        key: "T"
        value {
          type: DT_FLOAT
        }
      }
      attr {
        key: "_class"
        value {
          list {
            s: "loc:@linear/Deductions/weight/part_0"
          }
        }
      }
      attr {
        key: "_output_shapes"
        value {
          list {
            shape {
              dim {
                size: 1
              }
              dim {
                size: 1
              }
            }
          }
        }
      }
      attr {
        key: "use_locking"
        value {
          b: true
        }
      }
      attr {
        key: "validate_shape"
        value {
          b: true
        }
      }
    }
    node {
      name: "linear/Deductions/weight/part_0/read"
      op: "Identity"
      input: "linear/Deductions/weight/part_0"
      attr {
        key: "T"
        value {
          type: DT_FLOAT
        }
      }
      attr {
        key: "_class"
        value {
          list {
            s: "loc:@linear/Deductions/weight/part_0"
          }
        }
      }
      attr {
        key: "_output_shapes"
        value {
          list {
            shape {
              dim {
                size: 1
              }
              dim {
                size: 1
              }
            }
          }
        }
      }
    }
    node {
      name: "linear/Deductions/weight"
      op: "Identity"
      input: "linear/Deductions/weight/part_0/read"
      attr {
        key: "T"
        value {
          type: DT_FLOAT
        }
      }
      attr {
        key: "_output_shapes"
        value {
          list {
            shape {
              dim {
                size: 1
              }
              dim {
                size: 1
              }
            }
          }
        }
      }
    }
    node {
      name: "linear/linear/Deductions/matmul"
      op: "MatMul"
      input: "linear/linear/ToFloat_1"
      input: "linear/Deductions/weight"
      attr {
        key: "T"
        value {
          type: DT_FLOAT
        }
      }
      attr {
        key: "_output_shapes"
        value {
          list {
            shape {
              dim {
                size: -1
              }
              dim {
                size: 1
              }
            }
          }
        }
      }
      attr {
        key: "transpose_a"
        value {
          b: false
        }
      }
      attr {
        key: "transpose_b"
        value {
          b: false
        }
      }
    }
    node {
      name: "linear/linear/Reshape_1/shape"
      op: "Const"
      attr {
        key: "_output_shapes"
        value {
          list {
            shape {
              dim {
                size: 2
              }
            }
          }
        }
      }
      attr {
        key: "dtype"
        value {
          type: DT_INT32
        }
      }
      attr {
        key: "value"
        value {
          tensor {
            dtype: DT_INT32
            tensor_shape {
              dim {
                size: 2
              }
            }
            tensor_content: "\377\377\377\377\001\000\000\000"
          }
        }
      }
    }
    node {
      name: "linear/linear/Reshape_1"
      op: "Reshape"
      input: "linear/linear/Deductions/matmul"
      input: "linear/linear/Reshape_1/shape"
      attr {
        key: "T"
        value {
          type: DT_FLOAT
        }
      }
      attr {
        key: "Tshape"
        value {
          type: DT_INT32
        }
      }
      attr {
        key: "_output_shapes"
        value {
          list {
            shape {
              dim {
                size: -1
              }
              dim {
                size: 1
              }
            }
          }
        }
      }
    }
    node {
      name: "linear/linear/ToFloat_2"
      op: "Cast"
      input: "Hours"
      attr {
        key: "DstT"
        value {
          type: DT_FLOAT
        }
      }
      attr {
        key: "SrcT"
        value {
          type: DT_DOUBLE
        }
      }
      attr {
        key: "_output_shapes"
        value {
          list {
            shape {
              dim {
                size: -1
              }
              dim {
                size: 1
              }
            }
          }
        }
      }
    }
    node {
      name: "linear/Hours/weight/part_0/Initializer/Const"
      op: "Const"
      attr {
        key: "_class"
        value {
          list {
            s: "loc:@linear/Hours/weight/part_0"
          }
        }
      }
      attr {
        key: "_output_shapes"
        value {
          list {
            shape {
              dim {
                size: 1
              }
              dim {
                size: 1
              }
            }
          }
        }
      }
      attr {
        key: "dtype"
        value {
          type: DT_FLOAT
        }
      }
      attr {
        key: "value"
        value {
          tensor {
            dtype: DT_FLOAT
            tensor_shape {
              dim {
                size: 1
              }
              dim {
                size: 1
              }
            }
            float_val: 0.0
          }
        }
      }
    }
    node {
      name: "linear/Hours/weight/part_0"
      op: "VariableV2"
      attr {
        key: "_class"
        value {
          list {
            s: "loc:@linear/Hours/weight/part_0"
          }
        }
      }
      attr {
        key: "_output_shapes"
        value {
          list {
            shape {
              dim {
                size: 1
              }
              dim {
                size: 1
              }
            }
          }
        }
      }
      attr {
        key: "container"
        value {
          s: ""
        }
      }
      attr {
        key: "dtype"
        value {
          type: DT_FLOAT
        }
      }
      attr {
        key: "shape"
        value {
          shape {
            dim {
              size: 1
            }
            dim {
              size: 1
            }
          }
        }
      }
      attr {
        key: "shared_name"
        value {
          s: ""
        }
      }
    }
    node {
      name: "linear/Hours/weight/part_0/Assign"
      op: "Assign"
      input: "linear/Hours/weight/part_0"
      input: "linear/Hours/weight/part_0/Initializer/Const"
      attr {
        key: "T"
        value {
          type: DT_FLOAT
        }
      }
      attr {
        key: "_class"
        value {
          list {
            s: "loc:@linear/Hours/weight/part_0"
          }
        }
      }
      attr {
        key: "_output_shapes"
        value {
          list {
            shape {
              dim {
                size: 1
              }
              dim {
                size: 1
              }
            }
          }
        }
      }
      attr {
        key: "use_locking"
        value {
          b: true
        }
      }
      attr {
        key: "validate_shape"
        value {
          b: true
        }
      }
    }
    node {
      name: "linear/Hours/weight/part_0/read"
      op: "Identity"
      input: "linear/Hours/weight/part_0"
      attr {
        key: "T"
        value {
          type: DT_FLOAT
        }
      }
      attr {
        key: "_class"
        value {
          list {
            s: "loc:@linear/Hours/weight/part_0"
          }
        }
      }
      attr {
        key: "_output_shapes"
        value {
          list {
            shape {
              dim {
                size: 1
              }
              dim {
                size: 1
              }
            }
          }
        }
      }
    }
    node {
      name: "linear/Hours/weight"
      op: "Identity"
      input: "linear/Hours/weight/part_0/read"
      attr {
        key: "T"
        value {
          type: DT_FLOAT
        }
      }
      attr {
        key: "_output_shapes"
        value {
          list {
            shape {
              dim {
                size: 1
              }
              dim {
                size: 1
              }
            }
          }
        }
      }
    }
    node {
      name: "linear/linear/Hours/matmul"
      op: "MatMul"
      input: "linear/linear/ToFloat_2"
      input: "linear/Hours/weight"
      attr {
        key: "T"
        value {
          type: DT_FLOAT
        }
      }
      attr {
        key: "_output_shapes"
        value {
          list {
            shape {
              dim {
                size: -1
              }
              dim {
                size: 1
              }
            }
          }
        }
      }
      attr {
        key: "transpose_a"
        value {
          b: false
        }
      }
      attr {
        key: "transpose_b"
        value {
          b: false
        }
      }
    }
    node {
      name: "linear/linear/Reshape_2/shape"
      op: "Const"
      attr {
        key: "_output_shapes"
        value {
          list {
            shape {
              dim {
                size: 2
              }
            }
          }
        }
      }
      attr {
        key: "dtype"
        value {
          type: DT_INT32
        }
      }
      attr {
        key: "value"
        value {
          tensor {
            dtype: DT_INT32
            tensor_shape {
              dim {
                size: 2
              }
            }
            tensor_content: "\377\377\377\377\001\000\000\000"
          }
        }
      }
    }
    node {
      name: "linear/linear/Reshape_2"
      op: "Reshape"
      input: "linear/linear/Hours/matmul"
      input: "linear/linear/Reshape_2/shape"
      attr {
        key: "T"
        value {
          type: DT_FLOAT
        }
      }
      attr {
        key: "Tshape"
        value {
          type: DT_INT32
        }
      }
      attr {
        key: "_output_shapes"
        value {
          list {
            shape {
              dim {
                size: -1
              }
              dim {
                size: 1
              }
            }
          }
        }
      }
    }
    node {
      name: "linear/linear/ToFloat_3"
      op: "Cast"
      input: "Income"
      attr {
        key: "DstT"
        value {
          type: DT_FLOAT
        }
      }
      attr {
        key: "SrcT"
        value {
          type: DT_DOUBLE
        }
      }
      attr {
        key: "_output_shapes"
        value {
          list {
            shape {
              dim {
                size: -1
              }
              dim {
                size: 1
              }
            }
          }
        }
      }
    }
    node {
      name: "linear/Income/weight/part_0/Initializer/Const"
      op: "Const"
      attr {
        key: "_class"
        value {
          list {
            s: "loc:@linear/Income/weight/part_0"
          }
        }
      }
      attr {
        key: "_output_shapes"
        value {
          list {
            shape {
              dim {
                size: 1
              }
              dim {
                size: 1
              }
            }
          }
        }
      }
      attr {
        key: "dtype"
        value {
          type: DT_FLOAT
        }
      }
      attr {
        key: "value"
        value {
          tensor {
            dtype: DT_FLOAT
            tensor_shape {
              dim {
                size: 1
              }
              dim {
                size: 1
              }
            }
            float_val: 0.0
          }
        }
      }
    }
    node {
      name: "linear/Income/weight/part_0"
      op: "VariableV2"
      attr {
        key: "_class"
        value {
          list {
            s: "loc:@linear/Income/weight/part_0"
          }
        }
      }
      attr {
        key: "_output_shapes"
        value {
          list {
            shape {
              dim {
                size: 1
              }
              dim {
                size: 1
              }
            }
          }
        }
      }
      attr {
        key: "container"
        value {
          s: ""
        }
      }
      attr {
        key: "dtype"
        value {
          type: DT_FLOAT
        }
      }
      attr {
        key: "shape"
        value {
          shape {
            dim {
              size: 1
            }
            dim {
              size: 1
            }
          }
        }
      }
      attr {
        key: "shared_name"
        value {
          s: ""
        }
      }
    }
    node {
      name: "linear/Income/weight/part_0/Assign"
      op: "Assign"
      input: "linear/Income/weight/part_0"
      input: "linear/Income/weight/part_0/Initializer/Const"
      attr {
        key: "T"
        value {
          type: DT_FLOAT
        }
      }
      attr {
        key: "_class"
        value {
          list {
            s: "loc:@linear/Income/weight/part_0"
          }
        }
      }
      attr {
        key: "_output_shapes"
        value {
          list {
            shape {
              dim {
                size: 1
              }
              dim {
                size: 1
              }
            }
          }
        }
      }
      attr {
        key: "use_locking"
        value {
          b: true
        }
      }
      attr {
        key: "validate_shape"
        value {
          b: true
        }
      }
    }
    node {
      name: "linear/Income/weight/part_0/read"
      op: "Identity"
      input: "linear/Income/weight/part_0"
      attr {
        key: "T"
        value {
          type: DT_FLOAT
        }
      }
      attr {
        key: "_class"
        value {
          list {
            s: "loc:@linear/Income/weight/part_0"
          }
        }
      }
      attr {
        key: "_output_shapes"
        value {
          list {
            shape {
              dim {
                size: 1
              }
              dim {
                size: 1
              }
            }
          }
        }
      }
    }
    node {
      name: "linear/Income/weight"
      op: "Identity"
      input: "linear/Income/weight/part_0/read"
      attr {
        key: "T"
        value {
          type: DT_FLOAT
        }
      }
      attr {
        key: "_output_shapes"
        value {
          list {
            shape {
              dim {
                size: 1
              }
              dim {
                size: 1
              }
            }
          }
        }
      }
    }
    node {
      name: "linear/linear/Income/matmul"
      op: "MatMul"
      input: "linear/linear/ToFloat_3"
      input: "linear/Income/weight"
      attr {
        key: "T"
        value {
          type: DT_FLOAT
        }
      }
      attr {
        key: "_output_shapes"
        value {
          list {
            shape {
              dim {
                size: -1
              }
              dim {
                size: 1
              }
            }
          }
        }
      }
      attr {
        key: "transpose_a"
        value {
          b: false
        }
      }
      attr {
        key: "transpose_b"
        value {
          b: false
        }
      }
    }
    node {
      name: "linear/linear/Reshape_3/shape"
      op: "Const"
      attr {
        key: "_output_shapes"
        value {
          list {
            shape {
              dim {
                size: 2
              }
            }
          }
        }
      }
      attr {
        key: "dtype"
        value {
          type: DT_INT32
        }
      }
      attr {
        key: "value"
        value {
          tensor {
            dtype: DT_INT32
            tensor_shape {
              dim {
                size: 2
              }
            }
            tensor_content: "\377\377\377\377\001\000\000\000"
          }
        }
      }
    }
    node {
      name: "linear/linear/Reshape_3"
      op: "Reshape"
      input: "linear/linear/Income/matmul"
      input: "linear/linear/Reshape_3/shape"
      attr {
        key: "T"
        value {
          type: DT_FLOAT
        }
      }
      attr {
        key: "Tshape"
        value {
          type: DT_INT32
        }
      }
      attr {
        key: "_output_shapes"
        value {
          list {
            shape {
              dim {
                size: -1
              }
              dim {
                size: 1
              }
            }
          }
        }
      }
    }
    node {
      name: "linear/linear/DenseToSparseTensor/Shape"
      op: "Shape"
      input: "Education"
      attr {
        key: "T"
        value {
          type: DT_STRING
        }
      }
      attr {
        key: "_output_shapes"
        value {
          list {
            shape {
              dim {
                size: 2
              }
            }
          }
        }
      }
      attr {
        key: "out_type"
        value {
          type: DT_INT32
        }
      }
    }
    node {
      name: "linear/linear/DenseToSparseTensor/Cast"
      op: "Cast"
      input: "linear/linear/DenseToSparseTensor/Shape"
      attr {
        key: "DstT"
        value {
          type: DT_INT64
        }
      }
      attr {
        key: "SrcT"
        value {
          type: DT_INT32
        }
      }
      attr {
        key: "_output_shapes"
        value {
          list {
            shape {
              dim {
                size: 2
              }
            }
          }
        }
      }
    }
    node {
      name: "linear/linear/DenseToSparseTensor/Cast_1/x"
      op: "Const"
      attr {
        key: "_output_shapes"
        value {
          list {
            shape {
            }
          }
        }
      }
      attr {
        key: "dtype"
        value {
          type: DT_STRING
        }
      }
      attr {
        key: "value"
        value {
          tensor {
            dtype: DT_STRING
            tensor_shape {
            }
            string_val: ""
          }
        }
      }
    }
    node {
      name: "linear/linear/DenseToSparseTensor/NotEqual"
      op: "NotEqual"
      input: "Education"
      input: "linear/linear/DenseToSparseTensor/Cast_1/x"
      attr {
        key: "T"
        value {
          type: DT_STRING
        }
      }
      attr {
        key: "_output_shapes"
        value {
          list {
            shape {
              dim {
                size: -1
              }
              dim {
                size: 1
              }
            }
          }
        }
      }
    }
    node {
      name: "linear/linear/DenseToSparseTensor/Where"
      op: "Where"
      input: "linear/linear/DenseToSparseTensor/NotEqual"
      attr {
        key: "_output_shapes"
        value {
          list {
            shape {
              dim {
                size: -1
              }
              dim {
                size: 2
              }
            }
          }
        }
      }
    }
    node {
      name: "linear/linear/DenseToSparseTensor/Reshape/shape"
      op: "Const"
      attr {
        key: "_output_shapes"
        value {
          list {
            shape {
              dim {
                size: 1
              }
            }
          }
        }
      }
      attr {
        key: "dtype"
        value {
          type: DT_INT32
        }
      }
      attr {
        key: "value"
        value {
          tensor {
            dtype: DT_INT32
            tensor_shape {
              dim {
                size: 1
              }
            }
            int_val: -1
          }
        }
      }
    }
    node {
      name: "linear/linear/DenseToSparseTensor/Reshape"
      op: "Reshape"
      input: "Education"
      input: "linear/linear/DenseToSparseTensor/Reshape/shape"
      attr {
        key: "T"
        value {
          type: DT_STRING
        }
      }
      attr {
        key: "Tshape"
        value {
          type: DT_INT32
        }
      }
      attr {
        key: "_output_shapes"
        value {
          list {
            shape {
              dim {
                size: -1
              }
            }
          }
        }
      }
    }
    node {
      name: "linear/linear/DenseToSparseTensor/strided_slice/stack"
      op: "Const"
      attr {
        key: "_output_shapes"
        value {
          list {
            shape {
              dim {
                size: 2
              }
            }
          }
        }
      }
      attr {
        key: "dtype"
        value {
          type: DT_INT32
        }
      }
      attr {
        key: "value"
        value {
          tensor {
            dtype: DT_INT32
            tensor_shape {
              dim {
                size: 2
              }
            }
            tensor_content: "\000\000\000\000\001\000\000\000"
          }
        }
      }
    }
    node {
      name: "linear/linear/DenseToSparseTensor/strided_slice/stack_1"
      op: "Const"
      attr {
        key: "_output_shapes"
        value {
          list {
            shape {
              dim {
                size: 2
              }
            }
          }
        }
      }
      attr {
        key: "dtype"
        value {
          type: DT_INT32
        }
      }
      attr {
        key: "value"
        value {
          tensor {
            dtype: DT_INT32
            tensor_shape {
              dim {
                size: 2
              }
            }
            tensor_content: "\000\000\000\000\002\000\000\000"
          }
        }
      }
    }
    node {
      name: "linear/linear/DenseToSparseTensor/strided_slice/stack_2"
      op: "Const"
      attr {
        key: "_output_shapes"
        value {
          list {
            shape {
              dim {
                size: 2
              }
            }
          }
        }
      }
      attr {
        key: "dtype"
        value {
          type: DT_INT32
        }
      }
      attr {
        key: "value"
        value {
          tensor {
            dtype: DT_INT32
            tensor_shape {
              dim {
                size: 2
              }
            }
            tensor_content: "\001\000\000\000\001\000\000\000"
          }
        }
      }
    }
    node {
      name: "linear/linear/DenseToSparseTensor/strided_slice"
      op: "StridedSlice"
      input: "linear/linear/DenseToSparseTensor/Where"
      input: "linear/linear/DenseToSparseTensor/strided_slice/stack"
      input: "linear/linear/DenseToSparseTensor/strided_slice/stack_1"
      input: "linear/linear/DenseToSparseTensor/strided_slice/stack_2"
      attr {
        key: "Index"
        value {
          type: DT_INT32
        }
      }
      attr {
        key: "T"
        value {
          type: DT_INT64
        }
      }
      attr {
        key: "_output_shapes"
        value {
          list {
            shape {
              dim {
                size: -1
              }
            }
          }
        }
      }
      attr {
        key: "begin_mask"
        value {
          i: 1
        }
      }
      attr {
        key: "ellipsis_mask"
        value {
          i: 0
        }
      }
      attr {
        key: "end_mask"
        value {
          i: 1
        }
      }
      attr {
        key: "new_axis_mask"
        value {
          i: 0
        }
      }
      attr {
        key: "shrink_axis_mask"
        value {
          i: 2
        }
      }
    }
    node {
      name: "linear/linear/DenseToSparseTensor/strided_slice_1/stack"
      op: "Const"
      attr {
        key: "_output_shapes"
        value {
          list {
            shape {
              dim {
                size: 2
              }
            }
          }
        }
      }
      attr {
        key: "dtype"
        value {
          type: DT_INT32
        }
      }
      attr {
        key: "value"
        value {
          tensor {
            dtype: DT_INT32
            tensor_shape {
              dim {
                size: 2
              }
            }
            tensor_content: "\000\000\000\000\000\000\000\000"
          }
        }
      }
    }
    node {
      name: "linear/linear/DenseToSparseTensor/strided_slice_1/stack_1"
      op: "Const"
      attr {
        key: "_output_shapes"
        value {
          list {
            shape {
              dim {
                size: 2
              }
            }
          }
        }
      }
      attr {
        key: "dtype"
        value {
          type: DT_INT32
        }
      }
      attr {
        key: "value"
        value {
          tensor {
            dtype: DT_INT32
            tensor_shape {
              dim {
                size: 2
              }
            }
            tensor_content: "\000\000\000\000\001\000\000\000"
          }
        }
      }
    }
    node {
      name: "linear/linear/DenseToSparseTensor/strided_slice_1/stack_2"
      op: "Const"
      attr {
        key: "_output_shapes"
        value {
          list {
            shape {
              dim {
                size: 2
              }
            }
          }
        }
      }
      attr {
        key: "dtype"
        value {
          type: DT_INT32
        }
      }
      attr {
        key: "value"
        value {
          tensor {
            dtype: DT_INT32
            tensor_shape {
              dim {
                size: 2
              }
            }
            tensor_content: "\001\000\000\000\001\000\000\000"
          }
        }
      }
    }
    node {
      name: "linear/linear/DenseToSparseTensor/strided_slice_1"
      op: "StridedSlice"
      input: "linear/linear/DenseToSparseTensor/Where"
      input: "linear/linear/DenseToSparseTensor/strided_slice_1/stack"
      input: "linear/linear/DenseToSparseTensor/strided_slice_1/stack_1"
      input: "linear/linear/DenseToSparseTensor/strided_slice_1/stack_2"
      attr {
        key: "Index"
        value {
          type: DT_INT32
        }
      }
      attr {
        key: "T"
        value {
          type: DT_INT64
        }
      }
      attr {
        key: "_output_shapes"
        value {
          list {
            shape {
              dim {
                size: -1
              }
              dim {
                size: 1
              }
            }
          }
        }
      }
      attr {
        key: "begin_mask"
        value {
          i: 3
        }
      }
      attr {
        key: "ellipsis_mask"
        value {
          i: 0
        }
      }
      attr {
        key: "end_mask"
        value {
          i: 1
        }
      }
      attr {
        key: "new_axis_mask"
        value {
          i: 0
        }
      }
      attr {
        key: "shrink_axis_mask"
        value {
          i: 0
        }
      }
    }
    node {
      name: "linear/linear/DenseToSparseTensor/unstack"
      op: "Unpack"
      input: "linear/linear/DenseToSparseTensor/Cast"
      attr {
        key: "T"
        value {
          type: DT_INT64
        }
      }
      attr {
        key: "_output_shapes"
        value {
          list {
            shape {
            }
            shape {
            }
          }
        }
      }
      attr {
        key: "axis"
        value {
          i: 0
        }
      }
      attr {
        key: "num"
        value {
          i: 2
        }
      }
    }
    node {
      name: "linear/linear/DenseToSparseTensor/stack"
      op: "Pack"
      input: "linear/linear/DenseToSparseTensor/unstack:1"
      attr {
        key: "N"
        value {
          i: 1
        }
      }
      attr {
        key: "T"
        value {
          type: DT_INT64
        }
      }
      attr {
        key: "_output_shapes"
        value {
          list {
            shape {
              dim {
                size: 1
              }
            }
          }
        }
      }
      attr {
        key: "axis"
        value {
          i: 0
        }
      }
    }
    node {
      name: "linear/linear/DenseToSparseTensor/Mul"
      op: "Mul"
      input: "linear/linear/DenseToSparseTensor/strided_slice_1"
      input: "linear/linear/DenseToSparseTensor/stack"
      attr {
        key: "T"
        value {
          type: DT_INT64
        }
      }
      attr {
        key: "_output_shapes"
        value {
          list {
            shape {
              dim {
                size: -1
              }
              dim {
                size: 1
              }
            }
          }
        }
      }
    }
    node {
      name: "linear/linear/DenseToSparseTensor/Sum/reduction_indices"
      op: "Const"
      attr {
        key: "_output_shapes"
        value {
          list {
            shape {
              dim {
                size: 1
              }
            }
          }
        }
      }
      attr {
        key: "dtype"
        value {
          type: DT_INT32
        }
      }
      attr {
        key: "value"
        value {
          tensor {
            dtype: DT_INT32
            tensor_shape {
              dim {
                size: 1
              }
            }
            int_val: 1
          }
        }
      }
    }
    node {
      name: "linear/linear/DenseToSparseTensor/Sum"
      op: "Sum"
      input: "linear/linear/DenseToSparseTensor/Mul"
      input: "linear/linear/DenseToSparseTensor/Sum/reduction_indices"
      attr {
        key: "T"
        value {
          type: DT_INT64
        }
      }
      attr {
        key: "Tidx"
        value {
          type: DT_INT32
        }
      }
      attr {
        key: "_output_shapes"
        value {
          list {
            shape {
              dim {
                size: -1
              }
            }
          }
        }
      }
      attr {
        key: "keep_dims"
        value {
          b: false
        }
      }
    }
    node {
      name: "linear/linear/DenseToSparseTensor/Add"
      op: "Add"
      input: "linear/linear/DenseToSparseTensor/strided_slice"
      input: "linear/linear/DenseToSparseTensor/Sum"
      attr {
        key: "T"
        value {
          type: DT_INT64
        }
      }
      attr {
        key: "_output_shapes"
        value {
          list {
            shape {
              dim {
                size: -1
              }
            }
          }
        }
      }
    }
    node {
      name: "linear/linear/DenseToSparseTensor/Gather"
      op: "Gather"
      input: "linear/linear/DenseToSparseTensor/Reshape"
      input: "linear/linear/DenseToSparseTensor/Add"
      attr {
        key: "Tindices"
        value {
          type: DT_INT64
        }
      }
      attr {
        key: "Tparams"
        value {
          type: DT_STRING
        }
      }
      attr {
        key: "_output_shapes"
        value {
          list {
            shape {
              dim {
                size: -1
              }
            }
          }
        }
      }
      attr {
        key: "validate_indices"
        value {
          b: true
        }
      }
    }
    node {
      name: "linear/linear/lookup/Const"
      op: "Const"
      attr {
        key: "_output_shapes"
        value {
          list {
            shape {
              dim {
                size: 16
              }
            }
          }
        }
      }
      attr {
        key: "dtype"
        value {
          type: DT_STRING
        }
      }
      attr {
        key: "value"
        value {
          tensor {
            dtype: DT_STRING
            tensor_shape {
              dim {
                size: 16
              }
            }
            string_val: "Associate"
            string_val: "Bachelor"
            string_val: "College"
            string_val: "Doctorate"
            string_val: "HSgrad"
            string_val: "Master"
            string_val: "Preschool"
            string_val: "Professional"
            string_val: "Vocational"
            string_val: "Yr10"
            string_val: "Yr11"
            string_val: "Yr12"
            string_val: "Yr1t4"
            string_val: "Yr5t6"
            string_val: "Yr7t8"
            string_val: "Yr9"
          }
        }
      }
    }
    node {
      name: "linear/linear/lookup/Size"
      op: "Const"
      attr {
        key: "_output_shapes"
        value {
          list {
            shape {
            }
          }
        }
      }
      attr {
        key: "dtype"
        value {
          type: DT_INT32
        }
      }
      attr {
        key: "value"
        value {
          tensor {
            dtype: DT_INT32
            tensor_shape {
            }
            int_val: 16
          }
        }
      }
    }
    node {
      name: "linear/linear/lookup/range/start"
      op: "Const"
      attr {
        key: "_output_shapes"
        value {
          list {
            shape {
            }
          }
        }
      }
      attr {
        key: "dtype"
        value {
          type: DT_INT32
        }
      }
      attr {
        key: "value"
        value {
          tensor {
            dtype: DT_INT32
            tensor_shape {
            }
            int_val: 0
          }
        }
      }
    }
    node {
      name: "linear/linear/lookup/range/delta"
      op: "Const"
      attr {
        key: "_output_shapes"
        value {
          list {
            shape {
            }
          }
        }
      }
      attr {
        key: "dtype"
        value {
          type: DT_INT32
        }
      }
      attr {
        key: "value"
        value {
          tensor {
            dtype: DT_INT32
            tensor_shape {
            }
            int_val: 1
          }
        }
      }
    }
    node {
      name: "linear/linear/lookup/range"
      op: "Range"
      input: "linear/linear/lookup/range/start"
      input: "linear/linear/lookup/Size"
      input: "linear/linear/lookup/range/delta"
      attr {
        key: "Tidx"
        value {
          type: DT_INT32
        }
      }
      attr {
        key: "_output_shapes"
        value {
          list {
            shape {
              dim {
                size: 16
              }
            }
          }
        }
      }
    }
    node {
      name: "linear/linear/lookup/ToInt64"
      op: "Cast"
      input: "linear/linear/lookup/range"
      attr {
        key: "DstT"
        value {
          type: DT_INT64
        }
      }
      attr {
        key: "SrcT"
        value {
          type: DT_INT32
        }
      }
      attr {
        key: "_output_shapes"
        value {
          list {
            shape {
              dim {
                size: 16
              }
            }
          }
        }
      }
    }
    node {
      name: "linear/linear/lookup/hash_table"
      op: "HashTable"
      attr {
        key: "_output_shapes"
        value {
          list {
            shape {
              dim {
                size: 2
              }
            }
          }
        }
      }
      attr {
        key: "container"
        value {
          s: ""
        }
      }
      attr {
        key: "key_dtype"
        value {
          type: DT_STRING
        }
      }
      attr {
        key: "shared_name"
        value {
          s: ""
        }
      }
      attr {
        key: "use_node_name_sharing"
        value {
          b: false
        }
      }
      attr {
        key: "value_dtype"
        value {
          type: DT_INT64
        }
      }
    }
    node {
      name: "linear/linear/lookup/hash_table/Const"
      op: "Const"
      attr {
        key: "_output_shapes"
        value {
          list {
            shape {
            }
          }
        }
      }
      attr {
        key: "dtype"
        value {
          type: DT_INT64
        }
      }
      attr {
        key: "value"
        value {
          tensor {
            dtype: DT_INT64
            tensor_shape {
            }
            int64_val: -1
          }
        }
      }
    }
    node {
      name: "linear/linear/lookup/hash_table/table_init"
      op: "InitializeTable"
      input: "linear/linear/lookup/hash_table"
      input: "linear/linear/lookup/Const"
      input: "linear/linear/lookup/ToInt64"
      attr {
        key: "Tkey"
        value {
          type: DT_STRING
        }
      }
      attr {
        key: "Tval"
        value {
          type: DT_INT64
        }
      }
      attr {
        key: "_class"
        value {
          list {
            s: "loc:@linear/linear/lookup/hash_table"
          }
        }
      }
    }
    node {
      name: "linear/linear/hash_table_Lookup"
      op: "LookupTableFind"
      input: "linear/linear/lookup/hash_table"
      input: "linear/linear/DenseToSparseTensor/Gather"
      input: "linear/linear/lookup/hash_table/Const"
      attr {
        key: "Tin"
        value {
          type: DT_STRING
        }
      }
      attr {
        key: "Tout"
        value {
          type: DT_INT64
        }
      }
      attr {
        key: "_class"
        value {
          list {
            s: "loc:@linear/linear/lookup/hash_table"
          }
        }
      }
      attr {
        key: "_output_shapes"
        value {
          list {
            shape {
              dim {
                size: -1
              }
            }
          }
        }
      }
    }
    node {
      name: "linear/Education/weights/part_0/Initializer/Const"
      op: "Const"
      attr {
        key: "_class"
        value {
          list {
            s: "loc:@linear/Education/weights/part_0"
          }
        }
      }
      attr {
        key: "_output_shapes"
        value {
          list {
            shape {
              dim {
                size: 16
              }
              dim {
                size: 1
              }
            }
          }
        }
      }
      attr {
        key: "dtype"
        value {
          type: DT_FLOAT
        }
      }
      attr {
        key: "value"
        value {
          tensor {
            dtype: DT_FLOAT
            tensor_shape {
              dim {
                size: 16
              }
              dim {
                size: 1
              }
            }
            float_val: 0.0
          }
        }
      }
    }
    node {
      name: "linear/Education/weights/part_0"
      op: "VariableV2"
      attr {
        key: "_class"
        value {
          list {
            s: "loc:@linear/Education/weights/part_0"
          }
        }
      }
      attr {
        key: "_output_shapes"
        value {
          list {
            shape {
              dim {
                size: 16
              }
              dim {
                size: 1
              }
            }
          }
        }
      }
      attr {
        key: "container"
        value {
          s: ""
        }
      }
      attr {
        key: "dtype"
        value {
          type: DT_FLOAT
        }
      }
      attr {
        key: "shape"
        value {
          shape {
            dim {
              size: 16
            }
            dim {
              size: 1
            }
          }
        }
      }
      attr {
        key: "shared_name"
        value {
          s: ""
        }
      }
    }
    node {
      name: "linear/Education/weights/part_0/Assign"
      op: "Assign"
      input: "linear/Education/weights/part_0"
      input: "linear/Education/weights/part_0/Initializer/Const"
      attr {
        key: "T"
        value {
          type: DT_FLOAT
        }
      }
      attr {
        key: "_class"
        value {
          list {
            s: "loc:@linear/Education/weights/part_0"
          }
        }
      }
      attr {
        key: "_output_shapes"
        value {
          list {
            shape {
              dim {
                size: 16
              }
              dim {
                size: 1
              }
            }
          }
        }
      }
      attr {
        key: "use_locking"
        value {
          b: true
        }
      }
      attr {
        key: "validate_shape"
        value {
          b: true
        }
      }
    }
    node {
      name: "linear/Education/weights/part_0/read"
      op: "Identity"
      input: "linear/Education/weights/part_0"
      attr {
        key: "T"
        value {
          type: DT_FLOAT
        }
      }
      attr {
        key: "_class"
        value {
          list {
            s: "loc:@linear/Education/weights/part_0"
          }
        }
      }
      attr {
        key: "_output_shapes"
        value {
          list {
            shape {
              dim {
                size: 16
              }
              dim {
                size: 1
              }
            }
          }
        }
      }
    }
    node {
      name: "linear/linear/Education/Education_weights/Slice/begin"
      op: "Const"
      attr {
        key: "_output_shapes"
        value {
          list {
            shape {
              dim {
                size: 1
              }
            }
          }
        }
      }
      attr {
        key: "dtype"
        value {
          type: DT_INT32
        }
      }
      attr {
        key: "value"
        value {
          tensor {
            dtype: DT_INT32
            tensor_shape {
              dim {
                size: 1
              }
            }
            int_val: 0
          }
        }
      }
    }
    node {
      name: "linear/linear/Education/Education_weights/Slice/size"
      op: "Const"
      attr {
        key: "_output_shapes"
        value {
          list {
            shape {
              dim {
                size: 1
              }
            }
          }
        }
      }
      attr {
        key: "dtype"
        value {
          type: DT_INT32
        }
      }
      attr {
        key: "value"
        value {
          tensor {
            dtype: DT_INT32
            tensor_shape {
              dim {
                size: 1
              }
            }
            int_val: 1
          }
        }
      }
    }
    node {
      name: "linear/linear/Education/Education_weights/Slice"
      op: "Slice"
      input: "linear/linear/DenseToSparseTensor/Cast"
      input: "linear/linear/Education/Education_weights/Slice/begin"
      input: "linear/linear/Education/Education_weights/Slice/size"
      attr {
        key: "Index"
        value {
          type: DT_INT32
        }
      }
      attr {
        key: "T"
        value {
          type: DT_INT64
        }
      }
      attr {
        key: "_output_shapes"
        value {
          list {
            shape {
              dim {
                size: 1
              }
            }
          }
        }
      }
    }
    node {
      name: "linear/linear/Education/Education_weights/Const"
      op: "Const"
      attr {
        key: "_output_shapes"
        value {
          list {
            shape {
              dim {
                size: 1
              }
            }
          }
        }
      }
      attr {
        key: "dtype"
        value {
          type: DT_INT32
        }
      }
      attr {
        key: "value"
        value {
          tensor {
            dtype: DT_INT32
            tensor_shape {
              dim {
                size: 1
              }
            }
            int_val: 0
          }
        }
      }
    }
    node {
      name: "linear/linear/Education/Education_weights/Prod"
      op: "Prod"
      input: "linear/linear/Education/Education_weights/Slice"
      input: "linear/linear/Education/Education_weights/Const"
      attr {
        key: "T"
        value {
          type: DT_INT64
        }
      }
      attr {
        key: "Tidx"
        value {
          type: DT_INT32
        }
      }
      attr {
        key: "_output_shapes"
        value {
          list {
            shape {
            }
          }
        }
      }
      attr {
        key: "keep_dims"
        value {
          b: false
        }
      }
    }
    node {
      name: "linear/linear/Education/Education_weights/Gather/indices"
      op: "Const"
      attr {
        key: "_output_shapes"
        value {
          list {
            shape {
            }
          }
        }
      }
      attr {
        key: "dtype"
        value {
          type: DT_INT32
        }
      }
      attr {
        key: "value"
        value {
          tensor {
            dtype: DT_INT32
            tensor_shape {
            }
            int_val: 1
          }
        }
      }
    }
    node {
      name: "linear/linear/Education/Education_weights/Gather"
      op: "Gather"
      input: "linear/linear/DenseToSparseTensor/Cast"
      input: "linear/linear/Education/Education_weights/Gather/indices"
      attr {
        key: "Tindices"
        value {
          type: DT_INT32
        }
      }
      attr {
        key: "Tparams"
        value {
          type: DT_INT64
        }
      }
      attr {
        key: "_output_shapes"
        value {
          list {
            shape {
            }
          }
        }
      }
      attr {
        key: "validate_indices"
        value {
          b: true
        }
      }
    }
    node {
      name: "linear/linear/Education/Education_weights/SparseReshape/new_shape"
      op: "Pack"
      input: "linear/linear/Education/Education_weights/Prod"
      input: "linear/linear/Education/Education_weights/Gather"
      attr {
        key: "N"
        value {
          i: 2
        }
      }
      attr {
        key: "T"
        value {
          type: DT_INT64
        }
      }
      attr {
        key: "_output_shapes"
        value {
          list {
            shape {
              dim {
                size: 2
              }
            }
          }
        }
      }
      attr {
        key: "axis"
        value {
          i: 0
        }
      }
    }
    node {
      name: "linear/linear/Education/Education_weights/SparseReshape"
      op: "SparseReshape"
      input: "linear/linear/DenseToSparseTensor/Where"
      input: "linear/linear/DenseToSparseTensor/Cast"
      input: "linear/linear/Education/Education_weights/SparseReshape/new_shape"
      attr {
        key: "_output_shapes"
        value {
          list {
            shape {
              dim {
                size: -1
              }
              dim {
                size: 2
              }
            }
            shape {
              dim {
                size: 2
              }
            }
          }
        }
      }
    }
    node {
      name: "linear/linear/Education/Education_weights/SparseReshape/Identity"
      op: "Identity"
      input: "linear/linear/hash_table_Lookup"
      attr {
        key: "T"
        value {
          type: DT_INT64
        }
      }
      attr {
        key: "_output_shapes"
        value {
          list {
            shape {
              dim {
                size: -1
              }
            }
          }
        }
      }
    }
    node {
      name: "linear/linear/Education/Education_weights/GreaterEqual/y"
      op: "Const"
      attr {
        key: "_output_shapes"
        value {
          list {
            shape {
            }
          }
        }
      }
      attr {
        key: "dtype"
        value {
          type: DT_INT64
        }
      }
      attr {
        key: "value"
        value {
          tensor {
            dtype: DT_INT64
            tensor_shape {
            }
            int64_val: 0
          }
        }
      }
    }
    node {
      name: "linear/linear/Education/Education_weights/GreaterEqual"
      op: "GreaterEqual"
      input: "linear/linear/Education/Education_weights/SparseReshape/Identity"
      input: "linear/linear/Education/Education_weights/GreaterEqual/y"
      attr {
        key: "T"
        value {
          type: DT_INT64
        }
      }
      attr {
        key: "_output_shapes"
        value {
          list {
            shape {
              dim {
                size: -1
              }
            }
          }
        }
      }
    }
    node {
      name: "linear/linear/Education/Education_weights/Where"
      op: "Where"
      input: "linear/linear/Education/Education_weights/GreaterEqual"
      attr {
        key: "_output_shapes"
        value {
          list {
            shape {
              dim {
                size: -1
              }
              dim {
                size: 1
              }
            }
          }
        }
      }
    }
    node {
      name: "linear/linear/Education/Education_weights/Reshape/shape"
      op: "Const"
      attr {
        key: "_output_shapes"
        value {
          list {
            shape {
              dim {
                size: 1
              }
            }
          }
        }
      }
      attr {
        key: "dtype"
        value {
          type: DT_INT32
        }
      }
      attr {
        key: "value"
        value {
          tensor {
            dtype: DT_INT32
            tensor_shape {
              dim {
                size: 1
              }
            }
            int_val: -1
          }
        }
      }
    }
    node {
      name: "linear/linear/Education/Education_weights/Reshape"
      op: "Reshape"
      input: "linear/linear/Education/Education_weights/Where"
      input: "linear/linear/Education/Education_weights/Reshape/shape"
      attr {
        key: "T"
        value {
          type: DT_INT64
        }
      }
      attr {
        key: "Tshape"
        value {
          type: DT_INT32
        }
      }
      attr {
        key: "_output_shapes"
        value {
          list {
            shape {
              dim {
                size: -1
              }
            }
          }
        }
      }
    }
    node {
      name: "linear/linear/Education/Education_weights/Gather_1"
      op: "Gather"
      input: "linear/linear/Education/Education_weights/SparseReshape"
      input: "linear/linear/Education/Education_weights/Reshape"
      attr {
        key: "Tindices"
        value {
          type: DT_INT64
        }
      }
      attr {
        key: "Tparams"
        value {
          type: DT_INT64
        }
      }
      attr {
        key: "_output_shapes"
        value {
          list {
            shape {
              dim {
                size: -1
              }
              dim {
                size: 2
              }
            }
          }
        }
      }
      attr {
        key: "validate_indices"
        value {
          b: true
        }
      }
    }
    node {
      name: "linear/linear/Education/Education_weights/Gather_2"
      op: "Gather"
      input: "linear/linear/Education/Education_weights/SparseReshape/Identity"
      input: "linear/linear/Education/Education_weights/Reshape"
      attr {
        key: "Tindices"
        value {
          type: DT_INT64
        }
      }
      attr {
        key: "Tparams"
        value {
          type: DT_INT64
        }
      }
      attr {
        key: "_output_shapes"
        value {
          list {
            shape {
              dim {
                size: -1
              }
            }
          }
        }
      }
      attr {
        key: "validate_indices"
        value {
          b: true
        }
      }
    }
    node {
      name: "linear/linear/Education/Education_weights/Identity"
      op: "Identity"
      input: "linear/linear/Education/Education_weights/SparseReshape:1"
      attr {
        key: "T"
        value {
          type: DT_INT64
        }
      }
      attr {
        key: "_output_shapes"
        value {
          list {
            shape {
              dim {
                size: 2
              }
            }
          }
        }
      }
    }
    node {
      name: "linear/linear/Education/Education_weights/SparseFillEmptyRows/Const"
      op: "Const"
      attr {
        key: "_output_shapes"
        value {
          list {
            shape {
            }
          }
        }
      }
      attr {
        key: "dtype"
        value {
          type: DT_INT64
        }
      }
      attr {
        key: "value"
        value {
          tensor {
            dtype: DT_INT64
            tensor_shape {
            }
            int64_val: 0
          }
        }
      }
    }
    node {
      name: "linear/linear/Education/Education_weights/SparseFillEmptyRows/strided_slice/stack"
      op: "Const"
      attr {
        key: "_output_shapes"
        value {
          list {
            shape {
              dim {
                size: 1
              }
            }
          }
        }
      }
      attr {
        key: "dtype"
        value {
          type: DT_INT32
        }
      }
      attr {
        key: "value"
        value {
          tensor {
            dtype: DT_INT32
            tensor_shape {
              dim {
                size: 1
              }
            }
            int_val: 0
          }
        }
      }
    }
    node {
      name: "linear/linear/Education/Education_weights/SparseFillEmptyRows/strided_slice/stack_1"
      op: "Const"
      attr {
        key: "_output_shapes"
        value {
          list {
            shape {
              dim {
                size: 1
              }
            }
          }
        }
      }
      attr {
        key: "dtype"
        value {
          type: DT_INT32
        }
      }
      attr {
        key: "value"
        value {
          tensor {
            dtype: DT_INT32
            tensor_shape {
              dim {
                size: 1
              }
            }
            int_val: 1
          }
        }
      }
    }
    node {
      name: "linear/linear/Education/Education_weights/SparseFillEmptyRows/strided_slice/stack_2"
      op: "Const"
      attr {
        key: "_output_shapes"
        value {
          list {
            shape {
              dim {
                size: 1
              }
            }
          }
        }
      }
      attr {
        key: "dtype"
        value {
          type: DT_INT32
        }
      }
      attr {
        key: "value"
        value {
          tensor {
            dtype: DT_INT32
            tensor_shape {
              dim {
                size: 1
              }
            }
            int_val: 1
          }
        }
      }
    }
    node {
      name: "linear/linear/Education/Education_weights/SparseFillEmptyRows/strided_slice"
      op: "StridedSlice"
      input: "linear/linear/Education/Education_weights/Identity"
      input: "linear/linear/Education/Education_weights/SparseFillEmptyRows/strided_slice/stack"
      input: "linear/linear/Education/Education_weights/SparseFillEmptyRows/strided_slice/stack_1"
      input: "linear/linear/Education/Education_weights/SparseFillEmptyRows/strided_slice/stack_2"
      attr {
        key: "Index"
        value {
          type: DT_INT32
        }
      }
      attr {
        key: "T"
        value {
          type: DT_INT64
        }
      }
      attr {
        key: "_output_shapes"
        value {
          list {
            shape {
            }
          }
        }
      }
      attr {
        key: "begin_mask"
        value {
          i: 0
        }
      }
      attr {
        key: "ellipsis_mask"
        value {
          i: 0
        }
      }
      attr {
        key: "end_mask"
        value {
          i: 0
        }
      }
      attr {
        key: "new_axis_mask"
        value {
          i: 0
        }
      }
      attr {
        key: "shrink_axis_mask"
        value {
          i: 1
        }
      }
    }
    node {
      name: "linear/linear/Education/Education_weights/SparseFillEmptyRows/Cast"
      op: "Cast"
      input: "linear/linear/Education/Education_weights/SparseFillEmptyRows/strided_slice"
      attr {
        key: "DstT"
        value {
          type: DT_INT32
        }
      }
      attr {
        key: "SrcT"
        value {
          type: DT_INT64
        }
      }
      attr {
        key: "_output_shapes"
        value {
          list {
            shape {
            }
          }
        }
      }
    }
    node {
      name: "linear/linear/Education/Education_weights/SparseFillEmptyRows/range/start"
      op: "Const"
      attr {
        key: "_output_shapes"
        value {
          list {
            shape {
            }
          }
        }
      }
      attr {
        key: "dtype"
        value {
          type: DT_INT32
        }
      }
      attr {
        key: "value"
        value {
          tensor {
            dtype: DT_INT32
            tensor_shape {
            }
            int_val: 0
          }
        }
      }
    }
    node {
      name: "linear/linear/Education/Education_weights/SparseFillEmptyRows/range/delta"
      op: "Const"
      attr {
        key: "_output_shapes"
        value {
          list {
            shape {
            }
          }
        }
      }
      attr {
        key: "dtype"
        value {
          type: DT_INT32
        }
      }
      attr {
        key: "value"
        value {
          tensor {
            dtype: DT_INT32
            tensor_shape {
            }
            int_val: 1
          }
        }
      }
    }
    node {
      name: "linear/linear/Education/Education_weights/SparseFillEmptyRows/range"
      op: "Range"
      input: "linear/linear/Education/Education_weights/SparseFillEmptyRows/range/start"
      input: "linear/linear/Education/Education_weights/SparseFillEmptyRows/Cast"
      input: "linear/linear/Education/Education_weights/SparseFillEmptyRows/range/delta"
      attr {
        key: "Tidx"
        value {
          type: DT_INT32
        }
      }
      attr {
        key: "_output_shapes"
        value {
          list {
            shape {
              dim {
                size: -1
              }
            }
          }
        }
      }
    }
    node {
      name: "linear/linear/Education/Education_weights/SparseFillEmptyRows/Cast_1"
      op: "Cast"
      input: "linear/linear/Education/Education_weights/SparseFillEmptyRows/range"
      attr {
        key: "DstT"
        value {
          type: DT_INT64
        }
      }
      attr {
        key: "SrcT"
        value {
          type: DT_INT32
        }
      }
      attr {
        key: "_output_shapes"
        value {
          list {
            shape {
              dim {
                size: -1
              }
            }
          }
        }
      }
    }
    node {
      name: "linear/linear/Education/Education_weights/SparseFillEmptyRows/strided_slice_1/stack"
      op: "Const"
      attr {
        key: "_output_shapes"
        value {
          list {
            shape {
              dim {
                size: 2
              }
            }
          }
        }
      }
      attr {
        key: "dtype"
        value {
          type: DT_INT32
        }
      }
      attr {
        key: "value"
        value {
          tensor {
            dtype: DT_INT32
            tensor_shape {
              dim {
                size: 2
              }
            }
            tensor_content: "\000\000\000\000\000\000\000\000"
          }
        }
      }
    }
    node {
      name: "linear/linear/Education/Education_weights/SparseFillEmptyRows/strided_slice_1/stack_1"
      op: "Const"
      attr {
        key: "_output_shapes"
        value {
          list {
            shape {
              dim {
                size: 2
              }
            }
          }
        }
      }
      attr {
        key: "dtype"
        value {
          type: DT_INT32
        }
      }
      attr {
        key: "value"
        value {
          tensor {
            dtype: DT_INT32
            tensor_shape {
              dim {
                size: 2
              }
            }
            tensor_content: "\000\000\000\000\001\000\000\000"
          }
        }
      }
    }
    node {
      name: "linear/linear/Education/Education_weights/SparseFillEmptyRows/strided_slice_1/stack_2"
      op: "Const"
      attr {
        key: "_output_shapes"
        value {
          list {
            shape {
              dim {
                size: 2
              }
            }
          }
        }
      }
      attr {
        key: "dtype"
        value {
          type: DT_INT32
        }
      }
      attr {
        key: "value"
        value {
          tensor {
            dtype: DT_INT32
            tensor_shape {
              dim {
                size: 2
              }
            }
            tensor_content: "\001\000\000\000\001\000\000\000"
          }
        }
      }
    }
    node {
      name: "linear/linear/Education/Education_weights/SparseFillEmptyRows/strided_slice_1"
      op: "StridedSlice"
      input: "linear/linear/Education/Education_weights/Gather_1"
      input: "linear/linear/Education/Education_weights/SparseFillEmptyRows/strided_slice_1/stack"
      input: "linear/linear/Education/Education_weights/SparseFillEmptyRows/strided_slice_1/stack_1"
      input: "linear/linear/Education/Education_weights/SparseFillEmptyRows/strided_slice_1/stack_2"
      attr {
        key: "Index"
        value {
          type: DT_INT32
        }
      }
      attr {
        key: "T"
        value {
          type: DT_INT64
        }
      }
      attr {
        key: "_output_shapes"
        value {
          list {
            shape {
              dim {
                size: -1
              }
            }
          }
        }
      }
      attr {
        key: "begin_mask"
        value {
          i: 1
        }
      }
      attr {
        key: "ellipsis_mask"
        value {
          i: 0
        }
      }
      attr {
        key: "end_mask"
        value {
          i: 1
        }
      }
      attr {
        key: "new_axis_mask"
        value {
          i: 0
        }
      }
      attr {
        key: "shrink_axis_mask"
        value {
          i: 2
        }
      }
    }
    node {
      name: "linear/linear/Education/Education_weights/SparseFillEmptyRows/ListDiff"
      op: "ListDiff"
      input: "linear/linear/Education/Education_weights/SparseFillEmptyRows/Cast_1"
      input: "linear/linear/Education/Education_weights/SparseFillEmptyRows/strided_slice_1"
      attr {
        key: "T"
        value {
          type: DT_INT64
        }
      }
      attr {
        key: "_output_shapes"
        value {
          list {
            shape {
              dim {
                size: -1
              }
            }
            shape {
              dim {
                size: -1
              }
            }
          }
        }
      }
      attr {
        key: "out_idx"
        value {
          type: DT_INT32
        }
      }
    }
    node {
      name: "linear/linear/Education/Education_weights/SparseFillEmptyRows/strided_slice_2/stack"
      op: "Const"
      attr {
        key: "_output_shapes"
        value {
          list {
            shape {
              dim {
                size: 1
              }
            }
          }
        }
      }
      attr {
        key: "dtype"
        value {
          type: DT_INT32
        }
      }
      attr {
        key: "value"
        value {
          tensor {
            dtype: DT_INT32
            tensor_shape {
              dim {
                size: 1
              }
            }
            int_val: 0
          }
        }
      }
    }
    node {
      name: "linear/linear/Education/Education_weights/SparseFillEmptyRows/strided_slice_2/stack_1"
      op: "Const"
      attr {
        key: "_output_shapes"
        value {
          list {
            shape {
              dim {
                size: 1
              }
            }
          }
        }
      }
      attr {
        key: "dtype"
        value {
          type: DT_INT32
        }
      }
      attr {
        key: "value"
        value {
          tensor {
            dtype: DT_INT32
            tensor_shape {
              dim {
                size: 1
              }
            }
            int_val: 1
          }
        }
      }
    }
    node {
      name: "linear/linear/Education/Education_weights/SparseFillEmptyRows/strided_slice_2/stack_2"
      op: "Const"
      attr {
        key: "_output_shapes"
        value {
          list {
            shape {
              dim {
                size: 1
              }
            }
          }
        }
      }
      attr {
        key: "dtype"
        value {
          type: DT_INT32
        }
      }
      attr {
        key: "value"
        value {
          tensor {
            dtype: DT_INT32
            tensor_shape {
              dim {
                size: 1
              }
            }
            int_val: 1
          }
        }
      }
    }
    node {
      name: "linear/linear/Education/Education_weights/SparseFillEmptyRows/strided_slice_2"
      op: "StridedSlice"
      input: "linear/linear/Education/Education_weights/Identity"
      input: "linear/linear/Education/Education_weights/SparseFillEmptyRows/strided_slice_2/stack"
      input: "linear/linear/Education/Education_weights/SparseFillEmptyRows/strided_slice_2/stack_1"
      input: "linear/linear/Education/Education_weights/SparseFillEmptyRows/strided_slice_2/stack_2"
      attr {
        key: "Index"
        value {
          type: DT_INT32
        }
      }
      attr {
        key: "T"
        value {
          type: DT_INT64
        }
      }
      attr {
        key: "_output_shapes"
        value {
          list {
            shape {
            }
          }
        }
      }
      attr {
        key: "begin_mask"
        value {
          i: 0
        }
      }
      attr {
        key: "ellipsis_mask"
        value {
          i: 0
        }
      }
      attr {
        key: "end_mask"
        value {
          i: 0
        }
      }
      attr {
        key: "new_axis_mask"
        value {
          i: 0
        }
      }
      attr {
        key: "shrink_axis_mask"
        value {
          i: 1
        }
      }
    }
    node {
      name: "linear/linear/Education/Education_weights/SparseFillEmptyRows/ExpandDims/dim"
      op: "Const"
      attr {
        key: "_output_shapes"
        value {
          list {
            shape {
            }
          }
        }
      }
      attr {
        key: "dtype"
        value {
          type: DT_INT32
        }
      }
      attr {
        key: "value"
        value {
          tensor {
            dtype: DT_INT32
            tensor_shape {
            }
            int_val: -1
          }
        }
      }
    }
    node {
      name: "linear/linear/Education/Education_weights/SparseFillEmptyRows/ExpandDims"
      op: "ExpandDims"
      input: "linear/linear/Education/Education_weights/SparseFillEmptyRows/strided_slice_2"
      input: "linear/linear/Education/Education_weights/SparseFillEmptyRows/ExpandDims/dim"
      attr {
        key: "T"
        value {
          type: DT_INT64
        }
      }
      attr {
        key: "Tdim"
        value {
          type: DT_INT32
        }
      }
      attr {
        key: "_output_shapes"
        value {
          list {
            shape {
              dim {
                size: 1
              }
            }
          }
        }
      }
    }
    node {
      name: "linear/linear/Education/Education_weights/SparseFillEmptyRows/SparseToDense/sparse_values"
      op: "Const"
      attr {
        key: "_output_shapes"
        value {
          list {
            shape {
            }
          }
        }
      }
      attr {
        key: "dtype"
        value {
          type: DT_BOOL
        }
      }
      attr {
        key: "value"
        value {
          tensor {
            dtype: DT_BOOL
            tensor_shape {
            }
            bool_val: true
          }
        }
      }
    }
    node {
      name: "linear/linear/Education/Education_weights/SparseFillEmptyRows/SparseToDense/default_value"
      op: "Const"
      attr {
        key: "_output_shapes"
        value {
          list {
            shape {
            }
          }
        }
      }
      attr {
        key: "dtype"
        value {
          type: DT_BOOL
        }
      }
      attr {
        key: "value"
        value {
          tensor {
            dtype: DT_BOOL
            tensor_shape {
            }
            bool_val: false
          }
        }
      }
    }
    node {
      name: "linear/linear/Education/Education_weights/SparseFillEmptyRows/SparseToDense"
      op: "SparseToDense"
      input: "linear/linear/Education/Education_weights/SparseFillEmptyRows/ListDiff"
      input: "linear/linear/Education/Education_weights/SparseFillEmptyRows/ExpandDims"
      input: "linear/linear/Education/Education_weights/SparseFillEmptyRows/SparseToDense/sparse_values"
      input: "linear/linear/Education/Education_weights/SparseFillEmptyRows/SparseToDense/default_value"
      attr {
        key: "T"
        value {
          type: DT_BOOL
        }
      }
      attr {
        key: "Tindices"
        value {
          type: DT_INT64
        }
      }
      attr {
        key: "_output_shapes"
        value {
          list {
            shape {
              dim {
                size: -1
              }
            }
          }
        }
      }
      attr {
        key: "validate_indices"
        value {
          b: true
        }
      }
    }
    node {
      name: "linear/linear/Education/Education_weights/SparseFillEmptyRows/Reshape/shape"
      op: "Const"
      attr {
        key: "_output_shapes"
        value {
          list {
            shape {
              dim {
                size: 2
              }
            }
          }
        }
      }
      attr {
        key: "dtype"
        value {
          type: DT_INT32
        }
      }
      attr {
        key: "value"
        value {
          tensor {
            dtype: DT_INT32
            tensor_shape {
              dim {
                size: 2
              }
            }
            tensor_content: "\377\377\377\377\001\000\000\000"
          }
        }
      }
    }
    node {
      name: "linear/linear/Education/Education_weights/SparseFillEmptyRows/Reshape"
      op: "Reshape"
      input: "linear/linear/Education/Education_weights/SparseFillEmptyRows/ListDiff"
      input: "linear/linear/Education/Education_weights/SparseFillEmptyRows/Reshape/shape"
      attr {
        key: "T"
        value {
          type: DT_INT64
        }
      }
      attr {
        key: "Tshape"
        value {
          type: DT_INT32
        }
      }
      attr {
        key: "_output_shapes"
        value {
          list {
            shape {
              dim {
                size: -1
              }
              dim {
                size: 1
              }
            }
          }
        }
      }
    }
    node {
      name: "linear/linear/Education/Education_weights/SparseFillEmptyRows/zeros_like"
      op: "ZerosLike"
      input: "linear/linear/Education/Education_weights/SparseFillEmptyRows/Reshape"
      attr {
        key: "T"
        value {
          type: DT_INT64
        }
      }
      attr {
        key: "_output_shapes"
        value {
          list {
            shape {
              dim {
                size: -1
              }
              dim {
                size: 1
              }
            }
          }
        }
      }
    }
    node {
      name: "linear/linear/Education/Education_weights/SparseFillEmptyRows/concat/axis"
      op: "Const"
      attr {
        key: "_output_shapes"
        value {
          list {
            shape {
            }
          }
        }
      }
      attr {
        key: "dtype"
        value {
          type: DT_INT32
        }
      }
      attr {
        key: "value"
        value {
          tensor {
            dtype: DT_INT32
            tensor_shape {
            }
            int_val: 1
          }
        }
      }
    }
    node {
      name: "linear/linear/Education/Education_weights/SparseFillEmptyRows/concat"
      op: "ConcatV2"
      input: "linear/linear/Education/Education_weights/SparseFillEmptyRows/Reshape"
      input: "linear/linear/Education/Education_weights/SparseFillEmptyRows/zeros_like"
      input: "linear/linear/Education/Education_weights/SparseFillEmptyRows/concat/axis"
      attr {
        key: "N"
        value {
          i: 2
        }
      }
      attr {
        key: "T"
        value {
          type: DT_INT64
        }
      }
      attr {
        key: "Tidx"
        value {
          type: DT_INT32
        }
      }
      attr {
        key: "_output_shapes"
        value {
          list {
            shape {
              dim {
                size: -1
              }
              dim {
                size: 2
              }
            }
          }
        }
      }
    }
    node {
      name: "linear/linear/Education/Education_weights/SparseFillEmptyRows/Shape"
      op: "Shape"
      input: "linear/linear/Education/Education_weights/SparseFillEmptyRows/ListDiff"
      attr {
        key: "T"
        value {
          type: DT_INT64
        }
      }
      attr {
        key: "_output_shapes"
        value {
          list {
            shape {
              dim {
                size: 1
              }
            }
          }
        }
      }
      attr {
        key: "out_type"
        value {
          type: DT_INT32
        }
      }
    }
    node {
      name: "linear/linear/Education/Education_weights/SparseFillEmptyRows/Fill"
      op: "Fill"
      input: "linear/linear/Education/Education_weights/SparseFillEmptyRows/Shape"
      input: "linear/linear/Education/Education_weights/SparseFillEmptyRows/Const"
      attr {
        key: "T"
        value {
          type: DT_INT64
        }
      }
      attr {
        key: "_output_shapes"
        value {
          list {
            shape {
              dim {
                size: -1
              }
            }
          }
        }
      }
    }
    node {
      name: "linear/linear/Education/Education_weights/SparseFillEmptyRows/concat_1/axis"
      op: "Const"
      attr {
        key: "_output_shapes"
        value {
          list {
            shape {
            }
          }
        }
      }
      attr {
        key: "dtype"
        value {
          type: DT_INT32
        }
      }
      attr {
        key: "value"
        value {
          tensor {
            dtype: DT_INT32
            tensor_shape {
            }
            int_val: 0
          }
        }
      }
    }
    node {
      name: "linear/linear/Education/Education_weights/SparseFillEmptyRows/concat_1"
      op: "ConcatV2"
      input: "linear/linear/Education/Education_weights/Gather_1"
      input: "linear/linear/Education/Education_weights/SparseFillEmptyRows/concat"
      input: "linear/linear/Education/Education_weights/SparseFillEmptyRows/concat_1/axis"
      attr {
        key: "N"
        value {
          i: 2
        }
      }
      attr {
        key: "T"
        value {
          type: DT_INT64
        }
      }
      attr {
        key: "Tidx"
        value {
          type: DT_INT32
        }
      }
      attr {
        key: "_output_shapes"
        value {
          list {
            shape {
              dim {
                size: -1
              }
              dim {
                size: 2
              }
            }
          }
        }
      }
    }
    node {
      name: "linear/linear/Education/Education_weights/SparseFillEmptyRows/concat_2/axis"
      op: "Const"
      attr {
        key: "_output_shapes"
        value {
          list {
            shape {
            }
          }
        }
      }
      attr {
        key: "dtype"
        value {
          type: DT_INT32
        }
      }
      attr {
        key: "value"
        value {
          tensor {
            dtype: DT_INT32
            tensor_shape {
            }
            int_val: 0
          }
        }
      }
    }
    node {
      name: "linear/linear/Education/Education_weights/SparseFillEmptyRows/concat_2"
      op: "ConcatV2"
      input: "linear/linear/Education/Education_weights/Gather_2"
      input: "linear/linear/Education/Education_weights/SparseFillEmptyRows/Fill"
      input: "linear/linear/Education/Education_weights/SparseFillEmptyRows/concat_2/axis"
      attr {
        key: "N"
        value {
          i: 2
        }
      }
      attr {
        key: "T"
        value {
          type: DT_INT64
        }
      }
      attr {
        key: "Tidx"
        value {
          type: DT_INT32
        }
      }
      attr {
        key: "_output_shapes"
        value {
          list {
            shape {
              dim {
                size: -1
              }
            }
          }
        }
      }
    }
    node {
      name: "linear/linear/Education/Education_weights/SparseFillEmptyRows/SparseReorder"
      op: "SparseReorder"
      input: "linear/linear/Education/Education_weights/SparseFillEmptyRows/concat_1"
      input: "linear/linear/Education/Education_weights/SparseFillEmptyRows/concat_2"
      input: "linear/linear/Education/Education_weights/Identity"
      attr {
        key: "T"
        value {
          type: DT_INT64
        }
      }
      attr {
        key: "_output_shapes"
        value {
          list {
            shape {
              dim {
                size: -1
              }
              dim {
                size: 2
              }
            }
            shape {
              dim {
                size: -1
              }
            }
          }
        }
      }
    }
    node {
      name: "linear/linear/Education/Education_weights/SparseFillEmptyRows/Identity"
      op: "Identity"
      input: "linear/linear/Education/Education_weights/Identity"
      attr {
        key: "T"
        value {
          type: DT_INT64
        }
      }
      attr {
        key: "_output_shapes"
        value {
          list {
            shape {
              dim {
                size: 2
              }
            }
          }
        }
      }
    }
    node {
      name: "linear/linear/Education/Education_weights/embedding_lookup_sparse/strided_slice/stack"
      op: "Const"
      attr {
        key: "_output_shapes"
        value {
          list {
            shape {
              dim {
                size: 2
              }
            }
          }
        }
      }
      attr {
        key: "dtype"
        value {
          type: DT_INT32
        }
      }
      attr {
        key: "value"
        value {
          tensor {
            dtype: DT_INT32
            tensor_shape {
              dim {
                size: 2
              }
            }
            tensor_content: "\000\000\000\000\000\000\000\000"
          }
        }
      }
    }
    node {
      name: "linear/linear/Education/Education_weights/embedding_lookup_sparse/strided_slice/stack_1"
      op: "Const"
      attr {
        key: "_output_shapes"
        value {
          list {
            shape {
              dim {
                size: 2
              }
            }
          }
        }
      }
      attr {
        key: "dtype"
        value {
          type: DT_INT32
        }
      }
      attr {
        key: "value"
        value {
          tensor {
            dtype: DT_INT32
            tensor_shape {
              dim {
                size: 2
              }
            }
            tensor_content: "\000\000\000\000\001\000\000\000"
          }
        }
      }
    }
    node {
      name: "linear/linear/Education/Education_weights/embedding_lookup_sparse/strided_slice/stack_2"
      op: "Const"
      attr {
        key: "_output_shapes"
        value {
          list {
            shape {
              dim {
                size: 2
              }
            }
          }
        }
      }
      attr {
        key: "dtype"
        value {
          type: DT_INT32
        }
      }
      attr {
        key: "value"
        value {
          tensor {
            dtype: DT_INT32
            tensor_shape {
              dim {
                size: 2
              }
            }
            tensor_content: "\001\000\000\000\001\000\000\000"
          }
        }
      }
    }
    node {
      name: "linear/linear/Education/Education_weights/embedding_lookup_sparse/strided_slice"
      op: "StridedSlice"
      input: "linear/linear/Education/Education_weights/SparseFillEmptyRows/SparseReorder"
      input: "linear/linear/Education/Education_weights/embedding_lookup_sparse/strided_slice/stack"
      input: "linear/linear/Education/Education_weights/embedding_lookup_sparse/strided_slice/stack_1"
      input: "linear/linear/Education/Education_weights/embedding_lookup_sparse/strided_slice/stack_2"
      attr {
        key: "Index"
        value {
          type: DT_INT32
        }
      }
      attr {
        key: "T"
        value {
          type: DT_INT64
        }
      }
      attr {
        key: "_output_shapes"
        value {
          list {
            shape {
              dim {
                size: -1
              }
            }
          }
        }
      }
      attr {
        key: "begin_mask"
        value {
          i: 1
        }
      }
      attr {
        key: "ellipsis_mask"
        value {
          i: 0
        }
      }
      attr {
        key: "end_mask"
        value {
          i: 1
        }
      }
      attr {
        key: "new_axis_mask"
        value {
          i: 0
        }
      }
      attr {
        key: "shrink_axis_mask"
        value {
          i: 2
        }
      }
    }
    node {
      name: "linear/linear/Education/Education_weights/embedding_lookup_sparse/Cast"
      op: "Cast"
      input: "linear/linear/Education/Education_weights/embedding_lookup_sparse/strided_slice"
      attr {
        key: "DstT"
        value {
          type: DT_INT32
        }
      }
      attr {
        key: "SrcT"
        value {
          type: DT_INT64
        }
      }
      attr {
        key: "_output_shapes"
        value {
          list {
            shape {
              dim {
                size: -1
              }
            }
          }
        }
      }
    }
    node {
      name: "linear/linear/Education/Education_weights/embedding_lookup_sparse/Unique"
      op: "Unique"
      input: "linear/linear/Education/Education_weights/SparseFillEmptyRows/SparseReorder:1"
      attr {
        key: "T"
        value {
          type: DT_INT64
        }
      }
      attr {
        key: "_output_shapes"
        value {
          list {
            shape {
              dim {
                size: -1
              }
            }
            shape {
              dim {
                size: -1
              }
            }
          }
        }
      }
      attr {
        key: "out_idx"
        value {
          type: DT_INT32
        }
      }
    }
    node {
      name: "linear/linear/Education/Education_weights/embedding_lookup_sparse/embedding_lookup"
      op: "Gather"
      input: "linear/Education/weights/part_0/read"
      input: "linear/linear/Education/Education_weights/embedding_lookup_sparse/Unique"
      attr {
        key: "Tindices"
        value {
          type: DT_INT64
        }
      }
      attr {
        key: "Tparams"
        value {
          type: DT_FLOAT
        }
      }
      attr {
        key: "_class"
        value {
          list {
            s: "loc:@linear/Education/weights/part_0"
          }
        }
      }
      attr {
        key: "_output_shapes"
        value {
          list {
            shape {
              dim {
                size: -1
              }
              dim {
                size: 1
              }
            }
          }
        }
      }
      attr {
        key: "validate_indices"
        value {
          b: true
        }
      }
    }
    node {
      name: "linear/linear/Education/Education_weights/embedding_lookup_sparse"
      op: "SparseSegmentSum"
      input: "linear/linear/Education/Education_weights/embedding_lookup_sparse/embedding_lookup"
      input: "linear/linear/Education/Education_weights/embedding_lookup_sparse/Unique:1"
      input: "linear/linear/Education/Education_weights/embedding_lookup_sparse/Cast"
      attr {
        key: "T"
        value {
          type: DT_FLOAT
        }
      }
      attr {
        key: "Tidx"
        value {
          type: DT_INT32
        }
      }
      attr {
        key: "_output_shapes"
        value {
          list {
            shape {
              dim {
                size: -1
              }
              dim {
                size: 1
              }
            }
          }
        }
      }
    }
    node {
      name: "linear/linear/Education/Education_weights/Reshape_1/shape"
      op: "Const"
      attr {
        key: "_output_shapes"
        value {
          list {
            shape {
              dim {
                size: 2
              }
            }
          }
        }
      }
      attr {
        key: "dtype"
        value {
          type: DT_INT32
        }
      }
      attr {
        key: "value"
        value {
          tensor {
            dtype: DT_INT32
            tensor_shape {
              dim {
                size: 2
              }
            }
            tensor_content: "\377\377\377\377\001\000\000\000"
          }
        }
      }
    }
    node {
      name: "linear/linear/Education/Education_weights/Reshape_1"
      op: "Reshape"
      input: "linear/linear/Education/Education_weights/SparseFillEmptyRows/SparseToDense"
      input: "linear/linear/Education/Education_weights/Reshape_1/shape"
      attr {
        key: "T"
        value {
          type: DT_BOOL
        }
      }
      attr {
        key: "Tshape"
        value {
          type: DT_INT32
        }
      }
      attr {
        key: "_output_shapes"
        value {
          list {
            shape {
              dim {
                size: -1
              }
              dim {
                size: 1
              }
            }
          }
        }
      }
    }
    node {
      name: "linear/linear/Education/Education_weights/Shape"
      op: "Shape"
      input: "linear/linear/Education/Education_weights/embedding_lookup_sparse"
      attr {
        key: "T"
        value {
          type: DT_FLOAT
        }
      }
      attr {
        key: "_output_shapes"
        value {
          list {
            shape {
              dim {
                size: 2
              }
            }
          }
        }
      }
      attr {
        key: "out_type"
        value {
          type: DT_INT32
        }
      }
    }
    node {
      name: "linear/linear/Education/Education_weights/strided_slice/stack"
      op: "Const"
      attr {
        key: "_output_shapes"
        value {
          list {
            shape {
              dim {
                size: 1
              }
            }
          }
        }
      }
      attr {
        key: "dtype"
        value {
          type: DT_INT32
        }
      }
      attr {
        key: "value"
        value {
          tensor {
            dtype: DT_INT32
            tensor_shape {
              dim {
                size: 1
              }
            }
            int_val: 1
          }
        }
      }
    }
    node {
      name: "linear/linear/Education/Education_weights/strided_slice/stack_1"
      op: "Const"
      attr {
        key: "_output_shapes"
        value {
          list {
            shape {
              dim {
                size: 1
              }
            }
          }
        }
      }
      attr {
        key: "dtype"
        value {
          type: DT_INT32
        }
      }
      attr {
        key: "value"
        value {
          tensor {
            dtype: DT_INT32
            tensor_shape {
              dim {
                size: 1
              }
            }
            int_val: 2
          }
        }
      }
    }
    node {
      name: "linear/linear/Education/Education_weights/strided_slice/stack_2"
      op: "Const"
      attr {
        key: "_output_shapes"
        value {
          list {
            shape {
              dim {
                size: 1
              }
            }
          }
        }
      }
      attr {
        key: "dtype"
        value {
          type: DT_INT32
        }
      }
      attr {
        key: "value"
        value {
          tensor {
            dtype: DT_INT32
            tensor_shape {
              dim {
                size: 1
              }
            }
            int_val: 1
          }
        }
      }
    }
    node {
      name: "linear/linear/Education/Education_weights/strided_slice"
      op: "StridedSlice"
      input: "linear/linear/Education/Education_weights/Shape"
      input: "linear/linear/Education/Education_weights/strided_slice/stack"
      input: "linear/linear/Education/Education_weights/strided_slice/stack_1"
      input: "linear/linear/Education/Education_weights/strided_slice/stack_2"
      attr {
        key: "Index"
        value {
          type: DT_INT32
        }
      }
      attr {
        key: "T"
        value {
          type: DT_INT32
        }
      }
      attr {
        key: "_output_shapes"
        value {
          list {
            shape {
            }
          }
        }
      }
      attr {
        key: "begin_mask"
        value {
          i: 0
        }
      }
      attr {
        key: "ellipsis_mask"
        value {
          i: 0
        }
      }
      attr {
        key: "end_mask"
        value {
          i: 0
        }
      }
      attr {
        key: "new_axis_mask"
        value {
          i: 0
        }
      }
      attr {
        key: "shrink_axis_mask"
        value {
          i: 1
        }
      }
    }
    node {
      name: "linear/linear/Education/Education_weights/stack/0"
      op: "Const"
      attr {
        key: "_output_shapes"
        value {
          list {
            shape {
            }
          }
        }
      }
      attr {
        key: "dtype"
        value {
          type: DT_INT32
        }
      }
      attr {
        key: "value"
        value {
          tensor {
            dtype: DT_INT32
            tensor_shape {
            }
            int_val: 1
          }
        }
      }
    }
    node {
      name: "linear/linear/Education/Education_weights/stack"
      op: "Pack"
      input: "linear/linear/Education/Education_weights/stack/0"
      input: "linear/linear/Education/Education_weights/strided_slice"
      attr {
        key: "N"
        value {
          i: 2
        }
      }
      attr {
        key: "T"
        value {
          type: DT_INT32
        }
      }
      attr {
        key: "_output_shapes"
        value {
          list {
            shape {
              dim {
                size: 2
              }
            }
          }
        }
      }
      attr {
        key: "axis"
        value {
          i: 0
        }
      }
    }
    node {
      name: "linear/linear/Education/Education_weights/Tile"
      op: "Tile"
      input: "linear/linear/Education/Education_weights/Reshape_1"
      input: "linear/linear/Education/Education_weights/stack"
      attr {
        key: "T"
        value {
          type: DT_BOOL
        }
      }
      attr {
        key: "Tmultiples"
        value {
          type: DT_INT32
        }
      }
      attr {
        key: "_output_shapes"
        value {
          list {
            shape {
              dim {
                size: -1
              }
              dim {
                size: -1
              }
            }
          }
        }
      }
    }
    node {
      name: "linear/linear/Education/Education_weights/zeros_like"
      op: "ZerosLike"
      input: "linear/linear/Education/Education_weights/embedding_lookup_sparse"
      attr {
        key: "T"
        value {
          type: DT_FLOAT
        }
      }
      attr {
        key: "_output_shapes"
        value {
          list {
            shape {
              dim {
                size: -1
              }
              dim {
                size: 1
              }
            }
          }
        }
      }
    }
    node {
      name: "linear/linear/Education/Education_weights"
      op: "Select"
      input: "linear/linear/Education/Education_weights/Tile"
      input: "linear/linear/Education/Education_weights/zeros_like"
      input: "linear/linear/Education/Education_weights/embedding_lookup_sparse"
      attr {
        key: "T"
        value {
          type: DT_FLOAT
        }
      }
      attr {
        key: "_output_shapes"
        value {
          list {
            shape {
              dim {
                size: -1
              }
              dim {
                size: 1
              }
            }
          }
        }
      }
    }
    node {
      name: "linear/linear/Education/Education_weights/Cast"
      op: "Cast"
      input: "linear/linear/DenseToSparseTensor/Cast"
      attr {
        key: "DstT"
        value {
          type: DT_INT32
        }
      }
      attr {
        key: "SrcT"
        value {
          type: DT_INT64
        }
      }
      attr {
        key: "_output_shapes"
        value {
          list {
            shape {
              dim {
                size: 2
              }
            }
          }
        }
      }
    }
    node {
      name: "linear/linear/Education/Education_weights/Slice_1/begin"
      op: "Const"
      attr {
        key: "_output_shapes"
        value {
          list {
            shape {
              dim {
                size: 1
              }
            }
          }
        }
      }
      attr {
        key: "dtype"
        value {
          type: DT_INT32
        }
      }
      attr {
        key: "value"
        value {
          tensor {
            dtype: DT_INT32
            tensor_shape {
              dim {
                size: 1
              }
            }
            int_val: 0
          }
        }
      }
    }
    node {
      name: "linear/linear/Education/Education_weights/Slice_1/size"
      op: "Const"
      attr {
        key: "_output_shapes"
        value {
          list {
            shape {
              dim {
                size: 1
              }
            }
          }
        }
      }
      attr {
        key: "dtype"
        value {
          type: DT_INT32
        }
      }
      attr {
        key: "value"
        value {
          tensor {
            dtype: DT_INT32
            tensor_shape {
              dim {
                size: 1
              }
            }
            int_val: 1
          }
        }
      }
    }
    node {
      name: "linear/linear/Education/Education_weights/Slice_1"
      op: "Slice"
      input: "linear/linear/Education/Education_weights/Cast"
      input: "linear/linear/Education/Education_weights/Slice_1/begin"
      input: "linear/linear/Education/Education_weights/Slice_1/size"
      attr {
        key: "Index"
        value {
          type: DT_INT32
        }
      }
      attr {
        key: "T"
        value {
          type: DT_INT32
        }
      }
      attr {
        key: "_output_shapes"
        value {
          list {
            shape {
              dim {
                size: 1
              }
            }
          }
        }
      }
    }
    node {
      name: "linear/linear/Education/Education_weights/Shape_1"
      op: "Shape"
      input: "linear/linear/Education/Education_weights"
      attr {
        key: "T"
        value {
          type: DT_FLOAT
        }
      }
      attr {
        key: "_output_shapes"
        value {
          list {
            shape {
              dim {
                size: 2
              }
            }
          }
        }
      }
      attr {
        key: "out_type"
        value {
          type: DT_INT32
        }
      }
    }
    node {
      name: "linear/linear/Education/Education_weights/Slice_2/begin"
      op: "Const"
      attr {
        key: "_output_shapes"
        value {
          list {
            shape {
              dim {
                size: 1
              }
            }
          }
        }
      }
      attr {
        key: "dtype"
        value {
          type: DT_INT32
        }
      }
      attr {
        key: "value"
        value {
          tensor {
            dtype: DT_INT32
            tensor_shape {
              dim {
                size: 1
              }
            }
            int_val: 1
          }
        }
      }
    }
    node {
      name: "linear/linear/Education/Education_weights/Slice_2/size"
      op: "Const"
      attr {
        key: "_output_shapes"
        value {
          list {
            shape {
              dim {
                size: 1
              }
            }
          }
        }
      }
      attr {
        key: "dtype"
        value {
          type: DT_INT32
        }
      }
      attr {
        key: "value"
        value {
          tensor {
            dtype: DT_INT32
            tensor_shape {
              dim {
                size: 1
              }
            }
            int_val: -1
          }
        }
      }
    }
    node {
      name: "linear/linear/Education/Education_weights/Slice_2"
      op: "Slice"
      input: "linear/linear/Education/Education_weights/Shape_1"
      input: "linear/linear/Education/Education_weights/Slice_2/begin"
      input: "linear/linear/Education/Education_weights/Slice_2/size"
      attr {
        key: "Index"
        value {
          type: DT_INT32
        }
      }
      attr {
        key: "T"
        value {
          type: DT_INT32
        }
      }
      attr {
        key: "_output_shapes"
        value {
          list {
            shape {
              dim {
                size: 1
              }
            }
          }
        }
      }
    }
    node {
      name: "linear/linear/Education/Education_weights/concat/axis"
      op: "Const"
      attr {
        key: "_output_shapes"
        value {
          list {
            shape {
            }
          }
        }
      }
      attr {
        key: "dtype"
        value {
          type: DT_INT32
        }
      }
      attr {
        key: "value"
        value {
          tensor {
            dtype: DT_INT32
            tensor_shape {
            }
            int_val: 0
          }
        }
      }
    }
    node {
      name: "linear/linear/Education/Education_weights/concat"
      op: "ConcatV2"
      input: "linear/linear/Education/Education_weights/Slice_1"
      input: "linear/linear/Education/Education_weights/Slice_2"
      input: "linear/linear/Education/Education_weights/concat/axis"
      attr {
        key: "N"
        value {
          i: 2
        }
      }
      attr {
        key: "T"
        value {
          type: DT_INT32
        }
      }
      attr {
        key: "Tidx"
        value {
          type: DT_INT32
        }
      }
      attr {
        key: "_output_shapes"
        value {
          list {
            shape {
              dim {
                size: 2
              }
            }
          }
        }
      }
    }
    node {
      name: "linear/linear/Education/Education_weights/Reshape_2"
      op: "Reshape"
      input: "linear/linear/Education/Education_weights"
      input: "linear/linear/Education/Education_weights/concat"
      attr {
        key: "T"
        value {
          type: DT_FLOAT
        }
      }
      attr {
        key: "Tshape"
        value {
          type: DT_INT32
        }
      }
      attr {
        key: "_output_shapes"
        value {
          list {
            shape {
              dim {
                size: -1
              }
              dim {
                size: 1
              }
            }
          }
        }
      }
    }
    node {
      name: "linear/linear/Reshape_4/shape"
      op: "Const"
      attr {
        key: "_output_shapes"
        value {
          list {
            shape {
              dim {
                size: 2
              }
            }
          }
        }
      }
      attr {
        key: "dtype"
        value {
          type: DT_INT32
        }
      }
      attr {
        key: "value"
        value {
          tensor {
            dtype: DT_INT32
            tensor_shape {
              dim {
                size: 2
              }
            }
            tensor_content: "\377\377\377\377\001\000\000\000"
          }
        }
      }
    }
    node {
      name: "linear/linear/Reshape_4"
      op: "Reshape"
      input: "linear/linear/Education/Education_weights/Reshape_2"
      input: "linear/linear/Reshape_4/shape"
      attr {
        key: "T"
        value {
          type: DT_FLOAT
        }
      }
      attr {
        key: "Tshape"
        value {
          type: DT_INT32
        }
      }
      attr {
        key: "_output_shapes"
        value {
          list {
            shape {
              dim {
                size: -1
              }
              dim {
                size: 1
              }
            }
          }
        }
      }
    }
    node {
      name: "linear/linear/DenseToSparseTensor_1/Shape"
      op: "Shape"
      input: "Employment"
      attr {
        key: "T"
        value {
          type: DT_STRING
        }
      }
      attr {
        key: "_output_shapes"
        value {
          list {
            shape {
              dim {
                size: 2
              }
            }
          }
        }
      }
      attr {
        key: "out_type"
        value {
          type: DT_INT32
        }
      }
    }
    node {
      name: "linear/linear/DenseToSparseTensor_1/Cast"
      op: "Cast"
      input: "linear/linear/DenseToSparseTensor_1/Shape"
      attr {
        key: "DstT"
        value {
          type: DT_INT64
        }
      }
      attr {
        key: "SrcT"
        value {
          type: DT_INT32
        }
      }
      attr {
        key: "_output_shapes"
        value {
          list {
            shape {
              dim {
                size: 2
              }
            }
          }
        }
      }
    }
    node {
      name: "linear/linear/DenseToSparseTensor_1/Cast_1/x"
      op: "Const"
      attr {
        key: "_output_shapes"
        value {
          list {
            shape {
            }
          }
        }
      }
      attr {
        key: "dtype"
        value {
          type: DT_STRING
        }
      }
      attr {
        key: "value"
        value {
          tensor {
            dtype: DT_STRING
            tensor_shape {
            }
            string_val: ""
          }
        }
      }
    }
    node {
      name: "linear/linear/DenseToSparseTensor_1/NotEqual"
      op: "NotEqual"
      input: "Employment"
      input: "linear/linear/DenseToSparseTensor_1/Cast_1/x"
      attr {
        key: "T"
        value {
          type: DT_STRING
        }
      }
      attr {
        key: "_output_shapes"
        value {
          list {
            shape {
              dim {
                size: -1
              }
              dim {
                size: 1
              }
            }
          }
        }
      }
    }
    node {
      name: "linear/linear/DenseToSparseTensor_1/Where"
…
      input: "save_1/StringJoin/inputs_1"
      attr {
        key: "N"
        value {
          i: 2
        }
      }
      attr {
        key: "_output_shapes"
        value {
          list {
            shape {
            }
          }
        }
      }
      attr {
        key: "separator"
        value {
          s: ""
        }
      }
    }
    node {
      name: "save_1/num_shards"
      op: "Const"
      attr {
        key: "_output_shapes"
        value {
          list {
            shape {
            }
          }
        }
      }
      attr {
        key: "dtype"
        value {
          type: DT_INT32
        }
      }
      attr {
        key: "value"
        value {
          tensor {
            dtype: DT_INT32
            tensor_shape {
            }
            int_val: 1
          }
        }
      }
    }
    node {
      name: "save_1/ShardedFilename/shard"
      op: "Const"
      attr {
        key: "_output_shapes"
        value {
          list {
            shape {
            }
          }
        }
      }
      attr {
        key: "dtype"
        value {
          type: DT_INT32
        }
      }
      attr {
        key: "value"
        value {
          tensor {
            dtype: DT_INT32
            tensor_shape {
            }
            int_val: 0
          }
        }
      }
    }
    node {
      name: "save_1/ShardedFilename"
      op: "ShardedFilename"
      input: "save_1/StringJoin"
      input: "save_1/ShardedFilename/shard"
      input: "save_1/num_shards"
      attr {
        key: "_output_shapes"
        value {
          list {
            shape {
            }
          }
        }
      }
    }
    node {
      name: "save_1/SaveV2/tensor_names"
      op: "Const"
      attr {
        key: "_output_shapes"
        value {
          list {
            shape {
              dim {
                size: 11
              }
            }
          }
        }
      }
      attr {
        key: "dtype"
        value {
          type: DT_STRING
        }
      }
      attr {
        key: "value"
        value {
          tensor {
            dtype: DT_STRING
            tensor_shape {
              dim {
                size: 11
              }
            }
            string_val: "global_step"
            string_val: "linear/Age/weight"
            string_val: "linear/Deductions/weight"
            string_val: "linear/Education/weights"
            string_val: "linear/Employment/weights"
            string_val: "linear/Gender/weights"
            string_val: "linear/Hours/weight"
            string_val: "linear/Income/weight"
            string_val: "linear/Marital/weights"
            string_val: "linear/Occupation/weights"
            string_val: "linear/bias_weight"
          }
        }
      }
    }
    node {
      name: "save_1/SaveV2/shape_and_slices"
      op: "Const"
      attr {
        key: "_output_shapes"
        value {
          list {
            shape {
              dim {
                size: 11
              }
            }
          }
        }
      }
      attr {
        key: "dtype"
        value {
          type: DT_STRING
        }
      }
      attr {
        key: "value"
        value {
          tensor {
            dtype: DT_STRING
            tensor_shape {
              dim {
                size: 11
              }
            }
            string_val: ""
            string_val: "1 1 0,1:0,1"
            string_val: "1 1 0,1:0,1"
            string_val: "16 1 0,16:0,1"
            string_val: "7 1 0,7:0,1"
            string_val: "2 1 0,2:0,1"
            string_val: "1 1 0,1:0,1"
            string_val: "1 1 0,1:0,1"
            string_val: "6 1 0,6:0,1"
            string_val: "14 1 0,14:0,1"
            string_val: "1 0,1"
          }
        }
      }
    }
    node {
      name: "save_1/SaveV2"
      op: "SaveV2"
      input: "save_1/ShardedFilename"
      input: "save_1/SaveV2/tensor_names"
      input: "save_1/SaveV2/shape_and_slices"
      input: "global_step"
      input: "linear/Age/weight/part_0/read"
      input: "linear/Deductions/weight/part_0/read"
      input: "linear/Education/weights/part_0/read"
      input: "linear/Employment/weights/part_0/read"
      input: "linear/Gender/weights/part_0/read"
      input: "linear/Hours/weight/part_0/read"
      input: "linear/Income/weight/part_0/read"
      input: "linear/Marital/weights/part_0/read"
      input: "linear/Occupation/weights/part_0/read"
      input: "linear/bias_weight/part_0/read"
      attr {
        key: "dtypes"
        value {
          list {
            type: DT_INT64
            type: DT_FLOAT
            type: DT_FLOAT
            type: DT_FLOAT
            type: DT_FLOAT
            type: DT_FLOAT
            type: DT_FLOAT
            type: DT_FLOAT
            type: DT_FLOAT
            type: DT_FLOAT
            type: DT_FLOAT
          }
        }
      }
    }
    node {
      name: "save_1/control_dependency"
      op: "Identity"
      input: "save_1/ShardedFilename"
      input: "^save_1/SaveV2"
      attr {
        key: "T"
        value {
          type: DT_STRING
        }
      }
      attr {
        key: "_class"
        value {
          list {
            s: "loc:@save_1/ShardedFilename"
          }
        }
      }
      attr {
        key: "_output_shapes"
        value {
          list {
            shape {
            }
          }
        }
      }
    }
    node {
      name: "save_1/MergeV2Checkpoints/checkpoint_prefixes"
      op: "Pack"
      input: "save_1/ShardedFilename"
      input: "^save_1/control_dependency"
      attr {
        key: "N"
        value {
          i: 1
        }
      }
      attr {
        key: "T"
        value {
          type: DT_STRING
        }
      }
      attr {
        key: "_output_shapes"
        value {
          list {
            shape {
              dim {
                size: 1
              }
            }
          }
        }
      }
      attr {
        key: "axis"
        value {
          i: 0
        }
      }
    }
    node {
      name: "save_1/MergeV2Checkpoints"
      op: "MergeV2Checkpoints"
      input: "save_1/MergeV2Checkpoints/checkpoint_prefixes"
      input: "save_1/Const"
      attr {
        key: "delete_old_dirs"
        value {
          b: true
        }
      }
    }
    node {
      name: "save_1/Identity"
      op: "Identity"
      input: "save_1/Const"
      input: "^save_1/control_dependency"
      input: "^save_1/MergeV2Checkpoints"
      attr {
        key: "T"
        value {
          type: DT_STRING
        }
      }
      attr {
        key: "_output_shapes"
        value {
          list {
            shape {
            }
          }
        }
      }
    }
    node {
      name: "save_1/RestoreV2/tensor_names"
      op: "Const"
      attr {
        key: "_output_shapes"
        value {
          list {
            shape {
              dim {
                size: 1
              }
            }
          }
        }
      }
      attr {
        key: "dtype"
        value {
          type: DT_STRING
        }
      }
      attr {
        key: "value"
        value {
          tensor {
            dtype: DT_STRING
            tensor_shape {
              dim {
                size: 1
              }
            }
            string_val: "global_step"
          }
        }
      }
    }
    node {
      name: "save_1/RestoreV2/shape_and_slices"
      op: "Const"
      attr {
        key: "_output_shapes"
        value {
          list {
            shape {
              dim {
                size: 1
              }
            }
          }
        }
      }
      attr {
        key: "dtype"
        value {
          type: DT_STRING
        }
      }
      attr {
        key: "value"
        value {
          tensor {
            dtype: DT_STRING
            tensor_shape {
              dim {
                size: 1
              }
            }
            string_val: ""
          }
        }
      }
    }
    node {
      name: "save_1/RestoreV2"
      op: "RestoreV2"
      input: "save_1/Const"
      input: "save_1/RestoreV2/tensor_names"
      input: "save_1/RestoreV2/shape_and_slices"
      attr {
        key: "_output_shapes"
        value {
          list {
            shape {
              unknown_rank: true
            }
          }
        }
      }
      attr {
        key: "dtypes"
        value {
          list {
            type: DT_INT64
          }
        }
      }
    }
    node {
      name: "save_1/Assign"
      op: "Assign"
      input: "global_step"
      input: "save_1/RestoreV2"
      attr {
        key: "T"
        value {
          type: DT_INT64
        }
      }
      attr {
        key: "_class"
        value {
          list {
            s: "loc:@global_step"
          }
        }
      }
      attr {
        key: "_output_shapes"
        value {
          list {
            shape {
            }
          }
        }
      }
      attr {
        key: "use_locking"
        value {
          b: true
        }
      }
      attr {
        key: "validate_shape"
        value {
          b: true
        }
      }
    }
    node {
      name: "save_1/RestoreV2_1/tensor_names"
      op: "Const"
      attr {
        key: "_output_shapes"
        value {
          list {
            shape {
              dim {
                size: 1
              }
            }
          }
        }
      }
      attr {
        key: "dtype"
        value {
          type: DT_STRING
        }
      }
      attr {
        key: "value"
        value {
          tensor {
            dtype: DT_STRING
            tensor_shape {
              dim {
                size: 1
              }
            }
            string_val: "linear/Age/weight"
          }
        }
      }
    }
    node {
      name: "save_1/RestoreV2_1/shape_and_slices"
      op: "Const"
      attr {
        key: "_output_shapes"
        value {
          list {
            shape {
              dim {
                size: 1
              }
            }
          }
        }
      }
      attr {
        key: "dtype"
        value {
          type: DT_STRING
        }
      }
      attr {
        key: "value"
        value {
          tensor {
            dtype: DT_STRING
            tensor_shape {
              dim {
                size: 1
              }
            }
            string_val: "1 1 0,1:0,1"
          }
        }
      }
    }
    node {
      name: "save_1/RestoreV2_1"
      op: "RestoreV2"
      input: "save_1/Const"
      input: "save_1/RestoreV2_1/tensor_names"
      input: "save_1/RestoreV2_1/shape_and_slices"
      attr {
        key: "_output_shapes"
        value {
          list {
            shape {
              unknown_rank: true
            }
          }
        }
      }
      attr {
        key: "dtypes"
        value {
          list {
            type: DT_FLOAT
          }
        }
      }
    }
    node {
      name: "save_1/Assign_1"
      op: "Assign"
      input: "linear/Age/weight/part_0"
      input: "save_1/RestoreV2_1"
      attr {
        key: "T"
        value {
          type: DT_FLOAT
        }
      }
      attr {
        key: "_class"
        value {
          list {
            s: "loc:@linear/Age/weight/part_0"
          }
        }
      }
      attr {
        key: "_output_shapes"
        value {
          list {
            shape {
              dim {
                size: 1
              }
              dim {
                size: 1
              }
            }
          }
        }
      }
      attr {
        key: "use_locking"
        value {
          b: true
        }
      }
      attr {
        key: "validate_shape"
        value {
          b: true
        }
      }
    }
    node {
      name: "save_1/RestoreV2_2/tensor_names"
      op: "Const"
      attr {
        key: "_output_shapes"
        value {
          list {
            shape {
              dim {
                size: 1
              }
            }
          }
        }
      }
      attr {
        key: "dtype"
        value {
          type: DT_STRING
        }
      }
      attr {
        key: "value"
        value {
          tensor {
            dtype: DT_STRING
            tensor_shape {
              dim {
                size: 1
              }
            }
            string_val: "linear/Deductions/weight"
          }
        }
      }
    }
    node {
      name: "save_1/RestoreV2_2/shape_and_slices"
      op: "Const"
      attr {
        key: "_output_shapes"
        value {
          list {
            shape {
              dim {
                size: 1
              }
            }
          }
        }
      }
      attr {
        key: "dtype"
        value {
          type: DT_STRING
        }
      }
      attr {
        key: "value"
        value {
          tensor {
            dtype: DT_STRING
            tensor_shape {
              dim {
                size: 1
              }
            }
            string_val: "1 1 0,1:0,1"
          }
        }
      }
    }
    node {
      name: "save_1/RestoreV2_2"
      op: "RestoreV2"
      input: "save_1/Const"
      input: "save_1/RestoreV2_2/tensor_names"
      input: "save_1/RestoreV2_2/shape_and_slices"
      attr {
        key: "_output_shapes"
        value {
          list {
            shape {
              unknown_rank: true
            }
          }
        }
      }
      attr {
        key: "dtypes"
        value {
          list {
            type: DT_FLOAT
          }
        }
      }
    }
    node {
      name: "save_1/Assign_2"
      op: "Assign"
      input: "linear/Deductions/weight/part_0"
      input: "save_1/RestoreV2_2"
      attr {
        key: "T"
        value {
          type: DT_FLOAT
        }
      }
      attr {
        key: "_class"
        value {
          list {
            s: "loc:@linear/Deductions/weight/part_0"
          }
        }
      }
      attr {
        key: "_output_shapes"
        value {
          list {
            shape {
              dim {
                size: 1
              }
              dim {
                size: 1
              }
            }
          }
        }
      }
      attr {
        key: "use_locking"
        value {
          b: true
        }
      }
      attr {
        key: "validate_shape"
        value {
          b: true
        }
      }
    }
    node {
      name: "save_1/RestoreV2_3/tensor_names"
      op: "Const"
      attr {
        key: "_output_shapes"
        value {
          list {
            shape {
              dim {
                size: 1
              }
            }
          }
        }
      }
      attr {
        key: "dtype"
        value {
          type: DT_STRING
        }
      }
      attr {
        key: "value"
        value {
          tensor {
            dtype: DT_STRING
            tensor_shape {
              dim {
                size: 1
              }
            }
            string_val: "linear/Education/weights"
          }
        }
      }
    }
    node {
      name: "save_1/RestoreV2_3/shape_and_slices"
      op: "Const"
      attr {
        key: "_output_shapes"
        value {
          list {
            shape {
              dim {
                size: 1
              }
            }
          }
        }
      }
      attr {
        key: "dtype"
        value {
          type: DT_STRING
        }
      }
      attr {
        key: "value"
        value {
          tensor {
            dtype: DT_STRING
            tensor_shape {
              dim {
                size: 1
              }
            }
            string_val: "16 1 0,16:0,1"
          }
        }
      }
    }
    node {
      name: "save_1/RestoreV2_3"
      op: "RestoreV2"
      input: "save_1/Const"
      input: "save_1/RestoreV2_3/tensor_names"
      input: "save_1/RestoreV2_3/shape_and_slices"
      attr {
        key: "_output_shapes"
        value {
          list {
            shape {
              unknown_rank: true
            }
          }
        }
      }
      attr {
        key: "dtypes"
        value {
          list {
            type: DT_FLOAT
          }
        }
      }
    }
    node {
      name: "save_1/Assign_3"
      op: "Assign"
      input: "linear/Education/weights/part_0"
      input: "save_1/RestoreV2_3"
      attr {
        key: "T"
        value {
          type: DT_FLOAT
        }
      }
      attr {
        key: "_class"
        value {
          list {
            s: "loc:@linear/Education/weights/part_0"
          }
        }
      }
      attr {
        key: "_output_shapes"
        value {
          list {
            shape {
              dim {
                size: 16
              }
              dim {
                size: 1
              }
            }
          }
        }
      }
      attr {
        key: "use_locking"
        value {
          b: true
        }
      }
      attr {
        key: "validate_shape"
        value {
          b: true
        }
      }
    }
    node {
      name: "save_1/RestoreV2_4/tensor_names"
      op: "Const"
      attr {
        key: "_output_shapes"
        value {
          list {
            shape {
              dim {
                size: 1
              }
            }
          }
        }
      }
      attr {
        key: "dtype"
        value {
          type: DT_STRING
        }
      }
      attr {
        key: "value"
        value {
          tensor {
            dtype: DT_STRING
            tensor_shape {
              dim {
                size: 1
              }
            }
            string_val: "linear/Employment/weights"
          }
        }
      }
    }
    node {
      name: "save_1/RestoreV2_4/shape_and_slices"
      op: "Const"
      attr {
        key: "_output_shapes"
        value {
          list {
            shape {
              dim {
                size: 1
              }
            }
          }
        }
      }
      attr {
        key: "dtype"
        value {
          type: DT_STRING
        }
      }
      attr {
        key: "value"
        value {
          tensor {
            dtype: DT_STRING
            tensor_shape {
              dim {
                size: 1
              }
            }
            string_val: "7 1 0,7:0,1"
          }
        }
      }
    }
    node {
      name: "save_1/RestoreV2_4"
      op: "RestoreV2"
      input: "save_1/Const"
      input: "save_1/RestoreV2_4/tensor_names"
      input: "save_1/RestoreV2_4/shape_and_slices"
      attr {
        key: "_output_shapes"
        value {
          list {
            shape {
              unknown_rank: true
            }
          }
        }
      }
      attr {
        key: "dtypes"
        value {
          list {
            type: DT_FLOAT
          }
        }
      }
    }
    node {
      name: "save_1/Assign_4"
      op: "Assign"
      input: "linear/Employment/weights/part_0"
      input: "save_1/RestoreV2_4"
      attr {
        key: "T"
        value {
          type: DT_FLOAT
        }
      }
      attr {
        key: "_class"
        value {
          list {
            s: "loc:@linear/Employment/weights/part_0"
          }
        }
      }
      attr {
        key: "_output_shapes"
        value {
          list {
            shape {
              dim {
                size: 7
              }
              dim {
                size: 1
              }
            }
          }
        }
      }
      attr {
        key: "use_locking"
        value {
          b: true
        }
      }
      attr {
        key: "validate_shape"
        value {
          b: true
        }
      }
    }
    node {
      name: "save_1/RestoreV2_5/tensor_names"
      op: "Const"
      attr {
        key: "_output_shapes"
        value {
          list {
            shape {
              dim {
                size: 1
              }
            }
          }
        }
      }
      attr {
        key: "dtype"
        value {
          type: DT_STRING
        }
      }
      attr {
        key: "value"
        value {
          tensor {
            dtype: DT_STRING
            tensor_shape {
              dim {
                size: 1
              }
            }
            string_val: "linear/Gender/weights"
          }
        }
      }
    }
    node {
      name: "save_1/RestoreV2_5/shape_and_slices"
      op: "Const"
      attr {
        key: "_output_shapes"
        value {
          list {
            shape {
              dim {
                size: 1
              }
            }
          }
        }
      }
      attr {
        key: "dtype"
        value {
          type: DT_STRING
        }
      }
      attr {
        key: "value"
        value {
          tensor {
            dtype: DT_STRING
            tensor_shape {
              dim {
                size: 1
              }
            }
            string_val: "2 1 0,2:0,1"
          }
        }
      }
    }
    node {
      name: "save_1/RestoreV2_5"
      op: "RestoreV2"
      input: "save_1/Const"
      input: "save_1/RestoreV2_5/tensor_names"
      input: "save_1/RestoreV2_5/shape_and_slices"
      attr {
        key: "_output_shapes"
        value {
          list {
            shape {
              unknown_rank: true
            }
          }
        }
      }
      attr {
        key: "dtypes"
        value {
          list {
            type: DT_FLOAT
          }
        }
      }
    }
    node {
      name: "save_1/Assign_5"
      op: "Assign"
      input: "linear/Gender/weights/part_0"
      input: "save_1/RestoreV2_5"
      attr {
        key: "T"
        value {
          type: DT_FLOAT
        }
      }
      attr {
        key: "_class"
        value {
          list {
            s: "loc:@linear/Gender/weights/part_0"
          }
        }
      }
      attr {
        key: "_output_shapes"
        value {
          list {
            shape {
              dim {
                size: 2
              }
              dim {
                size: 1
              }
            }
          }
        }
      }
      attr {
        key: "use_locking"
        value {
          b: true
        }
      }
      attr {
        key: "validate_shape"
        value {
          b: true
        }
      }
    }
    node {
      name: "save_1/RestoreV2_6/tensor_names"
      op: "Const"
      attr {
        key: "_output_shapes"
        value {
          list {
            shape {
              dim {
                size: 1
              }
            }
          }
        }
      }
      attr {
        key: "dtype"
        value {
          type: DT_STRING
        }
      }
      attr {
        key: "value"
        value {
          tensor {
            dtype: DT_STRING
            tensor_shape {
              dim {
                size: 1
              }
            }
            string_val: "linear/Hours/weight"
          }
        }
      }
    }
    node {
      name: "save_1/RestoreV2_6/shape_and_slices"
      op: "Const"
      attr {
        key: "_output_shapes"
        value {
          list {
            shape {
              dim {
                size: 1
              }
            }
          }
        }
      }
      attr {
        key: "dtype"
        value {
          type: DT_STRING
        }
      }
      attr {
        key: "value"
        value {
          tensor {
            dtype: DT_STRING
            tensor_shape {
              dim {
                size: 1
              }
            }
            string_val: "1 1 0,1:0,1"
          }
        }
      }
    }
    node {
      name: "save_1/RestoreV2_6"
      op: "RestoreV2"
      input: "save_1/Const"
      input: "save_1/RestoreV2_6/tensor_names"
      input: "save_1/RestoreV2_6/shape_and_slices"
      attr {
        key: "_output_shapes"
        value {
          list {
            shape {
              unknown_rank: true
            }
          }
        }
      }
      attr {
        key: "dtypes"
        value {
          list {
            type: DT_FLOAT
          }
        }
      }
    }
    node {
      name: "save_1/Assign_6"
      op: "Assign"
      input: "linear/Hours/weight/part_0"
      input: "save_1/RestoreV2_6"
      attr {
        key: "T"
        value {
          type: DT_FLOAT
        }
      }
      attr {
        key: "_class"
        value {
          list {
            s: "loc:@linear/Hours/weight/part_0"
          }
        }
      }
      attr {
        key: "_output_shapes"
        value {
          list {
            shape {
              dim {
                size: 1
              }
              dim {
                size: 1
              }
            }
          }
        }
      }
      attr {
        key: "use_locking"
        value {
          b: true
        }
      }
      attr {
        key: "validate_shape"
        value {
          b: true
        }
      }
    }
    node {
      name: "save_1/RestoreV2_7/tensor_names"
      op: "Const"
      attr {
        key: "_output_shapes"
        value {
          list {
            shape {
              dim {
                size: 1
              }
            }
          }
        }
      }
      attr {
        key: "dtype"
        value {
          type: DT_STRING
        }
      }
      attr {
        key: "value"
        value {
          tensor {
            dtype: DT_STRING
            tensor_shape {
              dim {
                size: 1
              }
            }
            string_val: "linear/Income/weight"
          }
        }
      }
    }
    node {
      name: "save_1/RestoreV2_7/shape_and_slices"
      op: "Const"
      attr {
        key: "_output_shapes"
        value {
          list {
            shape {
              dim {
                size: 1
              }
            }
          }
        }
      }
      attr {
        key: "dtype"
        value {
          type: DT_STRING
        }
      }
      attr {
        key: "value"
        value {
          tensor {
            dtype: DT_STRING
            tensor_shape {
              dim {
                size: 1
              }
            }
            string_val: "1 1 0,1:0,1"
          }
        }
      }
    }
    node {
      name: "save_1/RestoreV2_7"
      op: "RestoreV2"
      input: "save_1/Const"
      input: "save_1/RestoreV2_7/tensor_names"
      input: "save_1/RestoreV2_7/shape_and_slices"
      attr {
        key: "_output_shapes"
        value {
          list {
            shape {
              unknown_rank: true
            }
          }
        }
      }
      attr {
        key: "dtypes"
        value {
          list {
            type: DT_FLOAT
          }
        }
      }
    }
    node {
      name: "save_1/Assign_7"
      op: "Assign"
      input: "linear/Income/weight/part_0"
      input: "save_1/RestoreV2_7"
      attr {
        key: "T"
        value {
          type: DT_FLOAT
        }
      }
      attr {
        key: "_class"
        value {
          list {
            s: "loc:@linear/Income/weight/part_0"
          }
        }
      }
      attr {
        key: "_output_shapes"
        value {
          list {
            shape {
              dim {
                size: 1
              }
              dim {
                size: 1
              }
            }
          }
        }
      }
      attr {
        key: "use_locking"
        value {
          b: true
        }
      }
      attr {
        key: "validate_shape"
        value {
          b: true
        }
      }
    }
    node {
      name: "save_1/RestoreV2_8/tensor_names"
      op: "Const"
      attr {
        key: "_output_shapes"
        value {
          list {
            shape {
              dim {
                size: 1
              }
            }
          }
        }
      }
      attr {
        key: "dtype"
        value {
          type: DT_STRING
        }
      }
      attr {
        key: "value"
        value {
          tensor {
            dtype: DT_STRING
            tensor_shape {
              dim {
                size: 1
              }
            }
            string_val: "linear/Marital/weights"
          }
        }
      }
    }
    node {
      name: "save_1/RestoreV2_8/shape_and_slices"
      op: "Const"
      attr {
        key: "_output_shapes"
        value {
          list {
            shape {
              dim {
                size: 1
              }
            }
          }
        }
      }
      attr {
        key: "dtype"
        value {
          type: DT_STRING
        }
      }
      attr {
        key: "value"
        value {
          tensor {
            dtype: DT_STRING
            tensor_shape {
              dim {
                size: 1
              }
            }
            string_val: "6 1 0,6:0,1"
          }
        }
      }
    }
    node {
      name: "save_1/RestoreV2_8"
      op: "RestoreV2"
      input: "save_1/Const"
      input: "save_1/RestoreV2_8/tensor_names"
      input: "save_1/RestoreV2_8/shape_and_slices"
      attr {
        key: "_output_shapes"
        value {
          list {
            shape {
              unknown_rank: true
            }
          }
        }
      }
      attr {
        key: "dtypes"
        value {
          list {
            type: DT_FLOAT
          }
        }
      }
    }
    node {
      name: "save_1/Assign_8"
      op: "Assign"
      input: "linear/Marital/weights/part_0"
      input: "save_1/RestoreV2_8"
      attr {
        key: "T"
        value {
          type: DT_FLOAT
        }
      }
      attr {
        key: "_class"
        value {
          list {
            s: "loc:@linear/Marital/weights/part_0"
          }
        }
      }
      attr {
        key: "_output_shapes"
        value {
          list {
            shape {
              dim {
                size: 6
              }
              dim {
                size: 1
              }
            }
          }
        }
      }
      attr {
        key: "use_locking"
        value {
          b: true
        }
      }
      attr {
        key: "validate_shape"
        value {
          b: true
        }
      }
    }
    node {
      name: "save_1/RestoreV2_9/tensor_names"
      op: "Const"
      attr {
        key: "_output_shapes"
        value {
          list {
            shape {
              dim {
                size: 1
              }
            }
          }
        }
      }
      attr {
        key: "dtype"
        value {
          type: DT_STRING
        }
      }
      attr {
        key: "value"
        value {
          tensor {
            dtype: DT_STRING
            tensor_shape {
              dim {
                size: 1
              }
            }
            string_val: "linear/Occupation/weights"
          }
        }
      }
    }
    node {
      name: "save_1/RestoreV2_9/shape_and_slices"
      op: "Const"
      attr {
        key: "_output_shapes"
        value {
          list {
            shape {
              dim {
                size: 1
              }
            }
          }
        }
      }
      attr {
        key: "dtype"
        value {
          type: DT_STRING
        }
      }
      attr {
        key: "value"
        value {
          tensor {
            dtype: DT_STRING
            tensor_shape {
              dim {
                size: 1
              }
            }
            string_val: "14 1 0,14:0,1"
          }
        }
      }
    }
    node {
      name: "save_1/RestoreV2_9"
      op: "RestoreV2"
      input: "save_1/Const"
      input: "save_1/RestoreV2_9/tensor_names"
      input: "save_1/RestoreV2_9/shape_and_slices"
      attr {
        key: "_output_shapes"
        value {
          list {
            shape {
              unknown_rank: true
            }
          }
        }
      }
      attr {
        key: "dtypes"
        value {
          list {
            type: DT_FLOAT
          }
        }
      }
    }
    node {
      name: "save_1/Assign_9"
      op: "Assign"
      input: "linear/Occupation/weights/part_0"
      input: "save_1/RestoreV2_9"
      attr {
        key: "T"
        value {
          type: DT_FLOAT
        }
      }
      attr {
        key: "_class"
        value {
          list {
            s: "loc:@linear/Occupation/weights/part_0"
          }
        }
      }
      attr {
        key: "_output_shapes"
        value {
          list {
            shape {
              dim {
                size: 14
              }
              dim {
                size: 1
              }
            }
          }
        }
      }
      attr {
        key: "use_locking"
        value {
          b: true
        }
      }
      attr {
        key: "validate_shape"
        value {
          b: true
        }
      }
    }
    node {
      name: "save_1/RestoreV2_10/tensor_names"
      op: "Const"
      attr {
        key: "_output_shapes"
        value {
          list {
            shape {
              dim {
                size: 1
              }
            }
          }
        }
      }
      attr {
        key: "dtype"
        value {
          type: DT_STRING
        }
      }
      attr {
        key: "value"
        value {
          tensor {
            dtype: DT_STRING
            tensor_shape {
              dim {
                size: 1
              }
            }
            string_val: "linear/bias_weight"
          }
        }
      }
    }
    node {
      name: "save_1/RestoreV2_10/shape_and_slices"
      op: "Const"
      attr {
        key: "_output_shapes"
        value {
          list {
            shape {
              dim {
                size: 1
              }
            }
          }
        }
      }
      attr {
        key: "dtype"
        value {
          type: DT_STRING
        }
      }
      attr {
        key: "value"
        value {
          tensor {
            dtype: DT_STRING
            tensor_shape {
              dim {
                size: 1
              }
            }
            string_val: "1 0,1"
          }
        }
      }
    }
    node {
      name: "save_1/RestoreV2_10"
      op: "RestoreV2"
      input: "save_1/Const"
      input: "save_1/RestoreV2_10/tensor_names"
      input: "save_1/RestoreV2_10/shape_and_slices"
      attr {
        key: "_output_shapes"
        value {
          list {
            shape {
              unknown_rank: true
            }
          }
        }
      }
      attr {
        key: "dtypes"
        value {
          list {
            type: DT_FLOAT
          }
        }
      }
    }
    node {
      name: "save_1/Assign_10"
      op: "Assign"
      input: "linear/bias_weight/part_0"
      input: "save_1/RestoreV2_10"
      attr {
        key: "T"
        value {
          type: DT_FLOAT
        }
      }
      attr {
        key: "_class"
        value {
          list {
            s: "loc:@linear/bias_weight/part_0"
          }
        }
      }
      attr {
        key: "_output_shapes"
        value {
          list {
            shape {
              dim {
                size: 1
              }
            }
          }
        }
      }
      attr {
        key: "use_locking"
        value {
          b: true
        }
      }
      attr {
        key: "validate_shape"
        value {
          b: true
        }
      }
    }
    node {
      name: "save_1/restore_shard"
      op: "NoOp"
      input: "^save_1/Assign"
      input: "^save_1/Assign_1"
      input: "^save_1/Assign_2"
      input: "^save_1/Assign_3"
      input: "^save_1/Assign_4"
      input: "^save_1/Assign_5"
      input: "^save_1/Assign_6"
      input: "^save_1/Assign_7"
      input: "^save_1/Assign_8"
      input: "^save_1/Assign_9"
      input: "^save_1/Assign_10"
    }
    node {
      name: "save_1/restore_all"
      op: "NoOp"
      input: "^save_1/restore_shard"
    }
    versions {
      producer: 21
    }
  }
  saver_def {
    filename_tensor_name: "save_1/Const:0"
    save_tensor_name: "save_1/Identity:0"
    restore_op_name: "save_1/restore_all"
    max_to_keep: 5
    sharded: true
    keep_checkpoint_every_n_hours: 10000.0
    version: V2
  }
  collection_def {
    key: "global_step"
    value {
      node_list {
        value: "global_step:0"
      }
    }
  }
  collection_def {
    key: "legacy_init_op"
    value {
      node_list {
        value: "group_deps"
      }
    }
  }
  collection_def {
    key: "linear"
    value {
      node_list {
        value: "linear/Age/weight/part_0:0"
        value: "linear/Deductions/weight/part_0:0"
        value: "linear/Hours/weight/part_0:0"
        value: "linear/Income/weight/part_0:0"
        value: "linear/Education/weights/part_0:0"
        value: "linear/Employment/weights/part_0:0"
        value: "linear/Gender/weights/part_0:0"
        value: "linear/Marital/weights/part_0:0"
        value: "linear/Occupation/weights/part_0:0"
        value: "linear/bias_weight/part_0:0"
      }
    }
  }
  collection_def {
    key: "model_variables"
    value {
      node_list {
        value: "linear/Age/weight/part_0:0"
        value: "linear/Deductions/weight/part_0:0"
        value: "linear/Hours/weight/part_0:0"
        value: "linear/Income/weight/part_0:0"
        value: "linear/Education/weights/part_0:0"
        value: "linear/Employment/weights/part_0:0"
        value: "linear/Gender/weights/part_0:0"
        value: "linear/Marital/weights/part_0:0"
        value: "linear/Occupation/weights/part_0:0"
        value: "linear/bias_weight/part_0:0"
      }
    }
  }
  collection_def {
    key: "table_initializer"
    value {
      node_list {
        value: "linear/linear/lookup/hash_table/table_init"
        value: "linear/linear/lookup_1/hash_table/table_init"
        value: "linear/linear/lookup_2/hash_table/table_init"
        value: "linear/linear/lookup_3/hash_table/table_init"
        value: "linear/linear/lookup_4/hash_table/table_init"
      }
    }
  }
  collection_def {
    key: "trainable_variables"
    value {
      bytes_list {
        value: "\n\032linear/Age/weight/part_0:0\022\037linear/Age/weight/part_0/Assign\032\037linear/Age/weight/part_0/read:0\"\037\n\021linear/Age/weight\022\002\001\001\032\002\000\000\"\002\001\001"
        value: "\n!linear/Deductions/weight/part_0:0\022&linear/Deductions/weight/part_0/Assign\032&linear/Deductions/weight/part_0/read:0\"&\n\030linear/Deductions/weight\022\002\001\001\032\002\000\000\"\002\001\001"
        value: "\n\034linear/Hours/weight/part_0:0\022!linear/Hours/weight/part_0/Assign\032!linear/Hours/weight/part_0/read:0\"!\n\023linear/Hours/weight\022\002\001\001\032\002\000\000\"\002\001\001"
        value: "\n\035linear/Income/weight/part_0:0\022\"linear/Income/weight/part_0/Assign\032\"linear/Income/weight/part_0/read:0\"\"\n\024linear/Income/weight\022\002\001\001\032\002\000\000\"\002\001\001"
        value: "\n!linear/Education/weights/part_0:0\022&linear/Education/weights/part_0/Assign\032&linear/Education/weights/part_0/read:0\"&\n\030linear/Education/weights\022\002\020\001\032\002\000\000\"\002\020\001"
        value: "\n\"linear/Employment/weights/part_0:0\022\'linear/Employment/weights/part_0/Assign\032\'linear/Employment/weights/part_0/read:0\"\'\n\031linear/Employment/weights\022\002\007\001\032\002\000\000\"\002\007\001"
        value: "\n\036linear/Gender/weights/part_0:0\022#linear/Gender/weights/part_0/Assign\032#linear/Gender/weights/part_0/read:0\"#\n\025linear/Gender/weights\022\002\002\001\032\002\000\000\"\002\002\001"
        value: "\n\037linear/Marital/weights/part_0:0\022$linear/Marital/weights/part_0/Assign\032$linear/Marital/weights/part_0/read:0\"$\n\026linear/Marital/weights\022\002\006\001\032\002\000\000\"\002\006\001"
        value: "\n\"linear/Occupation/weights/part_0:0\022\'linear/Occupation/weights/part_0/Assign\032\'linear/Occupation/weights/part_0/read:0\"\'\n\031linear/Occupation/weights\022\002\016\001\032\002\000\000\"\002\016\001"
        value: "\n\033linear/bias_weight/part_0:0\022 linear/bias_weight/part_0/Assign\032 linear/bias_weight/part_0/read:0\"\035\n\022linear/bias_weight\022\001\001\032\001\000\"\001\001"
      }
    }
  }
  collection_def {
    key: "variables"
    value {
      bytes_list {
        value: "\n\rglobal_step:0\022\022global_step/Assign\032\022global_step/read:0"
        value: "\n\032linear/Age/weight/part_0:0\022\037linear/Age/weight/part_0/Assign\032\037linear/Age/weight/part_0/read:0\"\037\n\021linear/Age/weight\022\002\001\001\032\002\000\000\"\002\001\001"
        value: "\n!linear/Deductions/weight/part_0:0\022&linear/Deductions/weight/part_0/Assign\032&linear/Deductions/weight/part_0/read:0\"&\n\030linear/Deductions/weight\022\002\001\001\032\002\000\000\"\002\001\001"
        value: "\n\034linear/Hours/weight/part_0:0\022!linear/Hours/weight/part_0/Assign\032!linear/Hours/weight/part_0/read:0\"!\n\023linear/Hours/weight\022\002\001\001\032\002\000\000\"\002\001\001"
        value: "\n\035linear/Income/weight/part_0:0\022\"linear/Income/weight/part_0/Assign\032\"linear/Income/weight/part_0/read:0\"\"\n\024linear/Income/weight\022\002\001\001\032\002\000\000\"\002\001\001"
        value: "\n!linear/Education/weights/part_0:0\022&linear/Education/weights/part_0/Assign\032&linear/Education/weights/part_0/read:0\"&\n\030linear/Education/weights\022\002\020\001\032\002\000\000\"\002\020\001"
        value: "\n\"linear/Employment/weights/part_0:0\022\'linear/Employment/weights/part_0/Assign\032\'linear/Employment/weights/part_0/read:0\"\'\n\031linear/Employment/weights\022\002\007\001\032\002\000\000\"\002\007\001"
        value: "\n\036linear/Gender/weights/part_0:0\022#linear/Gender/weights/part_0/Assign\032#linear/Gender/weights/part_0/read:0\"#\n\025linear/Gender/weights\022\002\002\001\032\002\000\000\"\002\002\001"
        value: "\n\037linear/Marital/weights/part_0:0\022$linear/Marital/weights/part_0/Assign\032$linear/Marital/weights/part_0/read:0\"$\n\026linear/Marital/weights\022\002\006\001\032\002\000\000\"\002\006\001"
        value: "\n\"linear/Occupation/weights/part_0:0\022\'linear/Occupation/weights/part_0/Assign\032\'linear/Occupation/weights/part_0/read:0\"\'\n\031linear/Occupation/weights\022\002\016\001\032\002\000\000\"\002\016\001"
        value: "\n\033linear/bias_weight/part_0:0\022 linear/bias_weight/part_0/Assign\032 linear/bias_weight/part_0/read:0\"\035\n\022linear/bias_weight\022\001\001\032\001\000\"\001\001"
      }
    }
  }
  signature_def {
    key: "default_input_alternative:None"
    value {
      inputs {
        key: "Age"
        value {
          name: "Age:0"
          dtype: DT_DOUBLE
          tensor_shape {
            dim {
              size: -1
            }
            dim {
              size: 1
            }
          }
        }
      }
      inputs {
        key: "Deductions"
        value {
          name: "Deductions:0"
          dtype: DT_DOUBLE
          tensor_shape {
            dim {
              size: -1
            }
            dim {
              size: 1
            }
          }
        }
      }
      inputs {
        key: "Education"
        value {
          name: "Education:0"
          dtype: DT_STRING
          tensor_shape {
            dim {
              size: -1
            }
            dim {
              size: 1
            }
          }
        }
      }
      inputs {
        key: "Employment"
        value {
          name: "Employment:0"
          dtype: DT_STRING
          tensor_shape {
            dim {
              size: -1
            }
            dim {
              size: 1
            }
          }
        }
      }
      inputs {
        key: "Gender"
        value {
          name: "Gender:0"
          dtype: DT_STRING
          tensor_shape {
            dim {
              size: -1
            }
            dim {
              size: 1
            }
          }
        }
      }
      inputs {
        key: "Hours"
        value {
          name: "Hours:0"
          dtype: DT_DOUBLE
          tensor_shape {
            dim {
              size: -1
            }
            dim {
              size: 1
            }
          }
        }
      }
      inputs {
        key: "Income"
        value {
          name: "Income:0"
          dtype: DT_DOUBLE
          tensor_shape {
            dim {
              size: -1
            }
            dim {
              size: 1
            }
          }
        }
      }
      inputs {
        key: "Marital"
        value {
          name: "Marital:0"
          dtype: DT_STRING
          tensor_shape {
            dim {
              size: -1
            }
            dim {
              size: 1
            }
          }
        }
      }
      inputs {
        key: "Occupation"
        value {
          name: "Occupation:0"
          dtype: DT_STRING
          tensor_shape {
            dim {
              size: -1
            }
            dim {
              size: 1
            }
          }
        }
      }
      outputs {
        key: "classes"
        value {
          name: "linear/binary_logistic_head/predictions/classes:0"
          dtype: DT_INT64
          tensor_shape {
            dim {
              size: -1
            }
          }
        }
      }
      outputs {
        key: "logistic"
        value {
          name: "linear/binary_logistic_head/predictions/logistic:0"
          dtype: DT_FLOAT
          tensor_shape {
            dim {
              size: -1
            }
            dim {
              size: 1
            }
          }
        }
      }
      outputs {
        key: "logits"
        value {
          name: "linear/linear/BiasAdd:0"
          dtype: DT_FLOAT
          tensor_shape {
            dim {
              size: -1
            }
            dim {
              size: 1
            }
          }
        }
      }
      outputs {
        key: "probabilities"
        value {
          name: "linear/binary_logistic_head/predictions/probabilities:0"
          dtype: DT_FLOAT
          tensor_shape {
            dim {
              size: -1
            }
            dim {
              size: 2
            }
          }
        }
      }
      method_name: "tensorflow/serving/predict"
    }
  }
  signature_def {
    key: "serving_default"
    value {
      inputs {
        key: "Age"
        value {
          name: "Age:0"
          dtype: DT_DOUBLE
          tensor_shape {
            dim {
              size: -1
            }
            dim {
              size: 1
            }
          }
        }
      }
      inputs {
        key: "Deductions"
        value {
          name: "Deductions:0"
          dtype: DT_DOUBLE
          tensor_shape {
            dim {
              size: -1
            }
            dim {
              size: 1
            }
          }
        }
      }
      inputs {
        key: "Education"
        value {
          name: "Education:0"
          dtype: DT_STRING
          tensor_shape {
            dim {
              size: -1
            }
            dim {
              size: 1
            }
          }
        }
      }
      inputs {
        key: "Employment"
        value {
          name: "Employment:0"
          dtype: DT_STRING
          tensor_shape {
            dim {
              size: -1
            }
            dim {
              size: 1
            }
          }
        }
      }
      inputs {
        key: "Gender"
        value {
          name: "Gender:0"
          dtype: DT_STRING
          tensor_shape {
            dim {
              size: -1
            }
            dim {
              size: 1
            }
          }
        }
      }
      inputs {
        key: "Hours"
        value {
          name: "Hours:0"
          dtype: DT_DOUBLE
          tensor_shape {
            dim {
              size: -1
            }
            dim {
              size: 1
            }
          }
        }
      }
      inputs {
        key: "Income"
        value {
          name: "Income:0"
          dtype: DT_DOUBLE
          tensor_shape {
            dim {
              size: -1
            }
            dim {
              size: 1
            }
          }
        }
      }
      inputs {
        key: "Marital"
        value {
          name: "Marital:0"
          dtype: DT_STRING
          tensor_shape {
            dim {
              size: -1
            }
            dim {
              size: 1
            }
          }
        }
      }
      inputs {
        key: "Occupation"
        value {
          name: "Occupation:0"
          dtype: DT_STRING
          tensor_shape {
            dim {
              size: -1
            }
            dim {
              size: 1
            }
          }
        }
      }
      outputs {
        key: "classes"
        value {
          name: "linear/binary_logistic_head/predictions/classes:0"
          dtype: DT_INT64
          tensor_shape {
            dim {
              size: -1
            }
          }
        }
      }
      outputs {
        key: "logistic"
        value {
          name: "linear/binary_logistic_head/predictions/logistic:0"
          dtype: DT_FLOAT
          tensor_shape {
            dim {
              size: -1
            }
            dim {
              size: 1
            }
          }
        }
      }
      outputs {
        key: "logits"
        value {
          name: "linear/linear/BiasAdd:0"
          dtype: DT_FLOAT
          tensor_shape {
            dim {
              size: -1
            }
            dim {
              size: 1
            }
          }
        }
      }
      outputs {
        key: "probabilities"
        value {
          name: "linear/binary_logistic_head/predictions/probabilities:0"
          dtype: DT_FLOAT
          tensor_shape {
            dim {
              size: -1
            }
            dim {
              size: 2
            }
          }
        }
      }
      method_name: "tensorflow/serving/predict"
    }
  }
}
