saved_model_schema_version: 1
meta_graphs {
  meta_info_def {
    stripped_op_list {
      op {
        name: "Add"
        input_arg {
          name: "x"
          type_attr: "T"
        }
        input_arg {
          name: "y"
          type_attr: "T"
        }
        output_arg {
          name: "z"
          type_attr: "T"
        }
        attr {
          name: "T"
          type: "type"
          allowed_values {
            list {
              type: DT_HALF
              type: DT_FLOAT
              type: DT_DOUBLE
              type: DT_UINT8
              type: DT_INT8
              type: DT_INT16
              type: DT_INT32
              type: DT_INT64
              type: DT_COMPLEX64
              type: DT_COMPLEX128
              type: DT_STRING
            }
          }
        }
      }
      op {
        name: "Assign"
        input_arg {
          name: "ref"
          type_attr: "T"
          is_ref: true
        }
        input_arg {
          name: "value"
          type_attr: "T"
        }
        output_arg {
          name: "output_ref"
          type_attr: "T"
          is_ref: true
        }
        attr {
          name: "T"
          type: "type"
        }
        attr {
          name: "validate_shape"
          type: "bool"
          default_value {
            b: true
          }
        }
        attr {
          name: "use_locking"
          type: "bool"
          default_value {
            b: true
          }
        }
        allows_uninitialized_input: true
      }
      op {
        name: "BiasAdd"
        input_arg {
          name: "value"
          type_attr: "T"
        }
        input_arg {
          name: "bias"
          type_attr: "T"
        }
        output_arg {
          name: "output"
          type_attr: "T"
        }
        attr {
          name: "T"
          type: "type"
          allowed_values {
            list {
              type: DT_FLOAT
              type: DT_DOUBLE
              type: DT_INT64
              type: DT_INT32
              type: DT_UINT8
              type: DT_UINT16
              type: DT_INT16
              type: DT_INT8
              type: DT_COMPLEX64
              type: DT_COMPLEX128
              type: DT_QINT8
              type: DT_QUINT8
              type: DT_QINT32
              type: DT_HALF
            }
          }
        }
        attr {
          name: "data_format"
          type: "string"
          default_value {
            s: "NHWC"
          }
          allowed_values {
            list {
              s: "NHWC"
              s: "NCHW"
            }
          }
        }
      }
      op {
        name: "Cast"
        input_arg {
          name: "x"
          type_attr: "SrcT"
        }
        output_arg {
          name: "y"
          type_attr: "DstT"
        }
        attr {
          name: "SrcT"
          type: "type"
        }
        attr {
          name: "DstT"
          type: "type"
        }
      }
      op {
        name: "ConcatV2"
        input_arg {
          name: "values"
          type_attr: "T"
          number_attr: "N"
        }
        input_arg {
          name: "axis"
          type_attr: "Tidx"
        }
        output_arg {
          name: "output"
          type_attr: "T"
        }
        attr {
          name: "N"
          type: "int"
          has_minimum: true
          minimum: 2
        }
        attr {
          name: "T"
          type: "type"
        }
        attr {
          name: "Tidx"
          type: "type"
          default_value {
            type: DT_INT32
          }
          allowed_values {
            list {
              type: DT_INT32
              type: DT_INT64
            }
          }
        }
      }
      op {
        name: "Const"
        output_arg {
          name: "output"
          type_attr: "dtype"
        }
        attr {
          name: "value"
          type: "tensor"
        }
        attr {
          name: "dtype"
          type: "type"
        }
      }
      op {
        name: "Equal"
        input_arg {
          name: "x"
          type_attr: "T"
        }
        input_arg {
          name: "y"
          type_attr: "T"
        }
        output_arg {
          name: "z"
          type: DT_BOOL
        }
        attr {
          name: "T"
          type: "type"
          allowed_values {
            list {
              type: DT_HALF
              type: DT_FLOAT
              type: DT_DOUBLE
              type: DT_UINT8
              type: DT_INT8
              type: DT_INT16
              type: DT_INT32
              type: DT_INT64
              type: DT_COMPLEX64
              type: DT_QUINT8
              type: DT_QINT8
              type: DT_QINT32
              type: DT_STRING
              type: DT_BOOL
              type: DT_COMPLEX128
            }
          }
        }
        is_commutative: true
      }
      op {
        name: "Gather"
        input_arg {
          name: "params"
          type_attr: "Tparams"
        }
        input_arg {
          name: "indices"
          type_attr: "Tindices"
        }
        output_arg {
          name: "output"
          type_attr: "Tparams"
        }
        attr {
          name: "validate_indices"
          type: "bool"
          default_value {
            b: true
          }
        }
        attr {
          name: "Tparams"
          type: "type"
        }
        attr {
          name: "Tindices"
          type: "type"
          allowed_values {
            list {
              type: DT_INT32
              type: DT_INT64
            }
          }
        }
      }
      op {
        name: "HashTable"
        output_arg {
          name: "table_handle"
          type: DT_STRING
          is_ref: true
        }
        attr {
          name: "container"
          type: "string"
          default_value {
            s: ""
          }
        }
        attr {
          name: "shared_name"
          type: "string"
          default_value {
            s: ""
          }
        }
        attr {
          name: "use_node_name_sharing"
          type: "bool"
          default_value {
            b: false
          }
        }
        attr {
          name: "key_dtype"
          type: "type"
        }
        attr {
          name: "value_dtype"
          type: "type"
        }
        is_stateful: true
      }
      op {
        name: "HistogramSummary"
        input_arg {
          name: "tag"
          type: DT_STRING
        }
        input_arg {
          name: "values"
          type_attr: "T"
        }
        output_arg {
          name: "summary"
          type: DT_STRING
        }
        attr {
          name: "T"
          type: "type"
          default_value {
            type: DT_FLOAT
          }
          allowed_values {
            list {
              type: DT_FLOAT
              type: DT_DOUBLE
              type: DT_INT32
              type: DT_INT64
              type: DT_UINT8
              type: DT_INT16
              type: DT_INT8
              type: DT_UINT16
              type: DT_HALF
            }
          }
        }
      }
      op {
        name: "Identity"
        input_arg {
          name: "input"
          type_attr: "T"
        }
        output_arg {
          name: "output"
          type_attr: "T"
        }
        attr {
          name: "T"
          type: "type"
        }
      }
      op {
        name: "InitializeTable"
        input_arg {
          name: "table_handle"
          type: DT_STRING
          is_ref: true
        }
        input_arg {
          name: "keys"
          type_attr: "Tkey"
        }
        input_arg {
          name: "values"
          type_attr: "Tval"
        }
        attr {
          name: "Tkey"
          type: "type"
        }
        attr {
          name: "Tval"
          type: "type"
        }
      }
      op {
        name: "LookupTableFind"
        input_arg {
          name: "table_handle"
          type: DT_STRING
          is_ref: true
        }
        input_arg {
          name: "keys"
          type_attr: "Tin"
        }
        input_arg {
          name: "default_value"
          type_attr: "Tout"
        }
        output_arg {
          name: "values"
          type_attr: "Tout"
        }
        attr {
          name: "Tin"
          type: "type"
        }
        attr {
          name: "Tout"
          type: "type"
        }
      }
      op {
        name: "MatMul"
        input_arg {
          name: "a"
          type_attr: "T"
        }
        input_arg {
          name: "b"
          type_attr: "T"
        }
        output_arg {
          name: "product"
          type_attr: "T"
        }
        attr {
          name: "transpose_a"
          type: "bool"
          default_value {
            b: false
          }
        }
        attr {
          name: "transpose_b"
          type: "bool"
          default_value {
            b: false
          }
        }
        attr {
          name: "T"
          type: "type"
          allowed_values {
            list {
              type: DT_HALF
              type: DT_FLOAT
              type: DT_DOUBLE
              type: DT_INT32
              type: DT_COMPLEX64
              type: DT_COMPLEX128
            }
          }
        }
      }
      op {
        name: "Mean"
        input_arg {
          name: "input"
          type_attr: "T"
        }
        input_arg {
          name: "reduction_indices"
          type_attr: "Tidx"
        }
        output_arg {
          name: "output"
          type_attr: "T"
        }
        attr {
          name: "keep_dims"
          type: "bool"
          default_value {
            b: false
          }
        }
        attr {
          name: "T"
          type: "type"
          allowed_values {
            list {
              type: DT_FLOAT
              type: DT_DOUBLE
              type: DT_INT64
              type: DT_INT32
              type: DT_UINT8
              type: DT_UINT16
              type: DT_INT16
              type: DT_INT8
              type: DT_COMPLEX64
              type: DT_COMPLEX128
              type: DT_QINT8
              type: DT_QUINT8
              type: DT_QINT32
              type: DT_HALF
            }
          }
        }
        attr {
          name: "Tidx"
          type: "type"
          default_value {
            type: DT_INT32
          }
          allowed_values {
            list {
              type: DT_INT32
              type: DT_INT64
            }
          }
        }
      }
      op {
        name: "MergeV2Checkpoints"
        input_arg {
          name: "checkpoint_prefixes"
          type: DT_STRING
        }
        input_arg {
          name: "destination_prefix"
          type: DT_STRING
        }
        attr {
          name: "delete_old_dirs"
          type: "bool"
          default_value {
            b: true
          }
        }
      }
      op {
        name: "Mul"
        input_arg {
          name: "x"
          type_attr: "T"
        }
        input_arg {
          name: "y"
          type_attr: "T"
        }
        output_arg {
          name: "z"
          type_attr: "T"
        }
        attr {
          name: "T"
          type: "type"
          allowed_values {
            list {
              type: DT_HALF
              type: DT_FLOAT
              type: DT_DOUBLE
              type: DT_UINT8
              type: DT_INT8
              type: DT_UINT16
              type: DT_INT16
              type: DT_INT32
              type: DT_INT64
              type: DT_COMPLEX64
              type: DT_COMPLEX128
            }
          }
        }
        is_commutative: true
      }
      op {
        name: "NoOp"
      }
      op {
        name: "NotEqual"
        input_arg {
          name: "x"
          type_attr: "T"
        }
        input_arg {
          name: "y"
          type_attr: "T"
        }
        output_arg {
          name: "z"
          type: DT_BOOL
        }
        attr {
          name: "T"
          type: "type"
          allowed_values {
            list {
              type: DT_HALF
              type: DT_FLOAT
              type: DT_DOUBLE
              type: DT_UINT8
              type: DT_INT8
              type: DT_INT16
              type: DT_INT32
              type: DT_INT64
              type: DT_COMPLEX64
              type: DT_QUINT8
              type: DT_QINT8
              type: DT_QINT32
              type: DT_STRING
              type: DT_BOOL
              type: DT_COMPLEX128
            }
          }
        }
        is_commutative: true
      }
      op {
        name: "OneHot"
        input_arg {
          name: "indices"
          type_attr: "TI"
        }
        input_arg {
          name: "depth"
          type: DT_INT32
        }
        input_arg {
          name: "on_value"
          type_attr: "T"
        }
        input_arg {
          name: "off_value"
          type_attr: "T"
        }
        output_arg {
          name: "output"
          type_attr: "T"
        }
        attr {
          name: "axis"
          type: "int"
          default_value {
            i: -1
          }
        }
        attr {
          name: "T"
          type: "type"
        }
        attr {
          name: "TI"
          type: "type"
          default_value {
            type: DT_INT64
          }
          allowed_values {
            list {
              type: DT_UINT8
              type: DT_INT32
              type: DT_INT64
            }
          }
        }
      }
      op {
        name: "Pack"
        input_arg {
          name: "values"
          type_attr: "T"
          number_attr: "N"
        }
        output_arg {
          name: "output"
          type_attr: "T"
        }
        attr {
          name: "N"
          type: "int"
          has_minimum: true
          minimum: 1
        }
        attr {
          name: "T"
          type: "type"
        }
        attr {
          name: "axis"
          type: "int"
          default_value {
            i: 0
          }
        }
      }
      op {
        name: "Placeholder"
        output_arg {
          name: "output"
          type_attr: "dtype"
        }
        attr {
          name: "dtype"
          type: "type"
        }
        attr {
          name: "shape"
          type: "shape"
          default_value {
            shape {
            }
          }
        }
      }
      op {
        name: "Prod"
        input_arg {
          name: "input"
          type_attr: "T"
        }
        input_arg {
          name: "reduction_indices"
          type_attr: "Tidx"
        }
        output_arg {
          name: "output"
          type_attr: "T"
        }
        attr {
          name: "keep_dims"
          type: "bool"
          default_value {
            b: false
          }
        }
        attr {
          name: "T"
          type: "type"
          allowed_values {
            list {
              type: DT_FLOAT
              type: DT_DOUBLE
              type: DT_INT64
              type: DT_INT32
              type: DT_UINT8
              type: DT_UINT16
              type: DT_INT16
              type: DT_INT8
              type: DT_COMPLEX64
              type: DT_COMPLEX128
              type: DT_QINT8
              type: DT_QUINT8
              type: DT_QINT32
              type: DT_HALF
            }
          }
        }
        attr {
          name: "Tidx"
          type: "type"
          default_value {
            type: DT_INT32
          }
          allowed_values {
            list {
              type: DT_INT32
              type: DT_INT64
            }
          }
        }
      }
      op {
        name: "RandomUniform"
        input_arg {
          name: "shape"
          type_attr: "T"
        }
        output_arg {
          name: "output"
          type_attr: "dtype"
        }
        attr {
          name: "seed"
          type: "int"
          default_value {
            i: 0
          }
        }
        attr {
          name: "seed2"
          type: "int"
          default_value {
            i: 0
          }
        }
        attr {
          name: "dtype"
          type: "type"
          allowed_values {
            list {
              type: DT_HALF
              type: DT_FLOAT
              type: DT_DOUBLE
            }
          }
        }
        attr {
          name: "T"
          type: "type"
          allowed_values {
            list {
              type: DT_INT32
              type: DT_INT64
            }
          }
        }
        is_stateful: true
      }
      op {
        name: "Range"
        input_arg {
          name: "start"
          type_attr: "Tidx"
        }
        input_arg {
          name: "limit"
          type_attr: "Tidx"
        }
        input_arg {
          name: "delta"
          type_attr: "Tidx"
        }
        output_arg {
          name: "output"
          type_attr: "Tidx"
        }
        attr {
          name: "Tidx"
          type: "type"
          default_value {
            type: DT_INT32
          }
          allowed_values {
            list {
              type: DT_FLOAT
              type: DT_DOUBLE
              type: DT_INT32
              type: DT_INT64
            }
          }
        }
      }
      op {
        name: "Relu"
        input_arg {
          name: "features"
          type_attr: "T"
        }
        output_arg {
          name: "activations"
          type_attr: "T"
        }
        attr {
          name: "T"
          type: "type"
          allowed_values {
            list {
              type: DT_FLOAT
              type: DT_DOUBLE
              type: DT_INT32
              type: DT_INT64
              type: DT_UINT8
              type: DT_INT16
              type: DT_INT8
              type: DT_UINT16
              type: DT_HALF
            }
          }
        }
      }
      op {
        name: "Reshape"
        input_arg {
          name: "tensor"
          type_attr: "T"
        }
        input_arg {
          name: "shape"
          type_attr: "Tshape"
        }
        output_arg {
          name: "output"
          type_attr: "T"
        }
        attr {
          name: "T"
          type: "type"
        }
        attr {
          name: "Tshape"
          type: "type"
          default_value {
            type: DT_INT32
          }
          allowed_values {
            list {
              type: DT_INT32
              type: DT_INT64
            }
          }
        }
      }
      op {
        name: "RestoreV2"
        input_arg {
          name: "prefix"
          type: DT_STRING
        }
        input_arg {
          name: "tensor_names"
          type: DT_STRING
        }
        input_arg {
          name: "shape_and_slices"
          type: DT_STRING
        }
        output_arg {
          name: "tensors"
          type_list_attr: "dtypes"
        }
        attr {
          name: "dtypes"
          type: "list(type)"
          has_minimum: true
          minimum: 1
        }
      }
      op {
        name: "SaveV2"
        input_arg {
          name: "prefix"
          type: DT_STRING
        }
        input_arg {
          name: "tensor_names"
          type: DT_STRING
        }
        input_arg {
          name: "shape_and_slices"
          type: DT_STRING
        }
        input_arg {
          name: "tensors"
          type_list_attr: "dtypes"
        }
        attr {
          name: "dtypes"
          type: "list(type)"
          has_minimum: true
          minimum: 1
        }
      }
      op {
        name: "ScalarSummary"
        input_arg {
          name: "tags"
          type: DT_STRING
        }
        input_arg {
          name: "values"
          type_attr: "T"
        }
        output_arg {
          name: "summary"
          type: DT_STRING
        }
        attr {
          name: "T"
          type: "type"
          allowed_values {
            list {
              type: DT_FLOAT
              type: DT_DOUBLE
              type: DT_INT32
              type: DT_INT64
              type: DT_UINT8
              type: DT_INT16
              type: DT_INT8
              type: DT_UINT16
              type: DT_HALF
            }
          }
        }
      }
      op {
        name: "Shape"
        input_arg {
          name: "input"
          type_attr: "T"
        }
        output_arg {
          name: "output"
          type_attr: "out_type"
        }
        attr {
          name: "T"
          type: "type"
        }
        attr {
          name: "out_type"
          type: "type"
          default_value {
            type: DT_INT32
          }
          allowed_values {
            list {
              type: DT_INT32
              type: DT_INT64
            }
          }
        }
      }
      op {
        name: "ShardedFilename"
        input_arg {
          name: "basename"
          type: DT_STRING
        }
        input_arg {
          name: "shard"
          type: DT_INT32
        }
        input_arg {
          name: "num_shards"
          type: DT_INT32
        }
        output_arg {
          name: "filename"
          type: DT_STRING
        }
      }
      op {
        name: "SparseReshape"
        input_arg {
          name: "input_indices"
          type: DT_INT64
        }
        input_arg {
          name: "input_shape"
          type: DT_INT64
        }
        input_arg {
          name: "new_shape"
          type: DT_INT64
        }
        output_arg {
          name: "output_indices"
          type: DT_INT64
        }
        output_arg {
          name: "output_shape"
          type: DT_INT64
        }
      }
      op {
        name: "SparseToDense"
        input_arg {
          name: "sparse_indices"
          type_attr: "Tindices"
        }
        input_arg {
          name: "output_shape"
          type_attr: "Tindices"
        }
        input_arg {
          name: "sparse_values"
          type_attr: "T"
        }
        input_arg {
          name: "default_value"
          type_attr: "T"
        }
        output_arg {
          name: "dense"
          type_attr: "T"
        }
        attr {
          name: "validate_indices"
          type: "bool"
          default_value {
            b: true
          }
        }
        attr {
          name: "T"
          type: "type"
        }
        attr {
          name: "Tindices"
          type: "type"
          allowed_values {
            list {
              type: DT_INT32
              type: DT_INT64
            }
          }
        }
      }
      op {
        name: "Squeeze"
        input_arg {
          name: "input"
          type_attr: "T"
        }
        output_arg {
          name: "output"
          type_attr: "T"
        }
        attr {
          name: "T"
          type: "type"
        }
        attr {
          name: "squeeze_dims"
          type: "list(int)"
          default_value {
            list {
            }
          }
          has_minimum: true
        }
      }
      op {
        name: "StridedSlice"
        input_arg {
          name: "input"
          type_attr: "T"
        }
        input_arg {
          name: "begin"
          type_attr: "Index"
        }
        input_arg {
          name: "end"
          type_attr: "Index"
        }
        input_arg {
          name: "strides"
          type_attr: "Index"
        }
        output_arg {
          name: "output"
          type_attr: "T"
        }
        attr {
          name: "T"
          type: "type"
        }
        attr {
          name: "Index"
          type: "type"
          allowed_values {
            list {
              type: DT_INT32
              type: DT_INT64
            }
          }
        }
        attr {
          name: "begin_mask"
          type: "int"
          default_value {
            i: 0
          }
        }
        attr {
          name: "end_mask"
          type: "int"
          default_value {
            i: 0
          }
        }
        attr {
          name: "ellipsis_mask"
          type: "int"
          default_value {
            i: 0
          }
        }
        attr {
          name: "new_axis_mask"
          type: "int"
          default_value {
            i: 0
          }
        }
        attr {
          name: "shrink_axis_mask"
          type: "int"
          default_value {
            i: 0
          }
        }
      }
      op {
        name: "StringJoin"
        input_arg {
          name: "inputs"
          type: DT_STRING
          number_attr: "N"
        }
        output_arg {
          name: "output"
          type: DT_STRING
        }
        attr {
          name: "N"
          type: "int"
          has_minimum: true
          minimum: 1
        }
        attr {
          name: "separator"
          type: "string"
          default_value {
            s: ""
          }
        }
      }
      op {
        name: "Sub"
        input_arg {
          name: "x"
          type_attr: "T"
        }
        input_arg {
          name: "y"
          type_attr: "T"
        }
        output_arg {
          name: "z"
          type_attr: "T"
        }
        attr {
          name: "T"
          type: "type"
          allowed_values {
            list {
              type: DT_HALF
              type: DT_FLOAT
              type: DT_DOUBLE
              type: DT_INT32
              type: DT_INT64
              type: DT_COMPLEX64
              type: DT_COMPLEX128
            }
          }
        }
      }
      op {
        name: "Sum"
        input_arg {
          name: "input"
          type_attr: "T"
        }
        input_arg {
          name: "reduction_indices"
          type_attr: "Tidx"
        }
        output_arg {
          name: "output"
          type_attr: "T"
        }
        attr {
          name: "keep_dims"
          type: "bool"
          default_value {
            b: false
          }
        }
        attr {
          name: "T"
          type: "type"
          allowed_values {
            list {
              type: DT_FLOAT
              type: DT_DOUBLE
              type: DT_INT64
              type: DT_INT32
              type: DT_UINT8
              type: DT_UINT16
              type: DT_INT16
              type: DT_INT8
              type: DT_COMPLEX64
              type: DT_COMPLEX128
              type: DT_QINT8
              type: DT_QUINT8
              type: DT_QINT32
              type: DT_HALF
            }
          }
        }
        attr {
          name: "Tidx"
          type: "type"
          default_value {
            type: DT_INT32
          }
          allowed_values {
            list {
              type: DT_INT32
              type: DT_INT64
            }
          }
        }
      }
      op {
        name: "Unpack"
        input_arg {
          name: "value"
          type_attr: "T"
        }
        output_arg {
          name: "output"
          type_attr: "T"
          number_attr: "num"
        }
        attr {
          name: "num"
          type: "int"
          has_minimum: true
        }
        attr {
          name: "T"
          type: "type"
        }
        attr {
          name: "axis"
          type: "int"
          default_value {
            i: 0
          }
        }
      }
      op {
        name: "VariableV2"
        output_arg {
          name: "ref"
          type_attr: "dtype"
          is_ref: true
        }
        attr {
          name: "shape"
          type: "shape"
        }
        attr {
          name: "dtype"
          type: "type"
        }
        attr {
          name: "container"
          type: "string"
          default_value {
            s: ""
          }
        }
        attr {
          name: "shared_name"
          type: "string"
          default_value {
            s: ""
          }
        }
        is_stateful: true
      }
      op {
        name: "Where"
        input_arg {
          name: "input"
          type: DT_BOOL
        }
        output_arg {
          name: "index"
          type: DT_INT64
        }
      }
    }
    tags: "serve"
    tensorflow_version: "1.1.0"
    tensorflow_git_version: "v1.1.0-rc0-61-g1ec6ed5"
  }
  graph_def {
    node {
      name: "global_step/Initializer/Const"
      op: "Const"
      attr {
        key: "_class"
        value {
          list {
            s: "loc:@global_step"
          }
        }
      }
      attr {
        key: "_output_shapes"
        value {
          list {
            shape {
            }
          }
        }
      }
      attr {
        key: "dtype"
        value {
          type: DT_INT64
        }
      }
      attr {
        key: "value"
        value {
          tensor {
            dtype: DT_INT64
            tensor_shape {
            }
            int64_val: 0
          }
        }
      }
    }
    node {
      name: "global_step"
      op: "VariableV2"
      attr {
        key: "_class"
        value {
          list {
            s: "loc:@global_step"
          }
        }
      }
      attr {
        key: "_output_shapes"
        value {
          list {
            shape {
            }
          }
        }
      }
      attr {
        key: "container"
        value {
          s: ""
        }
      }
      attr {
        key: "dtype"
        value {
          type: DT_INT64
        }
      }
      attr {
        key: "shape"
        value {
          shape {
          }
        }
      }
      attr {
        key: "shared_name"
        value {
          s: ""
        }
      }
    }
    node {
      name: "global_step/Assign"
      op: "Assign"
      input: "global_step"
      input: "global_step/Initializer/Const"
      attr {
        key: "T"
        value {
          type: DT_INT64
        }
      }
      attr {
        key: "_class"
        value {
          list {
            s: "loc:@global_step"
          }
        }
      }
      attr {
        key: "_output_shapes"
        value {
          list {
            shape {
            }
          }
        }
      }
      attr {
        key: "use_locking"
        value {
          b: true
        }
      }
      attr {
        key: "validate_shape"
        value {
          b: true
        }
      }
    }
    node {
      name: "global_step/read"
      op: "Identity"
      input: "global_step"
      attr {
        key: "T"
        value {
          type: DT_INT64
        }
      }
      attr {
        key: "_class"
        value {
          list {
            s: "loc:@global_step"
          }
        }
      }
      attr {
        key: "_output_shapes"
        value {
          list {
            shape {
            }
          }
        }
      }
    }
    node {
      name: "cylinders"
      op: "Placeholder"
      attr {
        key: "_output_shapes"
        value {
          list {
            shape {
              dim {
                size: -1
              }
              dim {
                size: 1
              }
            }
          }
        }
      }
      attr {
        key: "dtype"
        value {
          type: DT_DOUBLE
        }
      }
      attr {
        key: "shape"
        value {
          shape {
          }
        }
      }
    }
    node {
      name: "displacement"
      op: "Placeholder"
      attr {
        key: "_output_shapes"
        value {
          list {
            shape {
              dim {
                size: -1
              }
              dim {
                size: 1
              }
            }
          }
        }
      }
      attr {
        key: "dtype"
        value {
          type: DT_DOUBLE
        }
      }
      attr {
        key: "shape"
        value {
          shape {
          }
        }
      }
    }
    node {
      name: "horsepower"
      op: "Placeholder"
      attr {
        key: "_output_shapes"
        value {
          list {
            shape {
              dim {
                size: -1
              }
              dim {
                size: 1
              }
            }
          }
        }
      }
      attr {
        key: "dtype"
        value {
          type: DT_DOUBLE
        }
      }
      attr {
        key: "shape"
        value {
          shape {
          }
        }
      }
    }
    node {
      name: "weight"
      op: "Placeholder"
      attr {
        key: "_output_shapes"
        value {
          list {
            shape {
              dim {
                size: -1
              }
              dim {
                size: 1
              }
            }
          }
        }
      }
      attr {
        key: "dtype"
        value {
          type: DT_DOUBLE
        }
      }
      attr {
        key: "shape"
        value {
          shape {
          }
        }
      }
    }
    node {
      name: "acceleration"
      op: "Placeholder"
      attr {
        key: "_output_shapes"
        value {
          list {
            shape {
              dim {
                size: -1
              }
              dim {
                size: 1
              }
            }
          }
        }
      }
      attr {
        key: "dtype"
        value {
          type: DT_DOUBLE
        }
      }
      attr {
        key: "shape"
        value {
          shape {
          }
        }
      }
    }
    node {
      name: "model_year"
      op: "Placeholder"
      attr {
        key: "_output_shapes"
        value {
          list {
            shape {
              dim {
                size: -1
              }
              dim {
                size: 1
              }
            }
          }
        }
      }
      attr {
        key: "dtype"
        value {
          type: DT_DOUBLE
        }
      }
      attr {
        key: "shape"
        value {
          shape {
          }
        }
      }
    }
    node {
      name: "origin"
      op: "Placeholder"
      attr {
        key: "_output_shapes"
        value {
          list {
            shape {
              dim {
                size: -1
              }
              dim {
                size: 1
              }
            }
          }
        }
      }
      attr {
        key: "dtype"
        value {
          type: DT_STRING
        }
      }
      attr {
        key: "shape"
        value {
          shape {
          }
        }
      }
    }
    node {
      name: "dnn/input_from_feature_columns/input_from_feature_columns/origin_one_hot/DenseToSparseTensor/Shape"
      op: "Shape"
      input: "origin"
      attr {
        key: "T"
        value {
          type: DT_STRING
        }
      }
      attr {
        key: "_output_shapes"
        value {
          list {
            shape {
              dim {
                size: 2
              }
            }
          }
        }
      }
      attr {
        key: "out_type"
        value {
          type: DT_INT32
        }
      }
    }
    node {
      name: "dnn/input_from_feature_columns/input_from_feature_columns/origin_one_hot/DenseToSparseTensor/Cast"
      op: "Cast"
      input: "dnn/input_from_feature_columns/input_from_feature_columns/origin_one_hot/DenseToSparseTensor/Shape"
      attr {
        key: "DstT"
        value {
          type: DT_INT64
        }
      }
      attr {
        key: "SrcT"
        value {
          type: DT_INT32
        }
      }
      attr {
        key: "_output_shapes"
        value {
          list {
            shape {
              dim {
                size: 2
              }
            }
          }
        }
      }
    }
    node {
      name: "dnn/input_from_feature_columns/input_from_feature_columns/origin_one_hot/DenseToSparseTensor/Cast_1/x"
      op: "Const"
      attr {
        key: "_output_shapes"
        value {
          list {
            shape {
            }
          }
        }
      }
      attr {
        key: "dtype"
        value {
          type: DT_STRING
        }
      }
      attr {
        key: "value"
        value {
          tensor {
            dtype: DT_STRING
            tensor_shape {
            }
            string_val: ""
          }
        }
      }
    }
    node {
      name: "dnn/input_from_feature_columns/input_from_feature_columns/origin_one_hot/DenseToSparseTensor/NotEqual"
      op: "NotEqual"
      input: "origin"
      input: "dnn/input_from_feature_columns/input_from_feature_columns/origin_one_hot/DenseToSparseTensor/Cast_1/x"
      attr {
        key: "T"
        value {
          type: DT_STRING
        }
      }
      attr {
        key: "_output_shapes"
        value {
          list {
            shape {
              dim {
                size: -1
              }
              dim {
                size: 1
              }
            }
          }
        }
      }
    }
    node {
      name: "dnn/input_from_feature_columns/input_from_feature_columns/origin_one_hot/DenseToSparseTensor/Where"
      op: "Where"
      input: "dnn/input_from_feature_columns/input_from_feature_columns/origin_one_hot/DenseToSparseTensor/NotEqual"
      attr {
        key: "_output_shapes"
        value {
          list {
            shape {
              dim {
                size: -1
              }
              dim {
                size: 2
              }
            }
          }
        }
      }
    }
    node {
      name: "dnn/input_from_feature_columns/input_from_feature_columns/origin_one_hot/DenseToSparseTensor/Reshape/shape"
      op: "Const"
      attr {
        key: "_output_shapes"
        value {
          list {
            shape {
              dim {
                size: 1
              }
            }
          }
        }
      }
      attr {
        key: "dtype"
        value {
          type: DT_INT32
        }
      }
      attr {
        key: "value"
        value {
          tensor {
            dtype: DT_INT32
            tensor_shape {
              dim {
                size: 1
              }
            }
            int_val: -1
          }
        }
      }
    }
    node {
      name: "dnn/input_from_feature_columns/input_from_feature_columns/origin_one_hot/DenseToSparseTensor/Reshape"
      op: "Reshape"
      input: "origin"
      input: "dnn/input_from_feature_columns/input_from_feature_columns/origin_one_hot/DenseToSparseTensor/Reshape/shape"
      attr {
        key: "T"
        value {
          type: DT_STRING
        }
      }
      attr {
        key: "Tshape"
        value {
          type: DT_INT32
        }
      }
      attr {
        key: "_output_shapes"
        value {
          list {
            shape {
              dim {
                size: -1
              }
            }
          }
        }
      }
    }
    node {
      name: "dnn/input_from_feature_columns/input_from_feature_columns/origin_one_hot/DenseToSparseTensor/strided_slice/stack"
      op: "Const"
      attr {
        key: "_output_shapes"
        value {
          list {
            shape {
              dim {
                size: 2
              }
            }
          }
        }
      }
      attr {
        key: "dtype"
        value {
          type: DT_INT32
        }
      }
      attr {
        key: "value"
        value {
          tensor {
            dtype: DT_INT32
            tensor_shape {
              dim {
                size: 2
              }
            }
            tensor_content: "\000\000\000\000\001\000\000\000"
          }
        }
      }
    }
    node {
      name: "dnn/input_from_feature_columns/input_from_feature_columns/origin_one_hot/DenseToSparseTensor/strided_slice/stack_1"
      op: "Const"
      attr {
        key: "_output_shapes"
        value {
          list {
            shape {
              dim {
                size: 2
              }
            }
          }
        }
      }
      attr {
        key: "dtype"
        value {
          type: DT_INT32
        }
      }
      attr {
        key: "value"
        value {
          tensor {
            dtype: DT_INT32
            tensor_shape {
              dim {
                size: 2
              }
            }
            tensor_content: "\000\000\000\000\002\000\000\000"
          }
        }
      }
    }
    node {
      name: "dnn/input_from_feature_columns/input_from_feature_columns/origin_one_hot/DenseToSparseTensor/strided_slice/stack_2"
      op: "Const"
      attr {
        key: "_output_shapes"
        value {
          list {
            shape {
              dim {
                size: 2
              }
            }
          }
        }
      }
      attr {
        key: "dtype"
        value {
          type: DT_INT32
        }
      }
      attr {
        key: "value"
        value {
          tensor {
            dtype: DT_INT32
            tensor_shape {
              dim {
                size: 2
              }
            }
            tensor_content: "\001\000\000\000\001\000\000\000"
          }
        }
      }
    }
    node {
      name: "dnn/input_from_feature_columns/input_from_feature_columns/origin_one_hot/DenseToSparseTensor/strided_slice"
      op: "StridedSlice"
      input: "dnn/input_from_feature_columns/input_from_feature_columns/origin_one_hot/DenseToSparseTensor/Where"
      input: "dnn/input_from_feature_columns/input_from_feature_columns/origin_one_hot/DenseToSparseTensor/strided_slice/stack"
      input: "dnn/input_from_feature_columns/input_from_feature_columns/origin_one_hot/DenseToSparseTensor/strided_slice/stack_1"
      input: "dnn/input_from_feature_columns/input_from_feature_columns/origin_one_hot/DenseToSparseTensor/strided_slice/stack_2"
      attr {
        key: "Index"
        value {
          type: DT_INT32
        }
      }
      attr {
        key: "T"
        value {
          type: DT_INT64
        }
      }
      attr {
        key: "_output_shapes"
        value {
          list {
            shape {
              dim {
                size: -1
              }
            }
          }
        }
      }
      attr {
        key: "begin_mask"
        value {
          i: 1
        }
      }
      attr {
        key: "ellipsis_mask"
        value {
          i: 0
        }
      }
      attr {
        key: "end_mask"
        value {
          i: 1
        }
      }
      attr {
        key: "new_axis_mask"
        value {
          i: 0
        }
      }
      attr {
        key: "shrink_axis_mask"
        value {
          i: 2
        }
      }
    }
    node {
      name: "dnn/input_from_feature_columns/input_from_feature_columns/origin_one_hot/DenseToSparseTensor/strided_slice_1/stack"
      op: "Const"
      attr {
        key: "_output_shapes"
        value {
          list {
            shape {
              dim {
                size: 2
              }
            }
          }
        }
      }
      attr {
        key: "dtype"
        value {
          type: DT_INT32
        }
      }
      attr {
        key: "value"
        value {
          tensor {
            dtype: DT_INT32
            tensor_shape {
              dim {
                size: 2
              }
            }
            tensor_content: "\000\000\000\000\000\000\000\000"
          }
        }
      }
    }
    node {
      name: "dnn/input_from_feature_columns/input_from_feature_columns/origin_one_hot/DenseToSparseTensor/strided_slice_1/stack_1"
      op: "Const"
      attr {
        key: "_output_shapes"
        value {
          list {
            shape {
              dim {
                size: 2
              }
            }
          }
        }
      }
      attr {
        key: "dtype"
        value {
          type: DT_INT32
        }
      }
      attr {
        key: "value"
        value {
          tensor {
            dtype: DT_INT32
            tensor_shape {
              dim {
                size: 2
              }
            }
            tensor_content: "\000\000\000\000\001\000\000\000"
          }
        }
      }
    }
    node {
      name: "dnn/input_from_feature_columns/input_from_feature_columns/origin_one_hot/DenseToSparseTensor/strided_slice_1/stack_2"
      op: "Const"
      attr {
        key: "_output_shapes"
        value {
          list {
            shape {
              dim {
                size: 2
              }
            }
          }
        }
      }
      attr {
        key: "dtype"
        value {
          type: DT_INT32
        }
      }
      attr {
        key: "value"
        value {
          tensor {
            dtype: DT_INT32
            tensor_shape {
              dim {
                size: 2
              }
            }
            tensor_content: "\001\000\000\000\001\000\000\000"
          }
        }
      }
    }
    node {
      name: "dnn/input_from_feature_columns/input_from_feature_columns/origin_one_hot/DenseToSparseTensor/strided_slice_1"
      op: "StridedSlice"
      input: "dnn/input_from_feature_columns/input_from_feature_columns/origin_one_hot/DenseToSparseTensor/Where"
      input: "dnn/input_from_feature_columns/input_from_feature_columns/origin_one_hot/DenseToSparseTensor/strided_slice_1/stack"
      input: "dnn/input_from_feature_columns/input_from_feature_columns/origin_one_hot/DenseToSparseTensor/strided_slice_1/stack_1"
      input: "dnn/input_from_feature_columns/input_from_feature_columns/origin_one_hot/DenseToSparseTensor/strided_slice_1/stack_2"
      attr {
        key: "Index"
        value {
          type: DT_INT32
        }
      }
      attr {
        key: "T"
        value {
          type: DT_INT64
        }
      }
      attr {
        key: "_output_shapes"
        value {
          list {
            shape {
              dim {
                size: -1
              }
              dim {
                size: 1
              }
            }
          }
        }
      }
      attr {
        key: "begin_mask"
        value {
          i: 3
        }
      }
      attr {
        key: "ellipsis_mask"
        value {
          i: 0
        }
      }
      attr {
        key: "end_mask"
        value {
          i: 1
        }
      }
      attr {
        key: "new_axis_mask"
        value {
          i: 0
        }
      }
      attr {
        key: "shrink_axis_mask"
        value {
          i: 0
        }
      }
    }
    node {
      name: "dnn/input_from_feature_columns/input_from_feature_columns/origin_one_hot/DenseToSparseTensor/unstack"
      op: "Unpack"
      input: "dnn/input_from_feature_columns/input_from_feature_columns/origin_one_hot/DenseToSparseTensor/Cast"
      attr {
        key: "T"
        value {
          type: DT_INT64
        }
      }
      attr {
        key: "_output_shapes"
        value {
          list {
            shape {
            }
            shape {
            }
          }
        }
      }
      attr {
        key: "axis"
        value {
          i: 0
        }
      }
      attr {
        key: "num"
        value {
          i: 2
        }
      }
    }
    node {
      name: "dnn/input_from_feature_columns/input_from_feature_columns/origin_one_hot/DenseToSparseTensor/stack"
      op: "Pack"
      input: "dnn/input_from_feature_columns/input_from_feature_columns/origin_one_hot/DenseToSparseTensor/unstack:1"
      attr {
        key: "N"
        value {
          i: 1
        }
      }
      attr {
        key: "T"
        value {
          type: DT_INT64
        }
      }
      attr {
        key: "_output_shapes"
        value {
          list {
            shape {
              dim {
                size: 1
              }
            }
          }
        }
      }
      attr {
        key: "axis"
        value {
          i: 0
        }
      }
    }
    node {
      name: "dnn/input_from_feature_columns/input_from_feature_columns/origin_one_hot/DenseToSparseTensor/Mul"
      op: "Mul"
      input: "dnn/input_from_feature_columns/input_from_feature_columns/origin_one_hot/DenseToSparseTensor/strided_slice_1"
      input: "dnn/input_from_feature_columns/input_from_feature_columns/origin_one_hot/DenseToSparseTensor/stack"
      attr {
        key: "T"
        value {
          type: DT_INT64
        }
      }
      attr {
        key: "_output_shapes"
        value {
          list {
            shape {
              dim {
                size: -1
              }
              dim {
                size: 1
              }
            }
          }
        }
      }
    }
    node {
      name: "dnn/input_from_feature_columns/input_from_feature_columns/origin_one_hot/DenseToSparseTensor/Sum/reduction_indices"
      op: "Const"
      attr {
        key: "_output_shapes"
        value {
          list {
            shape {
              dim {
                size: 1
              }
            }
          }
        }
      }
      attr {
        key: "dtype"
        value {
          type: DT_INT32
        }
      }
      attr {
        key: "value"
        value {
          tensor {
            dtype: DT_INT32
            tensor_shape {
              dim {
                size: 1
              }
            }
            int_val: 1
          }
        }
      }
    }
    node {
      name: "dnn/input_from_feature_columns/input_from_feature_columns/origin_one_hot/DenseToSparseTensor/Sum"
      op: "Sum"
      input: "dnn/input_from_feature_columns/input_from_feature_columns/origin_one_hot/DenseToSparseTensor/Mul"
      input: "dnn/input_from_feature_columns/input_from_feature_columns/origin_one_hot/DenseToSparseTensor/Sum/reduction_indices"
      attr {
        key: "T"
        value {
          type: DT_INT64
        }
      }
      attr {
        key: "Tidx"
        value {
          type: DT_INT32
        }
      }
      attr {
        key: "_output_shapes"
        value {
          list {
            shape {
              dim {
                size: -1
              }
            }
          }
        }
      }
      attr {
        key: "keep_dims"
        value {
          b: false
        }
      }
    }
    node {
      name: "dnn/input_from_feature_columns/input_from_feature_columns/origin_one_hot/DenseToSparseTensor/Add"
      op: "Add"
      input: "dnn/input_from_feature_columns/input_from_feature_columns/origin_one_hot/DenseToSparseTensor/strided_slice"
      input: "dnn/input_from_feature_columns/input_from_feature_columns/origin_one_hot/DenseToSparseTensor/Sum"
      attr {
        key: "T"
        value {
          type: DT_INT64
        }
      }
      attr {
        key: "_output_shapes"
        value {
          list {
            shape {
              dim {
                size: -1
              }
            }
          }
        }
      }
    }
    node {
      name: "dnn/input_from_feature_columns/input_from_feature_columns/origin_one_hot/DenseToSparseTensor/Gather"
      op: "Gather"
      input: "dnn/input_from_feature_columns/input_from_feature_columns/origin_one_hot/DenseToSparseTensor/Reshape"
      input: "dnn/input_from_feature_columns/input_from_feature_columns/origin_one_hot/DenseToSparseTensor/Add"
      attr {
        key: "Tindices"
        value {
          type: DT_INT64
        }
      }
      attr {
        key: "Tparams"
        value {
          type: DT_STRING
        }
      }
      attr {
        key: "_output_shapes"
        value {
          list {
            shape {
              dim {
                size: -1
              }
            }
          }
        }
      }
      attr {
        key: "validate_indices"
        value {
          b: true
        }
      }
    }
    node {
      name: "dnn/input_from_feature_columns/input_from_feature_columns/origin_one_hot/lookup/Const"
      op: "Const"
      attr {
        key: "_output_shapes"
        value {
          list {
            shape {
              dim {
                size: 3
              }
            }
          }
        }
      }
      attr {
        key: "dtype"
        value {
          type: DT_STRING
        }
      }
      attr {
        key: "value"
        value {
          tensor {
            dtype: DT_STRING
            tensor_shape {
              dim {
                size: 3
              }
            }
            string_val: "1"
            string_val: "2"
            string_val: "3"
          }
        }
      }
    }
    node {
      name: "dnn/input_from_feature_columns/input_from_feature_columns/origin_one_hot/lookup/Size"
      op: "Const"
      attr {
        key: "_output_shapes"
        value {
          list {
            shape {
            }
          }
        }
      }
      attr {
        key: "dtype"
        value {
          type: DT_INT32
        }
      }
      attr {
        key: "value"
        value {
          tensor {
            dtype: DT_INT32
            tensor_shape {
            }
            int_val: 3
          }
        }
      }
    }
    node {
      name: "dnn/input_from_feature_columns/input_from_feature_columns/origin_one_hot/lookup/range/start"
      op: "Const"
      attr {
        key: "_output_shapes"
        value {
          list {
            shape {
            }
          }
        }
      }
      attr {
        key: "dtype"
        value {
          type: DT_INT32
        }
      }
      attr {
        key: "value"
        value {
          tensor {
            dtype: DT_INT32
            tensor_shape {
            }
            int_val: 0
          }
        }
      }
    }
    node {
      name: "dnn/input_from_feature_columns/input_from_feature_columns/origin_one_hot/lookup/range/delta"
      op: "Const"
      attr {
        key: "_output_shapes"
        value {
          list {
            shape {
            }
          }
        }
      }
      attr {
        key: "dtype"
        value {
          type: DT_INT32
        }
      }
      attr {
        key: "value"
        value {
          tensor {
            dtype: DT_INT32
            tensor_shape {
            }
            int_val: 1
          }
        }
      }
    }
    node {
      name: "dnn/input_from_feature_columns/input_from_feature_columns/origin_one_hot/lookup/range"
      op: "Range"
      input: "dnn/input_from_feature_columns/input_from_feature_columns/origin_one_hot/lookup/range/start"
      input: "dnn/input_from_feature_columns/input_from_feature_columns/origin_one_hot/lookup/Size"
      input: "dnn/input_from_feature_columns/input_from_feature_columns/origin_one_hot/lookup/range/delta"
      attr {
        key: "Tidx"
        value {
          type: DT_INT32
        }
      }
      attr {
        key: "_output_shapes"
        value {
          list {
            shape {
              dim {
                size: 3
              }
            }
          }
        }
      }
    }
    node {
      name: "dnn/input_from_feature_columns/input_from_feature_columns/origin_one_hot/lookup/ToInt64"
      op: "Cast"
      input: "dnn/input_from_feature_columns/input_from_feature_columns/origin_one_hot/lookup/range"
      attr {
        key: "DstT"
        value {
          type: DT_INT64
        }
      }
      attr {
        key: "SrcT"
        value {
          type: DT_INT32
        }
      }
      attr {
        key: "_output_shapes"
        value {
          list {
            shape {
              dim {
                size: 3
              }
            }
          }
        }
      }
    }
    node {
      name: "dnn/input_from_feature_columns/input_from_feature_columns/origin_one_hot/lookup/hash_table"
      op: "HashTable"
      attr {
        key: "_output_shapes"
        value {
          list {
            shape {
              dim {
                size: 2
              }
            }
          }
        }
      }
      attr {
        key: "container"
        value {
          s: ""
        }
      }
      attr {
        key: "key_dtype"
        value {
          type: DT_STRING
        }
      }
      attr {
        key: "shared_name"
        value {
          s: ""
        }
      }
      attr {
        key: "use_node_name_sharing"
        value {
          b: false
        }
      }
      attr {
        key: "value_dtype"
        value {
          type: DT_INT64
        }
      }
    }
    node {
      name: "dnn/input_from_feature_columns/input_from_feature_columns/origin_one_hot/lookup/hash_table/Const"
      op: "Const"
      attr {
        key: "_output_shapes"
        value {
          list {
            shape {
            }
          }
        }
      }
      attr {
        key: "dtype"
        value {
          type: DT_INT64
        }
      }
      attr {
        key: "value"
        value {
          tensor {
            dtype: DT_INT64
            tensor_shape {
            }
            int64_val: -1
          }
        }
      }
    }
    node {
      name: "dnn/input_from_feature_columns/input_from_feature_columns/origin_one_hot/lookup/hash_table/table_init"
      op: "InitializeTable"
      input: "dnn/input_from_feature_columns/input_from_feature_columns/origin_one_hot/lookup/hash_table"
      input: "dnn/input_from_feature_columns/input_from_feature_columns/origin_one_hot/lookup/Const"
      input: "dnn/input_from_feature_columns/input_from_feature_columns/origin_one_hot/lookup/ToInt64"
      attr {
        key: "Tkey"
        value {
          type: DT_STRING
        }
      }
      attr {
        key: "Tval"
        value {
          type: DT_INT64
        }
      }
      attr {
        key: "_class"
        value {
          list {
            s: "loc:@dnn/input_from_feature_columns/input_from_feature_columns/origin_one_hot/lookup/hash_table"
          }
        }
      }
    }
    node {
      name: "dnn/input_from_feature_columns/input_from_feature_columns/origin_one_hot/hash_table_Lookup"
      op: "LookupTableFind"
      input: "dnn/input_from_feature_columns/input_from_feature_columns/origin_one_hot/lookup/hash_table"
      input: "dnn/input_from_feature_columns/input_from_feature_columns/origin_one_hot/DenseToSparseTensor/Gather"
      input: "dnn/input_from_feature_columns/input_from_feature_columns/origin_one_hot/lookup/hash_table/Const"
      attr {
        key: "Tin"
        value {
          type: DT_STRING
        }
      }
      attr {
        key: "Tout"
        value {
          type: DT_INT64
        }
      }
      attr {
        key: "_class"
        value {
          list {
            s: "loc:@dnn/input_from_feature_columns/input_from_feature_columns/origin_one_hot/lookup/hash_table"
          }
        }
      }
      attr {
        key: "_output_shapes"
        value {
          list {
            shape {
              dim {
                size: -1
              }
            }
          }
        }
      }
    }
    node {
      name: "dnn/input_from_feature_columns/input_from_feature_columns/origin_one_hot/InnerFlatten/strided_slice/stack"
      op: "Const"
      attr {
        key: "_output_shapes"
        value {
          list {
            shape {
              dim {
                size: 1
              }
            }
          }
        }
      }
      attr {
        key: "dtype"
        value {
          type: DT_INT32
        }
      }
      attr {
        key: "value"
        value {
          tensor {
            dtype: DT_INT32
            tensor_shape {
              dim {
                size: 1
              }
            }
            int_val: 0
          }
        }
      }
    }
    node {
      name: "dnn/input_from_feature_columns/input_from_feature_columns/origin_one_hot/InnerFlatten/strided_slice/stack_1"
      op: "Const"
      attr {
        key: "_output_shapes"
        value {
          list {
            shape {
              dim {
                size: 1
              }
            }
          }
        }
      }
      attr {
        key: "dtype"
        value {
          type: DT_INT32
        }
      }
      attr {
        key: "value"
        value {
          tensor {
            dtype: DT_INT32
            tensor_shape {
              dim {
                size: 1
              }
            }
            int_val: 1
          }
        }
      }
    }
    node {
      name: "dnn/input_from_feature_columns/input_from_feature_columns/origin_one_hot/InnerFlatten/strided_slice/stack_2"
      op: "Const"
      attr {
        key: "_output_shapes"
        value {
          list {
            shape {
              dim {
                size: 1
              }
            }
          }
        }
      }
      attr {
        key: "dtype"
        value {
          type: DT_INT32
        }
      }
      attr {
        key: "value"
        value {
          tensor {
            dtype: DT_INT32
            tensor_shape {
              dim {
                size: 1
              }
            }
            int_val: 1
          }
        }
      }
    }
    node {
      name: "dnn/input_from_feature_columns/input_from_feature_columns/origin_one_hot/InnerFlatten/strided_slice"
      op: "StridedSlice"
      input: "dnn/input_from_feature_columns/input_from_feature_columns/origin_one_hot/DenseToSparseTensor/Cast"
      input: "dnn/input_from_feature_columns/input_from_feature_columns/origin_one_hot/InnerFlatten/strided_slice/stack"
      input: "dnn/input_from_feature_columns/input_from_feature_columns/origin_one_hot/InnerFlatten/strided_slice/stack_1"
      input: "dnn/input_from_feature_columns/input_from_feature_columns/origin_one_hot/InnerFlatten/strided_slice/stack_2"
      attr {
        key: "Index"
        value {
          type: DT_INT32
        }
      }
      attr {
        key: "T"
        value {
          type: DT_INT64
        }
      }
      attr {
        key: "_output_shapes"
        value {
          list {
            shape {
              dim {
                size: 1
              }
            }
          }
        }
      }
      attr {
        key: "begin_mask"
        value {
          i: 1
        }
      }
      attr {
        key: "ellipsis_mask"
        value {
          i: 0
        }
      }
      attr {
        key: "end_mask"
        value {
          i: 0
        }
      }
      attr {
        key: "new_axis_mask"
        value {
          i: 0
        }
      }
      attr {
        key: "shrink_axis_mask"
        value {
          i: 0
        }
      }
    }
    node {
      name: "dnn/input_from_feature_columns/input_from_feature_columns/origin_one_hot/InnerFlatten/strided_slice_1/stack"
      op: "Const"
      attr {
        key: "_output_shapes"
        value {
          list {
            shape {
              dim {
                size: 1
              }
            }
          }
        }
      }
      attr {
        key: "dtype"
        value {
          type: DT_INT32
        }
      }
      attr {
        key: "value"
        value {
          tensor {
            dtype: DT_INT32
            tensor_shape {
              dim {
                size: 1
              }
            }
            int_val: 1
          }
        }
      }
    }
    node {
      name: "dnn/input_from_feature_columns/input_from_feature_columns/origin_one_hot/InnerFlatten/strided_slice_1/stack_1"
      op: "Const"
      attr {
        key: "_output_shapes"
        value {
          list {
            shape {
              dim {
                size: 1
              }
            }
          }
        }
      }
      attr {
        key: "dtype"
        value {
          type: DT_INT32
        }
      }
      attr {
        key: "value"
        value {
          tensor {
            dtype: DT_INT32
            tensor_shape {
              dim {
                size: 1
              }
            }
            int_val: 0
          }
        }
      }
    }
    node {
      name: "dnn/input_from_feature_columns/input_from_feature_columns/origin_one_hot/InnerFlatten/strided_slice_1/stack_2"
      op: "Const"
      attr {
        key: "_output_shapes"
        value {
          list {
            shape {
              dim {
                size: 1
              }
            }
          }
        }
      }
      attr {
        key: "dtype"
        value {
          type: DT_INT32
        }
      }
      attr {
        key: "value"
        value {
          tensor {
            dtype: DT_INT32
            tensor_shape {
              dim {
                size: 1
              }
            }
            int_val: 1
          }
        }
      }
    }
    node {
      name: "dnn/input_from_feature_columns/input_from_feature_columns/origin_one_hot/InnerFlatten/strided_slice_1"
      op: "StridedSlice"
      input: "dnn/input_from_feature_columns/input_from_feature_columns/origin_one_hot/DenseToSparseTensor/Cast"
      input: "dnn/input_from_feature_columns/input_from_feature_columns/origin_one_hot/InnerFlatten/strided_slice_1/stack"
      input: "dnn/input_from_feature_columns/input_from_feature_columns/origin_one_hot/InnerFlatten/strided_slice_1/stack_1"
      input: "dnn/input_from_feature_columns/input_from_feature_columns/origin_one_hot/InnerFlatten/strided_slice_1/stack_2"
      attr {
        key: "Index"
        value {
          type: DT_INT32
        }
      }
      attr {
        key: "T"
        value {
          type: DT_INT64
        }
      }
      attr {
        key: "_output_shapes"
        value {
          list {
            shape {
              dim {
                size: 1
              }
            }
          }
        }
      }
      attr {
        key: "begin_mask"
        value {
          i: 0
        }
      }
      attr {
        key: "ellipsis_mask"
        value {
          i: 0
        }
      }
      attr {
        key: "end_mask"
        value {
          i: 1
        }
      }
      attr {
        key: "new_axis_mask"
        value {
          i: 0
        }
      }
      attr {
        key: "shrink_axis_mask"
        value {
          i: 0
        }
      }
    }
    node {
      name: "dnn/input_from_feature_columns/input_from_feature_columns/origin_one_hot/InnerFlatten/Const"
      op: "Const"
      attr {
        key: "_output_shapes"
        value {
          list {
            shape {
              dim {
                size: 1
              }
            }
          }
        }
      }
      attr {
        key: "dtype"
        value {
          type: DT_INT32
        }
      }
      attr {
        key: "value"
        value {
          tensor {
            dtype: DT_INT32
            tensor_shape {
              dim {
                size: 1
              }
            }
            int_val: 0
          }
        }
      }
    }
    node {
      name: "dnn/input_from_feature_columns/input_from_feature_columns/origin_one_hot/InnerFlatten/Prod"
      op: "Prod"
      input: "dnn/input_from_feature_columns/input_from_feature_columns/origin_one_hot/InnerFlatten/strided_slice_1"
      input: "dnn/input_from_feature_columns/input_from_feature_columns/origin_one_hot/InnerFlatten/Const"
      attr {
        key: "T"
        value {
          type: DT_INT64
        }
      }
      attr {
        key: "Tidx"
        value {
          type: DT_INT32
        }
      }
      attr {
        key: "_output_shapes"
        value {
          list {
            shape {
            }
          }
        }
      }
      attr {
        key: "keep_dims"
        value {
          b: false
        }
      }
    }
    node {
      name: "dnn/input_from_feature_columns/input_from_feature_columns/origin_one_hot/InnerFlatten/concat/values_1"
      op: "Pack"
      input: "dnn/input_from_feature_columns/input_from_feature_columns/origin_one_hot/InnerFlatten/Prod"
      attr {
        key: "N"
        value {
          i: 1
        }
      }
      attr {
        key: "T"
        value {
          type: DT_INT64
        }
      }
      attr {
        key: "_output_shapes"
        value {
          list {
            shape {
              dim {
                size: 1
              }
            }
          }
        }
      }
      attr {
        key: "axis"
        value {
          i: 0
        }
      }
    }
    node {
      name: "dnn/input_from_feature_columns/input_from_feature_columns/origin_one_hot/InnerFlatten/concat/axis"
      op: "Const"
      attr {
        key: "_output_shapes"
        value {
          list {
            shape {
            }
          }
        }
      }
      attr {
        key: "dtype"
        value {
          type: DT_INT32
        }
      }
      attr {
        key: "value"
        value {
          tensor {
            dtype: DT_INT32
            tensor_shape {
            }
            int_val: 0
          }
        }
      }
    }
    node {
      name: "dnn/input_from_feature_columns/input_from_feature_columns/origin_one_hot/InnerFlatten/concat"
      op: "ConcatV2"
      input: "dnn/input_from_feature_columns/input_from_feature_columns/origin_one_hot/InnerFlatten/strided_slice"
      input: "dnn/input_from_feature_columns/input_from_feature_columns/origin_one_hot/InnerFlatten/concat/values_1"
      input: "dnn/input_from_feature_columns/input_from_feature_columns/origin_one_hot/InnerFlatten/concat/axis"
      attr {
        key: "N"
        value {
          i: 2
        }
      }
      attr {
        key: "T"
        value {
          type: DT_INT64
        }
      }
      attr {
        key: "Tidx"
        value {
          type: DT_INT32
        }
      }
      attr {
        key: "_output_shapes"
        value {
          list {
            shape {
              dim {
                size: 2
              }
            }
          }
        }
      }
    }
    node {
      name: "dnn/input_from_feature_columns/input_from_feature_columns/origin_one_hot/InnerFlatten/SparseReshape"
      op: "SparseReshape"
      input: "dnn/input_from_feature_columns/input_from_feature_columns/origin_one_hot/DenseToSparseTensor/Where"
      input: "dnn/input_from_feature_columns/input_from_feature_columns/origin_one_hot/DenseToSparseTensor/Cast"
      input: "dnn/input_from_feature_columns/input_from_feature_columns/origin_one_hot/InnerFlatten/concat"
      attr {
        key: "_output_shapes"
        value {
          list {
            shape {
              dim {
                size: -1
              }
              dim {
                size: 2
              }
            }
            shape {
              dim {
                size: 2
              }
            }
          }
        }
      }
    }
    node {
      name: "dnn/input_from_feature_columns/input_from_feature_columns/origin_one_hot/InnerFlatten/SparseReshape/Identity"
      op: "Identity"
      input: "dnn/input_from_feature_columns/input_from_feature_columns/origin_one_hot/hash_table_Lookup"
      attr {
        key: "T"
        value {
          type: DT_INT64
        }
      }
      attr {
        key: "_output_shapes"
        value {
          list {
            shape {
              dim {
                size: -1
              }
            }
          }
        }
      }
    }
    node {
      name: "dnn/input_from_feature_columns/input_from_feature_columns/origin_one_hot/SparseToDense/default_value"
      op: "Const"
      attr {
        key: "_output_shapes"
        value {
          list {
            shape {
            }
          }
        }
      }
      attr {
        key: "dtype"
        value {
          type: DT_INT64
        }
      }
      attr {
        key: "value"
        value {
          tensor {
            dtype: DT_INT64
            tensor_shape {
            }
            int64_val: -1
          }
        }
      }
    }
    node {
      name: "dnn/input_from_feature_columns/input_from_feature_columns/origin_one_hot/SparseToDense"
      op: "SparseToDense"
      input: "dnn/input_from_feature_columns/input_from_feature_columns/origin_one_hot/InnerFlatten/SparseReshape"
      input: "dnn/input_from_feature_columns/input_from_feature_columns/origin_one_hot/InnerFlatten/SparseReshape:1"
      input: "dnn/input_from_feature_columns/input_from_feature_columns/origin_one_hot/InnerFlatten/SparseReshape/Identity"
      input: "dnn/input_from_feature_columns/input_from_feature_columns/origin_one_hot/SparseToDense/default_value"
      attr {
        key: "T"
        value {
          type: DT_INT64
        }
      }
      attr {
        key: "Tindices"
        value {
          type: DT_INT64
        }
      }
      attr {
        key: "_output_shapes"
        value {
          list {
            shape {
              dim {
                size: -1
              }
              dim {
                size: -1
              }
            }
          }
        }
      }
      attr {
        key: "validate_indices"
        value {
          b: true
        }
      }
    }
    node {
      name: "dnn/input_from_feature_columns/input_from_feature_columns/origin_one_hot/one_hot/Const"
      op: "Const"
      attr {
        key: "_output_shapes"
        value {
          list {
            shape {
            }
          }
        }
      }
      attr {
        key: "dtype"
        value {
          type: DT_FLOAT
        }
      }
      attr {
        key: "value"
        value {
          tensor {
            dtype: DT_FLOAT
            tensor_shape {
            }
            float_val: 1.0
          }
        }
      }
    }
    node {
      name: "dnn/input_from_feature_columns/input_from_feature_columns/origin_one_hot/one_hot/Const_1"
      op: "Const"
      attr {
        key: "_output_shapes"
        value {
          list {
            shape {
            }
          }
        }
      }
      attr {
        key: "dtype"
        value {
          type: DT_FLOAT
        }
      }
      attr {
        key: "value"
        value {
          tensor {
            dtype: DT_FLOAT
            tensor_shape {
            }
            float_val: 0.0
          }
        }
      }
    }
    node {
      name: "dnn/input_from_feature_columns/input_from_feature_columns/origin_one_hot/one_hot/depth"
      op: "Const"
      attr {
        key: "_output_shapes"
        value {
          list {
            shape {
            }
          }
        }
      }
      attr {
        key: "dtype"
        value {
          type: DT_INT32
        }
      }
      attr {
        key: "value"
        value {
          tensor {
            dtype: DT_INT32
            tensor_shape {
            }
            int_val: 3
          }
        }
      }
    }
    node {
      name: "dnn/input_from_feature_columns/input_from_feature_columns/origin_one_hot/one_hot/on_value"
      op: "Const"
      attr {
        key: "_output_shapes"
        value {
          list {
            shape {
            }
          }
        }
      }
      attr {
        key: "dtype"
        value {
          type: DT_FLOAT
        }
      }
      attr {
        key: "value"
        value {
          tensor {
            dtype: DT_FLOAT
            tensor_shape {
            }
            float_val: 1.0
          }
        }
      }
    }
    node {
      name: "dnn/input_from_feature_columns/input_from_feature_columns/origin_one_hot/one_hot/off_value"
      op: "Const"
      attr {
        key: "_output_shapes"
        value {
          list {
            shape {
            }
          }
        }
      }
      attr {
        key: "dtype"
        value {
          type: DT_FLOAT
        }
      }
      attr {
        key: "value"
        value {
          tensor {
            dtype: DT_FLOAT
            tensor_shape {
            }
            float_val: 0.0
          }
        }
      }
    }
    node {
      name: "dnn/input_from_feature_columns/input_from_feature_columns/origin_one_hot/one_hot"
      op: "OneHot"
      input: "dnn/input_from_feature_columns/input_from_feature_columns/origin_one_hot/SparseToDense"
      input: "dnn/input_from_feature_columns/input_from_feature_columns/origin_one_hot/one_hot/depth"
      input: "dnn/input_from_feature_columns/input_from_feature_columns/origin_one_hot/one_hot/on_value"
      input: "dnn/input_from_feature_columns/input_from_feature_columns/origin_one_hot/one_hot/off_value"
      attr {
        key: "T"
        value {
          type: DT_FLOAT
        }
      }
      attr {
        key: "TI"
        value {
          type: DT_INT64
        }
      }
      attr {
        key: "_output_shapes"
        value {
          list {
            shape {
              dim {
                size: -1
              }
              dim {
                size: -1
              }
              dim {
                size: 3
              }
            }
          }
        }
      }
      attr {
        key: "axis"
        value {
          i: -1
        }
      }
    }
    node {
      name: "dnn/input_from_feature_columns/input_from_feature_columns/origin_one_hot/Sum/reduction_indices"
      op: "Const"
      attr {
        key: "_output_shapes"
        value {
          list {
            shape {
              dim {
                size: 1
              }
            }
          }
        }
      }
      attr {
        key: "dtype"
        value {
          type: DT_INT32
        }
      }
      attr {
        key: "value"
        value {
          tensor {
            dtype: DT_INT32
            tensor_shape {
              dim {
                size: 1
              }
            }
            int_val: 1
          }
        }
      }
    }
    node {
      name: "dnn/input_from_feature_columns/input_from_feature_columns/origin_one_hot/Sum"
      op: "Sum"
      input: "dnn/input_from_feature_columns/input_from_feature_columns/origin_one_hot/one_hot"
      input: "dnn/input_from_feature_columns/input_from_feature_columns/origin_one_hot/Sum/reduction_indices"
      attr {
        key: "T"
        value {
          type: DT_FLOAT
        }
      }
      attr {
        key: "Tidx"
        value {
          type: DT_INT32
        }
      }
      attr {
        key: "_output_shapes"
        value {
          list {
            shape {
              dim {
                size: -1
              }
              dim {
                size: 3
              }
            }
          }
        }
      }
      attr {
        key: "keep_dims"
        value {
          b: false
        }
      }
    }
    node {
      name: "dnn/input_from_feature_columns/input_from_feature_columns/acceleration/ToFloat"
      op: "Cast"
      input: "acceleration"
      attr {
        key: "DstT"
        value {
          type: DT_FLOAT
        }
      }
      attr {
        key: "SrcT"
        value {
          type: DT_DOUBLE
        }
      }
      attr {
        key: "_output_shapes"
        value {
          list {
            shape {
              dim {
                size: -1
              }
              dim {
                size: 1
              }
            }
          }
        }
      }
    }
    node {
      name: "dnn/input_from_feature_columns/input_from_feature_columns/cylinders/ToFloat"
      op: "Cast"
      input: "cylinders"
      attr {
        key: "DstT"
        value {
          type: DT_FLOAT
        }
      }
      attr {
        key: "SrcT"
        value {
          type: DT_DOUBLE
        }
      }
      attr {
        key: "_output_shapes"
        value {
          list {
            shape {
              dim {
                size: -1
              }
              dim {
                size: 1
              }
            }
          }
        }
      }
    }
    node {
      name: "dnn/input_from_feature_columns/input_from_feature_columns/displacement/ToFloat"
      op: "Cast"
      input: "displacement"
      attr {
        key: "DstT"
        value {
          type: DT_FLOAT
        }
      }
      attr {
        key: "SrcT"
        value {
          type: DT_DOUBLE
        }
      }
      attr {
        key: "_output_shapes"
        value {
          list {
            shape {
              dim {
                size: -1
              }
              dim {
                size: 1
              }
            }
          }
        }
      }
    }
    node {
      name: "dnn/input_from_feature_columns/input_from_feature_columns/horsepower/ToFloat"
      op: "Cast"
      input: "horsepower"
      attr {
        key: "DstT"
        value {
          type: DT_FLOAT
        }
      }
      attr {
        key: "SrcT"
        value {
          type: DT_DOUBLE
        }
      }
      attr {
        key: "_output_shapes"
        value {
          list {
            shape {
              dim {
                size: -1
              }
              dim {
                size: 1
              }
            }
          }
        }
      }
    }
    node {
      name: "dnn/input_from_feature_columns/input_from_feature_columns/model_year/ToFloat"
      op: "Cast"
      input: "model_year"
      attr {
        key: "DstT"
        value {
          type: DT_FLOAT
        }
      }
      attr {
        key: "SrcT"
        value {
          type: DT_DOUBLE
        }
      }
      attr {
        key: "_output_shapes"
        value {
          list {
            shape {
              dim {
                size: -1
              }
              dim {
                size: 1
              }
            }
          }
        }
      }
    }
    node {
      name: "dnn/input_from_feature_columns/input_from_feature_columns/weight/ToFloat"
      op: "Cast"
      input: "weight"
      attr {
        key: "DstT"
        value {
          type: DT_FLOAT
        }
      }
      attr {
        key: "SrcT"
        value {
          type: DT_DOUBLE
        }
      }
      attr {
        key: "_output_shapes"
        value {
          list {
            shape {
              dim {
                size: -1
              }
              dim {
                size: 1
              }
            }
          }
        }
      }
    }
    node {
      name: "dnn/input_from_feature_columns/input_from_feature_columns/concat/axis"
      op: "Const"
      attr {
        key: "_output_shapes"
        value {
          list {
            shape {
            }
          }
        }
      }
      attr {
        key: "dtype"
        value {
          type: DT_INT32
        }
      }
      attr {
        key: "value"
        value {
          tensor {
            dtype: DT_INT32
            tensor_shape {
            }
            int_val: 1
          }
        }
      }
    }
    node {
      name: "dnn/input_from_feature_columns/input_from_feature_columns/concat"
      op: "ConcatV2"
      input: "dnn/input_from_feature_columns/input_from_feature_columns/origin_one_hot/Sum"
      input: "dnn/input_from_feature_columns/input_from_feature_columns/acceleration/ToFloat"
      input: "dnn/input_from_feature_columns/input_from_feature_columns/cylinders/ToFloat"
      input: "dnn/input_from_feature_columns/input_from_feature_columns/displacement/ToFloat"
      input: "dnn/input_from_feature_columns/input_from_feature_columns/horsepower/ToFloat"
      input: "dnn/input_from_feature_columns/input_from_feature_columns/model_year/ToFloat"
      input: "dnn/input_from_feature_columns/input_from_feature_columns/weight/ToFloat"
      input: "dnn/input_from_feature_columns/input_from_feature_columns/concat/axis"
      attr {
        key: "N"
        value {
          i: 7
        }
      }
      attr {
        key: "T"
        value {
          type: DT_FLOAT
        }
      }
      attr {
        key: "Tidx"
        value {
          type: DT_INT32
        }
      }
      attr {
        key: "_output_shapes"
        value {
          list {
            shape {
              dim {
                size: -1
              }
              dim {
                size: 9
              }
            }
          }
        }
      }
    }
    node {
      name: "dnn/hiddenlayer_0/weights/part_0/Initializer/random_uniform/shape"
      op: "Const"
      attr {
        key: "_class"
        value {
          list {
            s: "loc:@dnn/hiddenlayer_0/weights/part_0"
          }
        }
      }
      attr {
        key: "_output_shapes"
        value {
          list {
            shape {
              dim {
                size: 2
              }
            }
          }
        }
      }
      attr {
        key: "dtype"
        value {
          type: DT_INT32
        }
      }
      attr {
        key: "value"
        value {
          tensor {
            dtype: DT_INT32
            tensor_shape {
              dim {
                size: 2
              }
            }
            tensor_content: "\t\000\000\000\007\000\000\000"
          }
        }
      }
    }
    node {
      name: "dnn/hiddenlayer_0/weights/part_0/Initializer/random_uniform/min"
      op: "Const"
      attr {
        key: "_class"
        value {
          list {
            s: "loc:@dnn/hiddenlayer_0/weights/part_0"
          }
        }
      }
      attr {
        key: "_output_shapes"
        value {
          list {
            shape {
            }
          }
        }
      }
      attr {
        key: "dtype"
        value {
          type: DT_FLOAT
        }
      }
      attr {
        key: "value"
        value {
          tensor {
            dtype: DT_FLOAT
            tensor_shape {
            }
            float_val: -0.6123724579811096
          }
        }
      }
    }
    node {
      name: "dnn/hiddenlayer_0/weights/part_0/Initializer/random_uniform/max"
      op: "Const"
      attr {
        key: "_class"
        value {
          list {
            s: "loc:@dnn/hiddenlayer_0/weights/part_0"
          }
        }
      }
      attr {
        key: "_output_shapes"
        value {
          list {
            shape {
            }
          }
        }
      }
      attr {
        key: "dtype"
        value {
          type: DT_FLOAT
        }
      }
      attr {
        key: "value"
        value {
          tensor {
            dtype: DT_FLOAT
            tensor_shape {
            }
            float_val: 0.6123724579811096
          }
        }
      }
    }
    node {
      name: "dnn/hiddenlayer_0/weights/part_0/Initializer/random_uniform/RandomUniform"
      op: "RandomUniform"
      input: "dnn/hiddenlayer_0/weights/part_0/Initializer/random_uniform/shape"
      attr {
        key: "T"
        value {
          type: DT_INT32
        }
      }
      attr {
        key: "_class"
        value {
          list {
            s: "loc:@dnn/hiddenlayer_0/weights/part_0"
          }
        }
      }
      attr {
        key: "_output_shapes"
        value {
          list {
            shape {
              dim {
                size: 9
              }
              dim {
                size: 7
              }
            }
          }
        }
      }
      attr {
        key: "dtype"
        value {
          type: DT_FLOAT
        }
      }
      attr {
        key: "seed"
        value {
          i: 0
        }
      }
      attr {
        key: "seed2"
        value {
          i: 0
        }
      }
    }
    node {
      name: "dnn/hiddenlayer_0/weights/part_0/Initializer/random_uniform/sub"
      op: "Sub"
      input: "dnn/hiddenlayer_0/weights/part_0/Initializer/random_uniform/max"
      input: "dnn/hiddenlayer_0/weights/part_0/Initializer/random_uniform/min"
      attr {
        key: "T"
        value {
          type: DT_FLOAT
        }
      }
      attr {
        key: "_class"
        value {
          list {
            s: "loc:@dnn/hiddenlayer_0/weights/part_0"
          }
        }
      }
      attr {
        key: "_output_shapes"
        value {
          list {
            shape {
            }
          }
        }
      }
    }
    node {
      name: "dnn/hiddenlayer_0/weights/part_0/Initializer/random_uniform/mul"
      op: "Mul"
      input: "dnn/hiddenlayer_0/weights/part_0/Initializer/random_uniform/RandomUniform"
      input: "dnn/hiddenlayer_0/weights/part_0/Initializer/random_uniform/sub"
      attr {
        key: "T"
        value {
          type: DT_FLOAT
        }
      }
      attr {
        key: "_class"
        value {
          list {
            s: "loc:@dnn/hiddenlayer_0/weights/part_0"
          }
        }
      }
      attr {
        key: "_output_shapes"
        value {
          list {
            shape {
              dim {
                size: 9
              }
              dim {
                size: 7
              }
            }
          }
        }
      }
    }
    node {
      name: "dnn/hiddenlayer_0/weights/part_0/Initializer/random_uniform"
      op: "Add"
      input: "dnn/hiddenlayer_0/weights/part_0/Initializer/random_uniform/mul"
      input: "dnn/hiddenlayer_0/weights/part_0/Initializer/random_uniform/min"
      attr {
        key: "T"
        value {
          type: DT_FLOAT
        }
      }
      attr {
        key: "_class"
        value {
          list {
            s: "loc:@dnn/hiddenlayer_0/weights/part_0"
          }
        }
      }
      attr {
        key: "_output_shapes"
        value {
          list {
            shape {
              dim {
                size: 9
              }
              dim {
                size: 7
              }
            }
          }
        }
      }
    }
    node {
      name: "dnn/hiddenlayer_0/weights/part_0"
      op: "VariableV2"
      attr {
        key: "_class"
        value {
          list {
            s: "loc:@dnn/hiddenlayer_0/weights/part_0"
          }
        }
      }
      attr {
        key: "_output_shapes"
        value {
          list {
            shape {
              dim {
                size: 9
              }
              dim {
                size: 7
              }
            }
          }
        }
      }
      attr {
        key: "container"
        value {
          s: ""
        }
      }
      attr {
        key: "dtype"
        value {
          type: DT_FLOAT
        }
      }
      attr {
        key: "shape"
        value {
          shape {
            dim {
              size: 9
            }
            dim {
              size: 7
            }
          }
        }
      }
      attr {
        key: "shared_name"
        value {
          s: ""
        }
      }
    }
    node {
      name: "dnn/hiddenlayer_0/weights/part_0/Assign"
      op: "Assign"
      input: "dnn/hiddenlayer_0/weights/part_0"
      input: "dnn/hiddenlayer_0/weights/part_0/Initializer/random_uniform"
      attr {
        key: "T"
        value {
          type: DT_FLOAT
        }
      }
      attr {
        key: "_class"
        value {
          list {
            s: "loc:@dnn/hiddenlayer_0/weights/part_0"
          }
        }
      }
      attr {
        key: "_output_shapes"
        value {
          list {
            shape {
              dim {
                size: 9
              }
              dim {
                size: 7
              }
            }
          }
        }
      }
      attr {
        key: "use_locking"
        value {
          b: true
        }
      }
      attr {
        key: "validate_shape"
        value {
          b: true
        }
      }
    }
    node {
      name: "dnn/hiddenlayer_0/weights/part_0/read"
      op: "Identity"
      input: "dnn/hiddenlayer_0/weights/part_0"
      attr {
        key: "T"
        value {
          type: DT_FLOAT
        }
      }
      attr {
        key: "_class"
        value {
          list {
            s: "loc:@dnn/hiddenlayer_0/weights/part_0"
          }
        }
      }
      attr {
        key: "_output_shapes"
        value {
          list {
            shape {
              dim {
                size: 9
              }
              dim {
                size: 7
              }
            }
          }
        }
      }
    }
    node {
      name: "dnn/hiddenlayer_0/biases/part_0/Initializer/Const"
      op: "Const"
      attr {
        key: "_class"
        value {
          list {
            s: "loc:@dnn/hiddenlayer_0/biases/part_0"
          }
        }
      }
      attr {
        key: "_output_shapes"
        value {
          list {
            shape {
              dim {
                size: 7
              }
            }
          }
        }
      }
      attr {
        key: "dtype"
        value {
          type: DT_FLOAT
        }
      }
      attr {
        key: "value"
        value {
          tensor {
            dtype: DT_FLOAT
            tensor_shape {
              dim {
                size: 7
              }
            }
            float_val: 0.0
          }
        }
      }
    }
    node {
      name: "dnn/hiddenlayer_0/biases/part_0"
      op: "VariableV2"
      attr {
        key: "_class"
        value {
          list {
            s: "loc:@dnn/hiddenlayer_0/biases/part_0"
          }
        }
      }
      attr {
        key: "_output_shapes"
        value {
          list {
            shape {
              dim {
                size: 7
              }
            }
          }
        }
      }
      attr {
        key: "container"
        value {
          s: ""
        }
      }
      attr {
        key: "dtype"
        value {
          type: DT_FLOAT
        }
      }
      attr {
        key: "shape"
        value {
          shape {
            dim {
              size: 7
            }
          }
        }
      }
      attr {
        key: "shared_name"
        value {
          s: ""
        }
      }
    }
    node {
      name: "dnn/hiddenlayer_0/biases/part_0/Assign"
      op: "Assign"
      input: "dnn/hiddenlayer_0/biases/part_0"
      input: "dnn/hiddenlayer_0/biases/part_0/Initializer/Const"
      attr {
        key: "T"
        value {
          type: DT_FLOAT
        }
      }
      attr {
        key: "_class"
        value {
          list {
            s: "loc:@dnn/hiddenlayer_0/biases/part_0"
          }
        }
      }
      attr {
        key: "_output_shapes"
        value {
          list {
            shape {
              dim {
                size: 7
              }
            }
          }
        }
      }
      attr {
        key: "use_locking"
        value {
          b: true
        }
      }
      attr {
        key: "validate_shape"
        value {
          b: true
        }
      }
    }
    node {
      name: "dnn/hiddenlayer_0/biases/part_0/read"
      op: "Identity"
      input: "dnn/hiddenlayer_0/biases/part_0"
      attr {
        key: "T"
        value {
          type: DT_FLOAT
        }
      }
      attr {
        key: "_class"
        value {
          list {
            s: "loc:@dnn/hiddenlayer_0/biases/part_0"
          }
        }
      }
      attr {
        key: "_output_shapes"
        value {
          list {
            shape {
              dim {
                size: 7
              }
            }
          }
        }
      }
    }
    node {
      name: "dnn/hiddenlayer_0/weights"
      op: "Identity"
      input: "dnn/hiddenlayer_0/weights/part_0/read"
      attr {
        key: "T"
        value {
          type: DT_FLOAT
        }
      }
      attr {
        key: "_output_shapes"
        value {
          list {
            shape {
              dim {
                size: 9
              }
              dim {
                size: 7
              }
            }
          }
        }
      }
    }
    node {
      name: "dnn/hiddenlayer_0/MatMul"
      op: "MatMul"
      input: "dnn/input_from_feature_columns/input_from_feature_columns/concat"
      input: "dnn/hiddenlayer_0/weights"
      attr {
        key: "T"
        value {
          type: DT_FLOAT
        }
      }
      attr {
        key: "_output_shapes"
        value {
          list {
            shape {
              dim {
                size: -1
              }
              dim {
                size: 7
              }
            }
          }
        }
      }
      attr {
        key: "transpose_a"
        value {
          b: false
        }
      }
      attr {
        key: "transpose_b"
        value {
          b: false
        }
      }
    }
    node {
      name: "dnn/hiddenlayer_0/biases"
      op: "Identity"
      input: "dnn/hiddenlayer_0/biases/part_0/read"
      attr {
        key: "T"
        value {
          type: DT_FLOAT
        }
      }
      attr {
        key: "_output_shapes"
        value {
          list {
            shape {
              dim {
                size: 7
              }
            }
          }
        }
      }
    }
    node {
      name: "dnn/hiddenlayer_0/BiasAdd"
      op: "BiasAdd"
      input: "dnn/hiddenlayer_0/MatMul"
      input: "dnn/hiddenlayer_0/biases"
      attr {
        key: "T"
        value {
          type: DT_FLOAT
        }
      }
      attr {
        key: "_output_shapes"
        value {
          list {
            shape {
              dim {
                size: -1
              }
              dim {
                size: 7
              }
            }
          }
        }
      }
      attr {
        key: "data_format"
        value {
          s: "NHWC"
        }
      }
    }
    node {
      name: "dnn/hiddenlayer_0/hiddenlayer_0/Relu"
      op: "Relu"
      input: "dnn/hiddenlayer_0/BiasAdd"
      attr {
        key: "T"
        value {
          type: DT_FLOAT
        }
      }
      attr {
        key: "_output_shapes"
        value {
          list {
            shape {
              dim {
                size: -1
              }
              dim {
                size: 7
              }
            }
          }
        }
      }
    }
    node {
      name: "dnn/zero_fraction/zero"
      op: "Const"
      attr {
        key: "_output_shapes"
        value {
          list {
            shape {
            }
          }
        }
      }
      attr {
        key: "dtype"
        value {
          type: DT_FLOAT
        }
      }
      attr {
        key: "value"
        value {
          tensor {
            dtype: DT_FLOAT
            tensor_shape {
            }
            float_val: 0.0
          }
        }
      }
    }
    node {
      name: "dnn/zero_fraction/Equal"
      op: "Equal"
      input: "dnn/hiddenlayer_0/hiddenlayer_0/Relu"
      input: "dnn/zero_fraction/zero"
      attr {
        key: "T"
        value {
          type: DT_FLOAT
        }
      }
      attr {
        key: "_output_shapes"
        value {
          list {
            shape {
              dim {
                size: -1
              }
              dim {
                size: 7
              }
            }
          }
        }
      }
    }
    node {
      name: "dnn/zero_fraction/Cast"
      op: "Cast"
      input: "dnn/zero_fraction/Equal"
      attr {
        key: "DstT"
        value {
          type: DT_FLOAT
        }
      }
      attr {
        key: "SrcT"
        value {
          type: DT_BOOL
        }
      }
      attr {
        key: "_output_shapes"
        value {
          list {
            shape {
              dim {
                size: -1
              }
              dim {
                size: 7
              }
            }
          }
        }
      }
    }
    node {
      name: "dnn/zero_fraction/Const"
      op: "Const"
      attr {
        key: "_output_shapes"
        value {
          list {
            shape {
              dim {
                size: 2
              }
            }
          }
        }
      }
      attr {
        key: "dtype"
        value {
          type: DT_INT32
        }
      }
      attr {
        key: "value"
        value {
          tensor {
            dtype: DT_INT32
            tensor_shape {
              dim {
                size: 2
              }
            }
            tensor_content: "\000\000\000\000\001\000\000\000"
          }
        }
      }
    }
    node {
      name: "dnn/zero_fraction/Mean"
      op: "Mean"
      input: "dnn/zero_fraction/Cast"
      input: "dnn/zero_fraction/Const"
      attr {
        key: "T"
        value {
          type: DT_FLOAT
        }
      }
      attr {
        key: "Tidx"
        value {
          type: DT_INT32
        }
      }
      attr {
        key: "_output_shapes"
        value {
          list {
            shape {
            }
          }
        }
      }
      attr {
        key: "keep_dims"
        value {
          b: false
        }
      }
    }
    node {
      name: "dnn/dnn/hiddenlayer_0_fraction_of_zero_values/tags"
      op: "Const"
      attr {
        key: "_output_shapes"
        value {
          list {
            shape {
            }
          }
        }
      }
      attr {
        key: "dtype"
        value {
          type: DT_STRING
        }
      }
      attr {
        key: "value"
        value {
          tensor {
            dtype: DT_STRING
            tensor_shape {
            }
            string_val: "dnn/dnn/hiddenlayer_0_fraction_of_zero_values"
          }
        }
      }
    }
    node {
      name: "dnn/dnn/hiddenlayer_0_fraction_of_zero_values"
      op: "ScalarSummary"
      input: "dnn/dnn/hiddenlayer_0_fraction_of_zero_values/tags"
      input: "dnn/zero_fraction/Mean"
      attr {
        key: "T"
        value {
          type: DT_FLOAT
        }
      }
      attr {
        key: "_output_shapes"
        value {
          list {
            shape {
            }
          }
        }
      }
    }
    node {
      name: "dnn/dnn/hiddenlayer_0_activation/tag"
      op: "Const"
      attr {
        key: "_output_shapes"
        value {
          list {
            shape {
            }
          }
        }
      }
      attr {
        key: "dtype"
        value {
          type: DT_STRING
        }
      }
      attr {
        key: "value"
        value {
          tensor {
            dtype: DT_STRING
            tensor_shape {
            }
            string_val: "dnn/dnn/hiddenlayer_0_activation"
          }
        }
      }
    }
    node {
      name: "dnn/dnn/hiddenlayer_0_activation"
      op: "HistogramSummary"
      input: "dnn/dnn/hiddenlayer_0_activation/tag"
      input: "dnn/hiddenlayer_0/hiddenlayer_0/Relu"
      attr {
        key: "T"
        value {
          type: DT_FLOAT
        }
      }
      attr {
        key: "_output_shapes"
        value {
          list {
            shape {
            }
          }
        }
      }
    }
    node {
      name: "dnn/hiddenlayer_1/weights/part_0/Initializer/random_uniform/shape"
      op: "Const"
      attr {
        key: "_class"
        value {
          list {
            s: "loc:@dnn/hiddenlayer_1/weights/part_0"
          }
        }
      }
      attr {
        key: "_output_shapes"
        value {
          list {
            shape {
              dim {
                size: 2
              }
            }
          }
        }
      }
      attr {
        key: "dtype"
        value {
          type: DT_INT32
        }
      }
      attr {
        key: "value"
        value {
          tensor {
            dtype: DT_INT32
            tensor_shape {
              dim {
                size: 2
              }
            }
            tensor_content: "\007\000\000\000\005\000\000\000"
          }
        }
      }
    }
    node {
      name: "dnn/hiddenlayer_1/weights/part_0/Initializer/random_uniform/min"
      op: "Const"
      attr {
        key: "_class"
        value {
          list {
            s: "loc:@dnn/hiddenlayer_1/weights/part_0"
          }
        }
      }
      attr {
        key: "_output_shapes"
        value {
          list {
            shape {
            }
          }
        }
      }
      attr {
        key: "dtype"
        value {
          type: DT_FLOAT
        }
      }
      attr {
        key: "value"
        value {
          tensor {
            dtype: DT_FLOAT
            tensor_shape {
            }
            float_val: -0.7071067690849304
          }
        }
      }
    }
    node {
      name: "dnn/hiddenlayer_1/weights/part_0/Initializer/random_uniform/max"
      op: "Const"
      attr {
        key: "_class"
        value {
          list {
            s: "loc:@dnn/hiddenlayer_1/weights/part_0"
          }
        }
      }
      attr {
        key: "_output_shapes"
        value {
          list {
            shape {
            }
          }
        }
      }
      attr {
        key: "dtype"
        value {
          type: DT_FLOAT
        }
      }
      attr {
        key: "value"
        value {
          tensor {
            dtype: DT_FLOAT
            tensor_shape {
            }
            float_val: 0.7071067690849304
          }
        }
      }
    }
    node {
      name: "dnn/hiddenlayer_1/weights/part_0/Initializer/random_uniform/RandomUniform"
      op: "RandomUniform"
      input: "dnn/hiddenlayer_1/weights/part_0/Initializer/random_uniform/shape"
      attr {
        key: "T"
        value {
          type: DT_INT32
        }
      }
      attr {
        key: "_class"
        value {
          list {
            s: "loc:@dnn/hiddenlayer_1/weights/part_0"
          }
        }
      }
      attr {
        key: "_output_shapes"
        value {
          list {
            shape {
              dim {
                size: 7
              }
              dim {
                size: 5
              }
            }
          }
        }
      }
      attr {
        key: "dtype"
        value {
          type: DT_FLOAT
        }
      }
      attr {
        key: "seed"
        value {
          i: 0
        }
      }
      attr {
        key: "seed2"
        value {
          i: 0
        }
      }
    }
    node {
      name: "dnn/hiddenlayer_1/weights/part_0/Initializer/random_uniform/sub"
      op: "Sub"
      input: "dnn/hiddenlayer_1/weights/part_0/Initializer/random_uniform/max"
      input: "dnn/hiddenlayer_1/weights/part_0/Initializer/random_uniform/min"
      attr {
        key: "T"
        value {
          type: DT_FLOAT
        }
      }
      attr {
        key: "_class"
        value {
          list {
            s: "loc:@dnn/hiddenlayer_1/weights/part_0"
          }
        }
      }
      attr {
        key: "_output_shapes"
        value {
          list {
            shape {
            }
          }
        }
      }
    }
    node {
      name: "dnn/hiddenlayer_1/weights/part_0/Initializer/random_uniform/mul"
      op: "Mul"
      input: "dnn/hiddenlayer_1/weights/part_0/Initializer/random_uniform/RandomUniform"
      input: "dnn/hiddenlayer_1/weights/part_0/Initializer/random_uniform/sub"
      attr {
        key: "T"
        value {
          type: DT_FLOAT
        }
      }
      attr {
        key: "_class"
        value {
          list {
            s: "loc:@dnn/hiddenlayer_1/weights/part_0"
          }
        }
      }
      attr {
        key: "_output_shapes"
        value {
          list {
            shape {
              dim {
                size: 7
              }
              dim {
                size: 5
              }
            }
          }
        }
      }
    }
    node {
      name: "dnn/hiddenlayer_1/weights/part_0/Initializer/random_uniform"
      op: "Add"
      input: "dnn/hiddenlayer_1/weights/part_0/Initializer/random_uniform/mul"
      input: "dnn/hiddenlayer_1/weights/part_0/Initializer/random_uniform/min"
      attr {
        key: "T"
        value {
          type: DT_FLOAT
        }
      }
      attr {
        key: "_class"
        value {
          list {
            s: "loc:@dnn/hiddenlayer_1/weights/part_0"
          }
        }
      }
      attr {
        key: "_output_shapes"
        value {
          list {
            shape {
              dim {
                size: 7
              }
              dim {
                size: 5
              }
            }
          }
        }
      }
    }
    node {
      name: "dnn/hiddenlayer_1/weights/part_0"
      op: "VariableV2"
      attr {
        key: "_class"
        value {
          list {
            s: "loc:@dnn/hiddenlayer_1/weights/part_0"
          }
        }
      }
      attr {
        key: "_output_shapes"
        value {
          list {
            shape {
              dim {
                size: 7
              }
              dim {
                size: 5
              }
            }
          }
        }
      }
      attr {
        key: "container"
        value {
          s: ""
        }
      }
      attr {
        key: "dtype"
        value {
          type: DT_FLOAT
        }
      }
      attr {
        key: "shape"
        value {
          shape {
            dim {
              size: 7
            }
            dim {
              size: 5
            }
          }
        }
      }
      attr {
        key: "shared_name"
        value {
          s: ""
        }
      }
    }
    node {
      name: "dnn/hiddenlayer_1/weights/part_0/Assign"
      op: "Assign"
      input: "dnn/hiddenlayer_1/weights/part_0"
      input: "dnn/hiddenlayer_1/weights/part_0/Initializer/random_uniform"
      attr {
        key: "T"
        value {
          type: DT_FLOAT
        }
      }
      attr {
        key: "_class"
        value {
          list {
            s: "loc:@dnn/hiddenlayer_1/weights/part_0"
          }
        }
      }
      attr {
        key: "_output_shapes"
        value {
          list {
            shape {
              dim {
                size: 7
              }
              dim {
                size: 5
              }
            }
          }
        }
      }
      attr {
        key: "use_locking"
        value {
          b: true
        }
      }
      attr {
        key: "validate_shape"
        value {
          b: true
        }
      }
    }
    node {
      name: "dnn/hiddenlayer_1/weights/part_0/read"
      op: "Identity"
      input: "dnn/hiddenlayer_1/weights/part_0"
      attr {
        key: "T"
        value {
          type: DT_FLOAT
        }
      }
      attr {
        key: "_class"
        value {
          list {
            s: "loc:@dnn/hiddenlayer_1/weights/part_0"
          }
        }
      }
      attr {
        key: "_output_shapes"
        value {
          list {
            shape {
              dim {
                size: 7
              }
              dim {
                size: 5
              }
            }
          }
        }
      }
    }
    node {
      name: "dnn/hiddenlayer_1/biases/part_0/Initializer/Const"
      op: "Const"
      attr {
        key: "_class"
        value {
          list {
            s: "loc:@dnn/hiddenlayer_1/biases/part_0"
          }
        }
      }
      attr {
        key: "_output_shapes"
        value {
          list {
            shape {
              dim {
                size: 5
              }
            }
          }
        }
      }
      attr {
        key: "dtype"
        value {
          type: DT_FLOAT
        }
      }
      attr {
        key: "value"
        value {
          tensor {
            dtype: DT_FLOAT
            tensor_shape {
              dim {
                size: 5
              }
            }
            float_val: 0.0
          }
        }
      }
    }
    node {
      name: "dnn/hiddenlayer_1/biases/part_0"
      op: "VariableV2"
      attr {
        key: "_class"
        value {
          list {
            s: "loc:@dnn/hiddenlayer_1/biases/part_0"
          }
        }
      }
      attr {
        key: "_output_shapes"
        value {
          list {
            shape {
              dim {
                size: 5
              }
            }
          }
        }
      }
      attr {
        key: "container"
        value {
          s: ""
        }
      }
      attr {
        key: "dtype"
        value {
          type: DT_FLOAT
        }
      }
      attr {
        key: "shape"
        value {
          shape {
            dim {
              size: 5
            }
          }
        }
      }
      attr {
        key: "shared_name"
        value {
          s: ""
        }
      }
    }
    node {
      name: "dnn/hiddenlayer_1/biases/part_0/Assign"
      op: "Assign"
      input: "dnn/hiddenlayer_1/biases/part_0"
      input: "dnn/hiddenlayer_1/biases/part_0/Initializer/Const"
      attr {
        key: "T"
        value {
          type: DT_FLOAT
        }
      }
      attr {
        key: "_class"
        value {
          list {
            s: "loc:@dnn/hiddenlayer_1/biases/part_0"
          }
        }
      }
      attr {
        key: "_output_shapes"
        value {
          list {
            shape {
              dim {
                size: 5
              }
            }
          }
        }
      }
      attr {
        key: "use_locking"
        value {
          b: true
        }
      }
      attr {
        key: "validate_shape"
        value {
          b: true
        }
      }
    }
    node {
      name: "dnn/hiddenlayer_1/biases/part_0/read"
      op: "Identity"
      input: "dnn/hiddenlayer_1/biases/part_0"
      attr {
        key: "T"
        value {
          type: DT_FLOAT
        }
      }
      attr {
        key: "_class"
        value {
          list {
            s: "loc:@dnn/hiddenlayer_1/biases/part_0"
          }
        }
      }
      attr {
        key: "_output_shapes"
        value {
          list {
            shape {
              dim {
                size: 5
              }
            }
          }
        }
      }
    }
    node {
      name: "dnn/hiddenlayer_1/weights"
      op: "Identity"
      input: "dnn/hiddenlayer_1/weights/part_0/read"
      attr {
        key: "T"
        value {
          type: DT_FLOAT
        }
      }
      attr {
        key: "_output_shapes"
        value {
          list {
            shape {
              dim {
                size: 7
              }
              dim {
                size: 5
              }
            }
          }
        }
      }
    }
    node {
      name: "dnn/hiddenlayer_1/MatMul"
      op: "MatMul"
      input: "dnn/hiddenlayer_0/hiddenlayer_0/Relu"
      input: "dnn/hiddenlayer_1/weights"
      attr {
        key: "T"
        value {
          type: DT_FLOAT
        }
      }
      attr {
        key: "_output_shapes"
        value {
          list {
            shape {
              dim {
                size: -1
              }
              dim {
                size: 5
              }
            }
          }
        }
      }
      attr {
        key: "transpose_a"
        value {
          b: false
        }
      }
      attr {
        key: "transpose_b"
        value {
          b: false
        }
      }
    }
    node {
      name: "dnn/hiddenlayer_1/biases"
      op: "Identity"
      input: "dnn/hiddenlayer_1/biases/part_0/read"
      attr {
        key: "T"
        value {
          type: DT_FLOAT
        }
      }
      attr {
        key: "_output_shapes"
        value {
          list {
            shape {
              dim {
                size: 5
              }
            }
          }
        }
      }
    }
    node {
      name: "dnn/hiddenlayer_1/BiasAdd"
      op: "BiasAdd"
      input: "dnn/hiddenlayer_1/MatMul"
      input: "dnn/hiddenlayer_1/biases"
      attr {
        key: "T"
        value {
          type: DT_FLOAT
        }
      }
      attr {
        key: "_output_shapes"
        value {
          list {
            shape {
              dim {
                size: -1
              }
              dim {
                size: 5
              }
            }
          }
        }
      }
      attr {
        key: "data_format"
        value {
          s: "NHWC"
        }
      }
    }
    node {
      name: "dnn/hiddenlayer_1/hiddenlayer_1/Relu"
      op: "Relu"
      input: "dnn/hiddenlayer_1/BiasAdd"
      attr {
        key: "T"
        value {
          type: DT_FLOAT
        }
      }
      attr {
        key: "_output_shapes"
        value {
          list {
            shape {
              dim {
                size: -1
              }
              dim {
                size: 5
              }
            }
          }
        }
      }
    }
    node {
      name: "dnn/zero_fraction_1/zero"
      op: "Const"
      attr {
        key: "_output_shapes"
        value {
          list {
            shape {
            }
          }
        }
      }
      attr {
        key: "dtype"
        value {
          type: DT_FLOAT
        }
      }
      attr {
        key: "value"
        value {
          tensor {
            dtype: DT_FLOAT
            tensor_shape {
            }
            float_val: 0.0
          }
        }
      }
    }
    node {
      name: "dnn/zero_fraction_1/Equal"
      op: "Equal"
      input: "dnn/hiddenlayer_1/hiddenlayer_1/Relu"
      input: "dnn/zero_fraction_1/zero"
      attr {
        key: "T"
        value {
          type: DT_FLOAT
        }
      }
      attr {
        key: "_output_shapes"
        value {
          list {
            shape {
              dim {
                size: -1
              }
              dim {
                size: 5
              }
            }
          }
        }
      }
    }
    node {
      name: "dnn/zero_fraction_1/Cast"
      op: "Cast"
      input: "dnn/zero_fraction_1/Equal"
      attr {
        key: "DstT"
        value {
          type: DT_FLOAT
        }
      }
      attr {
        key: "SrcT"
        value {
          type: DT_BOOL
        }
      }
      attr {
        key: "_output_shapes"
        value {
          list {
            shape {
              dim {
                size: -1
              }
              dim {
                size: 5
              }
            }
          }
        }
      }
    }
    node {
      name: "dnn/zero_fraction_1/Const"
      op: "Const"
      attr {
        key: "_output_shapes"
        value {
          list {
            shape {
              dim {
                size: 2
              }
            }
          }
        }
      }
      attr {
        key: "dtype"
        value {
          type: DT_INT32
        }
      }
      attr {
        key: "value"
        value {
          tensor {
            dtype: DT_INT32
            tensor_shape {
              dim {
                size: 2
              }
            }
            tensor_content: "\000\000\000\000\001\000\000\000"
          }
        }
      }
    }
    node {
      name: "dnn/zero_fraction_1/Mean"
      op: "Mean"
      input: "dnn/zero_fraction_1/Cast"
      input: "dnn/zero_fraction_1/Const"
      attr {
        key: "T"
        value {
          type: DT_FLOAT
        }
      }
      attr {
        key: "Tidx"
        value {
          type: DT_INT32
        }
      }
      attr {
        key: "_output_shapes"
        value {
          list {
            shape {
            }
          }
        }
      }
      attr {
        key: "keep_dims"
        value {
          b: false
        }
      }
    }
    node {
      name: "dnn/dnn/hiddenlayer_1_fraction_of_zero_values/tags"
      op: "Const"
      attr {
        key: "_output_shapes"
        value {
          list {
            shape {
            }
          }
        }
      }
      attr {
        key: "dtype"
        value {
          type: DT_STRING
        }
      }
      attr {
        key: "value"
        value {
          tensor {
            dtype: DT_STRING
            tensor_shape {
            }
            string_val: "dnn/dnn/hiddenlayer_1_fraction_of_zero_values"
          }
        }
      }
    }
    node {
      name: "dnn/dnn/hiddenlayer_1_fraction_of_zero_values"
      op: "ScalarSummary"
      input: "dnn/dnn/hiddenlayer_1_fraction_of_zero_values/tags"
      input: "dnn/zero_fraction_1/Mean"
      attr {
        key: "T"
        value {
          type: DT_FLOAT
        }
      }
      attr {
        key: "_output_shapes"
        value {
          list {
            shape {
            }
          }
        }
      }
    }
    node {
      name: "dnn/dnn/hiddenlayer_1_activation/tag"
      op: "Const"
      attr {
        key: "_output_shapes"
        value {
          list {
            shape {
            }
          }
        }
      }
      attr {
        key: "dtype"
        value {
          type: DT_STRING
        }
      }
      attr {
        key: "value"
        value {
          tensor {
            dtype: DT_STRING
            tensor_shape {
            }
            string_val: "dnn/dnn/hiddenlayer_1_activation"
          }
        }
      }
    }
    node {
      name: "dnn/dnn/hiddenlayer_1_activation"
      op: "HistogramSummary"
      input: "dnn/dnn/hiddenlayer_1_activation/tag"
      input: "dnn/hiddenlayer_1/hiddenlayer_1/Relu"
      attr {
        key: "T"
        value {
          type: DT_FLOAT
        }
      }
      attr {
        key: "_output_shapes"
        value {
          list {
            shape {
            }
          }
        }
      }
    }
    node {
      name: "dnn/hiddenlayer_2/weights/part_0/Initializer/random_uniform/shape"
      op: "Const"
      attr {
        key: "_class"
        value {
          list {
            s: "loc:@dnn/hiddenlayer_2/weights/part_0"
          }
        }
      }
      attr {
        key: "_output_shapes"
        value {
          list {
            shape {
              dim {
                size: 2
              }
            }
          }
        }
      }
      attr {
        key: "dtype"
        value {
          type: DT_INT32
        }
      }
      attr {
        key: "value"
        value {
          tensor {
            dtype: DT_INT32
            tensor_shape {
              dim {
                size: 2
              }
            }
            tensor_content: "\005\000\000\000\003\000\000\000"
          }
        }
      }
    }
    node {
      name: "dnn/hiddenlayer_2/weights/part_0/Initializer/random_uniform/min"
      op: "Const"
      attr {
        key: "_class"
        value {
          list {
            s: "loc:@dnn/hiddenlayer_2/weights/part_0"
          }
        }
      }
      attr {
        key: "_output_shapes"
        value {
          list {
            shape {
            }
          }
        }
      }
      attr {
        key: "dtype"
        value {
          type: DT_FLOAT
        }
      }
      attr {
        key: "value"
        value {
          tensor {
            dtype: DT_FLOAT
            tensor_shape {
            }
            float_val: -0.8660253882408142
          }
        }
      }
    }
    node {
      name: "dnn/hiddenlayer_2/weights/part_0/Initializer/random_uniform/max"
      op: "Const"
      attr {
        key: "_class"
        value {
          list {
            s: "loc:@dnn/hiddenlayer_2/weights/part_0"
          }
        }
      }
      attr {
        key: "_output_shapes"
        value {
          list {
            shape {
            }
          }
        }
      }
      attr {
        key: "dtype"
        value {
          type: DT_FLOAT
        }
      }
      attr {
        key: "value"
        value {
          tensor {
            dtype: DT_FLOAT
            tensor_shape {
            }
            float_val: 0.8660253882408142
          }
        }
      }
    }
    node {
      name: "dnn/hiddenlayer_2/weights/part_0/Initializer/random_uniform/RandomUniform"
      op: "RandomUniform"
      input: "dnn/hiddenlayer_2/weights/part_0/Initializer/random_uniform/shape"
      attr {
        key: "T"
        value {
          type: DT_INT32
        }
      }
      attr {
        key: "_class"
        value {
          list {
            s: "loc:@dnn/hiddenlayer_2/weights/part_0"
          }
        }
      }
      attr {
        key: "_output_shapes"
        value {
          list {
            shape {
              dim {
                size: 5
              }
              dim {
                size: 3
              }
            }
          }
        }
      }
      attr {
        key: "dtype"
        value {
          type: DT_FLOAT
        }
      }
      attr {
        key: "seed"
        value {
          i: 0
        }
      }
      attr {
        key: "seed2"
        value {
          i: 0
        }
      }
    }
    node {
      name: "dnn/hiddenlayer_2/weights/part_0/Initializer/random_uniform/sub"
      op: "Sub"
      input: "dnn/hiddenlayer_2/weights/part_0/Initializer/random_uniform/max"
      input: "dnn/hiddenlayer_2/weights/part_0/Initializer/random_uniform/min"
      attr {
        key: "T"
        value {
          type: DT_FLOAT
        }
      }
      attr {
        key: "_class"
        value {
          list {
            s: "loc:@dnn/hiddenlayer_2/weights/part_0"
          }
        }
      }
      attr {
        key: "_output_shapes"
        value {
          list {
            shape {
            }
          }
        }
      }
    }
    node {
      name: "dnn/hiddenlayer_2/weights/part_0/Initializer/random_uniform/mul"
      op: "Mul"
      input: "dnn/hiddenlayer_2/weights/part_0/Initializer/random_uniform/RandomUniform"
      input: "dnn/hiddenlayer_2/weights/part_0/Initializer/random_uniform/sub"
      attr {
        key: "T"
        value {
          type: DT_FLOAT
        }
      }
      attr {
        key: "_class"
        value {
          list {
            s: "loc:@dnn/hiddenlayer_2/weights/part_0"
          }
        }
      }
      attr {
        key: "_output_shapes"
        value {
          list {
            shape {
              dim {
                size: 5
              }
              dim {
                size: 3
              }
            }
          }
        }
      }
    }
    node {
      name: "dnn/hiddenlayer_2/weights/part_0/Initializer/random_uniform"
      op: "Add"
      input: "dnn/hiddenlayer_2/weights/part_0/Initializer/random_uniform/mul"
      input: "dnn/hiddenlayer_2/weights/part_0/Initializer/random_uniform/min"
      attr {
        key: "T"
        value {
          type: DT_FLOAT
        }
      }
      attr {
        key: "_class"
        value {
          list {
            s: "loc:@dnn/hiddenlayer_2/weights/part_0"
          }
        }
      }
      attr {
        key: "_output_shapes"
        value {
          list {
            shape {
              dim {
                size: 5
              }
              dim {
                size: 3
              }
            }
          }
        }
      }
    }
    node {
      name: "dnn/hiddenlayer_2/weights/part_0"
      op: "VariableV2"
      attr {
        key: "_class"
        value {
          list {
            s: "loc:@dnn/hiddenlayer_2/weights/part_0"
          }
        }
      }
      attr {
        key: "_output_shapes"
        value {
          list {
            shape {
              dim {
                size: 5
              }
              dim {
                size: 3
              }
            }
          }
        }
      }
      attr {
        key: "container"
        value {
          s: ""
        }
      }
      attr {
        key: "dtype"
        value {
          type: DT_FLOAT
        }
      }
      attr {
        key: "shape"
        value {
          shape {
            dim {
              size: 5
            }
            dim {
              size: 3
            }
          }
        }
      }
      attr {
        key: "shared_name"
        value {
          s: ""
        }
      }
    }
    node {
      name: "dnn/hiddenlayer_2/weights/part_0/Assign"
      op: "Assign"
      input: "dnn/hiddenlayer_2/weights/part_0"
      input: "dnn/hiddenlayer_2/weights/part_0/Initializer/random_uniform"
      attr {
        key: "T"
        value {
          type: DT_FLOAT
        }
      }
      attr {
        key: "_class"
        value {
          list {
            s: "loc:@dnn/hiddenlayer_2/weights/part_0"
          }
        }
      }
      attr {
        key: "_output_shapes"
        value {
          list {
            shape {
              dim {
                size: 5
              }
              dim {
                size: 3
              }
            }
          }
        }
      }
      attr {
        key: "use_locking"
        value {
          b: true
        }
      }
      attr {
        key: "validate_shape"
        value {
          b: true
        }
      }
    }
    node {
      name: "dnn/hiddenlayer_2/weights/part_0/read"
      op: "Identity"
      input: "dnn/hiddenlayer_2/weights/part_0"
      attr {
        key: "T"
        value {
          type: DT_FLOAT
        }
      }
      attr {
        key: "_class"
        value {
          list {
            s: "loc:@dnn/hiddenlayer_2/weights/part_0"
          }
        }
      }
      attr {
        key: "_output_shapes"
        value {
          list {
            shape {
              dim {
                size: 5
              }
              dim {
                size: 3
              }
            }
          }
        }
      }
    }
    node {
      name: "dnn/hiddenlayer_2/biases/part_0/Initializer/Const"
      op: "Const"
      attr {
        key: "_class"
        value {
          list {
            s: "loc:@dnn/hiddenlayer_2/biases/part_0"
          }
        }
      }
      attr {
        key: "_output_shapes"
        value {
          list {
            shape {
              dim {
                size: 3
              }
            }
          }
        }
      }
      attr {
        key: "dtype"
        value {
          type: DT_FLOAT
        }
      }
      attr {
        key: "value"
        value {
          tensor {
            dtype: DT_FLOAT
            tensor_shape {
              dim {
                size: 3
              }
            }
            float_val: 0.0
          }
        }
      }
    }
    node {
      name: "dnn/hiddenlayer_2/biases/part_0"
      op: "VariableV2"
      attr {
        key: "_class"
        value {
          list {
            s: "loc:@dnn/hiddenlayer_2/biases/part_0"
          }
        }
      }
      attr {
        key: "_output_shapes"
        value {
          list {
            shape {
              dim {
                size: 3
              }
            }
          }
        }
      }
      attr {
        key: "container"
        value {
          s: ""
        }
      }
      attr {
        key: "dtype"
        value {
          type: DT_FLOAT
        }
      }
      attr {
        key: "shape"
        value {
          shape {
            dim {
              size: 3
            }
          }
        }
      }
      attr {
        key: "shared_name"
        value {
          s: ""
        }
      }
    }
    node {
      name: "dnn/hiddenlayer_2/biases/part_0/Assign"
      op: "Assign"
      input: "dnn/hiddenlayer_2/biases/part_0"
      input: "dnn/hiddenlayer_2/biases/part_0/Initializer/Const"
      attr {
        key: "T"
        value {
          type: DT_FLOAT
        }
      }
      attr {
        key: "_class"
        value {
          list {
            s: "loc:@dnn/hiddenlayer_2/biases/part_0"
          }
        }
      }
      attr {
        key: "_output_shapes"
        value {
          list {
            shape {
              dim {
                size: 3
              }
            }
          }
        }
      }
      attr {
        key: "use_locking"
        value {
          b: true
        }
      }
      attr {
        key: "validate_shape"
        value {
          b: true
        }
      }
    }
    node {
      name: "dnn/hiddenlayer_2/biases/part_0/read"
      op: "Identity"
      input: "dnn/hiddenlayer_2/biases/part_0"
      attr {
        key: "T"
        value {
          type: DT_FLOAT
        }
      }
      attr {
        key: "_class"
        value {
          list {
            s: "loc:@dnn/hiddenlayer_2/biases/part_0"
          }
        }
      }
      attr {
        key: "_output_shapes"
        value {
          list {
            shape {
              dim {
                size: 3
              }
            }
          }
        }
      }
    }
    node {
      name: "dnn/hiddenlayer_2/weights"
      op: "Identity"
      input: "dnn/hiddenlayer_2/weights/part_0/read"
      attr {
        key: "T"
        value {
          type: DT_FLOAT
        }
      }
      attr {
        key: "_output_shapes"
        value {
          list {
            shape {
              dim {
                size: 5
              }
              dim {
                size: 3
              }
            }
          }
        }
      }
    }
    node {
      name: "dnn/hiddenlayer_2/MatMul"
      op: "MatMul"
      input: "dnn/hiddenlayer_1/hiddenlayer_1/Relu"
      input: "dnn/hiddenlayer_2/weights"
      attr {
        key: "T"
        value {
          type: DT_FLOAT
        }
      }
      attr {
        key: "_output_shapes"
        value {
          list {
            shape {
              dim {
                size: -1
              }
              dim {
                size: 3
              }
            }
          }
        }
      }
      attr {
        key: "transpose_a"
        value {
          b: false
        }
      }
      attr {
        key: "transpose_b"
        value {
          b: false
        }
      }
    }
    node {
      name: "dnn/hiddenlayer_2/biases"
      op: "Identity"
      input: "dnn/hiddenlayer_2/biases/part_0/read"
      attr {
        key: "T"
        value {
          type: DT_FLOAT
        }
      }
      attr {
        key: "_output_shapes"
        value {
          list {
            shape {
              dim {
                size: 3
              }
            }
          }
        }
      }
    }
    node {
      name: "dnn/hiddenlayer_2/BiasAdd"
      op: "BiasAdd"
      input: "dnn/hiddenlayer_2/MatMul"
      input: "dnn/hiddenlayer_2/biases"
      attr {
        key: "T"
        value {
          type: DT_FLOAT
        }
      }
      attr {
        key: "_output_shapes"
        value {
          list {
            shape {
              dim {
                size: -1
              }
              dim {
                size: 3
              }
            }
          }
        }
      }
      attr {
        key: "data_format"
        value {
          s: "NHWC"
        }
      }
    }
    node {
      name: "dnn/hiddenlayer_2/hiddenlayer_2/Relu"
      op: "Relu"
      input: "dnn/hiddenlayer_2/BiasAdd"
      attr {
        key: "T"
        value {
          type: DT_FLOAT
        }
      }
      attr {
        key: "_output_shapes"
        value {
          list {
            shape {
              dim {
                size: -1
              }
              dim {
                size: 3
              }
            }
          }
        }
      }
    }
    node {
      name: "dnn/zero_fraction_2/zero"
      op: "Const"
      attr {
        key: "_output_shapes"
        value {
          list {
            shape {
            }
          }
        }
      }
      attr {
        key: "dtype"
        value {
          type: DT_FLOAT
        }
      }
      attr {
        key: "value"
        value {
          tensor {
            dtype: DT_FLOAT
            tensor_shape {
            }
            float_val: 0.0
          }
        }
      }
    }
    node {
      name: "dnn/zero_fraction_2/Equal"
      op: "Equal"
      input: "dnn/hiddenlayer_2/hiddenlayer_2/Relu"
      input: "dnn/zero_fraction_2/zero"
      attr {
        key: "T"
        value {
          type: DT_FLOAT
        }
      }
      attr {
        key: "_output_shapes"
        value {
          list {
            shape {
              dim {
                size: -1
              }
              dim {
                size: 3
              }
            }
          }
        }
      }
    }
    node {
      name: "dnn/zero_fraction_2/Cast"
      op: "Cast"
      input: "dnn/zero_fraction_2/Equal"
      attr {
        key: "DstT"
        value {
          type: DT_FLOAT
        }
      }
      attr {
        key: "SrcT"
        value {
          type: DT_BOOL
        }
      }
      attr {
        key: "_output_shapes"
        value {
          list {
            shape {
              dim {
                size: -1
              }
              dim {
                size: 3
              }
            }
          }
        }
      }
    }
    node {
      name: "dnn/zero_fraction_2/Const"
      op: "Const"
      attr {
        key: "_output_shapes"
        value {
          list {
            shape {
              dim {
                size: 2
              }
            }
          }
        }
      }
      attr {
        key: "dtype"
        value {
          type: DT_INT32
        }
      }
      attr {
        key: "value"
        value {
          tensor {
            dtype: DT_INT32
            tensor_shape {
              dim {
                size: 2
              }
            }
            tensor_content: "\000\000\000\000\001\000\000\000"
          }
        }
      }
    }
    node {
      name: "dnn/zero_fraction_2/Mean"
      op: "Mean"
      input: "dnn/zero_fraction_2/Cast"
      input: "dnn/zero_fraction_2/Const"
      attr {
        key: "T"
        value {
          type: DT_FLOAT
        }
      }
      attr {
        key: "Tidx"
        value {
          type: DT_INT32
        }
      }
      attr {
        key: "_output_shapes"
        value {
          list {
            shape {
            }
          }
        }
      }
      attr {
        key: "keep_dims"
        value {
          b: false
        }
      }
    }
    node {
      name: "dnn/dnn/hiddenlayer_2_fraction_of_zero_values/tags"
      op: "Const"
      attr {
        key: "_output_shapes"
        value {
          list {
            shape {
            }
          }
        }
      }
      attr {
        key: "dtype"
        value {
          type: DT_STRING
        }
      }
      attr {
        key: "value"
        value {
          tensor {
            dtype: DT_STRING
            tensor_shape {
            }
            string_val: "dnn/dnn/hiddenlayer_2_fraction_of_zero_values"
          }
        }
      }
    }
    node {
      name: "dnn/dnn/hiddenlayer_2_fraction_of_zero_values"
      op: "ScalarSummary"
      input: "dnn/dnn/hiddenlayer_2_fraction_of_zero_values/tags"
      input: "dnn/zero_fraction_2/Mean"
      attr {
        key: "T"
        value {
          type: DT_FLOAT
        }
      }
      attr {
        key: "_output_shapes"
        value {
          list {
            shape {
            }
          }
        }
      }
    }
    node {
      name: "dnn/dnn/hiddenlayer_2_activation/tag"
      op: "Const"
      attr {
        key: "_output_shapes"
        value {
          list {
            shape {
            }
          }
        }
      }
      attr {
        key: "dtype"
        value {
          type: DT_STRING
        }
      }
      attr {
        key: "value"
        value {
          tensor {
            dtype: DT_STRING
            tensor_shape {
            }
            string_val: "dnn/dnn/hiddenlayer_2_activation"
          }
        }
      }
    }
    node {
      name: "dnn/dnn/hiddenlayer_2_activation"
      op: "HistogramSummary"
      input: "dnn/dnn/hiddenlayer_2_activation/tag"
      input: "dnn/hiddenlayer_2/hiddenlayer_2/Relu"
      attr {
        key: "T"
        value {
          type: DT_FLOAT
        }
      }
      attr {
        key: "_output_shapes"
        value {
          list {
            shape {
            }
          }
        }
      }
    }
    node {
      name: "dnn/logits/weights/part_0/Initializer/random_uniform/shape"
      op: "Const"
      attr {
        key: "_class"
        value {
          list {
            s: "loc:@dnn/logits/weights/part_0"
          }
        }
      }
      attr {
        key: "_output_shapes"
        value {
          list {
            shape {
              dim {
                size: 2
              }
            }
          }
        }
      }
      attr {
        key: "dtype"
        value {
          type: DT_INT32
        }
      }
      attr {
        key: "value"
        value {
          tensor {
            dtype: DT_INT32
            tensor_shape {
              dim {
                size: 2
              }
            }
            tensor_content: "\003\000\000\000\001\000\000\000"
          }
        }
      }
    }
    node {
      name: "dnn/logits/weights/part_0/Initializer/random_uniform/min"
      op: "Const"
      attr {
        key: "_class"
        value {
          list {
            s: "loc:@dnn/logits/weights/part_0"
          }
        }
      }
      attr {
        key: "_output_shapes"
        value {
          list {
            shape {
            }
          }
        }
      }
      attr {
        key: "dtype"
        value {
          type: DT_FLOAT
        }
      }
      attr {
        key: "value"
        value {
          tensor {
            dtype: DT_FLOAT
            tensor_shape {
            }
            float_val: -1.2247449159622192
          }
        }
      }
    }
    node {
      name: "dnn/logits/weights/part_0/Initializer/random_uniform/max"
      op: "Const"
      attr {
        key: "_class"
        value {
          list {
            s: "loc:@dnn/logits/weights/part_0"
          }
        }
      }
      attr {
        key: "_output_shapes"
        value {
          list {
            shape {
            }
          }
        }
      }
      attr {
        key: "dtype"
        value {
          type: DT_FLOAT
        }
      }
      attr {
        key: "value"
        value {
          tensor {
            dtype: DT_FLOAT
            tensor_shape {
            }
            float_val: 1.2247449159622192
          }
        }
      }
    }
    node {
      name: "dnn/logits/weights/part_0/Initializer/random_uniform/RandomUniform"
      op: "RandomUniform"
      input: "dnn/logits/weights/part_0/Initializer/random_uniform/shape"
      attr {
        key: "T"
        value {
          type: DT_INT32
        }
      }
      attr {
        key: "_class"
        value {
          list {
            s: "loc:@dnn/logits/weights/part_0"
          }
        }
      }
      attr {
        key: "_output_shapes"
        value {
          list {
            shape {
              dim {
                size: 3
              }
              dim {
                size: 1
              }
            }
          }
        }
      }
      attr {
        key: "dtype"
        value {
          type: DT_FLOAT
        }
      }
      attr {
        key: "seed"
        value {
          i: 0
        }
      }
      attr {
        key: "seed2"
        value {
          i: 0
        }
      }
    }
    node {
      name: "dnn/logits/weights/part_0/Initializer/random_uniform/sub"
      op: "Sub"
      input: "dnn/logits/weights/part_0/Initializer/random_uniform/max"
      input: "dnn/logits/weights/part_0/Initializer/random_uniform/min"
      attr {
        key: "T"
        value {
          type: DT_FLOAT
        }
      }
      attr {
        key: "_class"
        value {
          list {
            s: "loc:@dnn/logits/weights/part_0"
          }
        }
      }
      attr {
        key: "_output_shapes"
        value {
          list {
            shape {
            }
          }
        }
      }
    }
    node {
      name: "dnn/logits/weights/part_0/Initializer/random_uniform/mul"
      op: "Mul"
      input: "dnn/logits/weights/part_0/Initializer/random_uniform/RandomUniform"
      input: "dnn/logits/weights/part_0/Initializer/random_uniform/sub"
      attr {
        key: "T"
        value {
          type: DT_FLOAT
        }
      }
      attr {
        key: "_class"
        value {
          list {
            s: "loc:@dnn/logits/weights/part_0"
          }
        }
      }
      attr {
        key: "_output_shapes"
        value {
          list {
            shape {
              dim {
                size: 3
              }
              dim {
                size: 1
              }
            }
          }
        }
      }
    }
    node {
      name: "dnn/logits/weights/part_0/Initializer/random_uniform"
      op: "Add"
      input: "dnn/logits/weights/part_0/Initializer/random_uniform/mul"
      input: "dnn/logits/weights/part_0/Initializer/random_uniform/min"
      attr {
        key: "T"
        value {
          type: DT_FLOAT
        }
      }
      attr {
        key: "_class"
        value {
          list {
            s: "loc:@dnn/logits/weights/part_0"
          }
        }
      }
      attr {
        key: "_output_shapes"
        value {
          list {
            shape {
              dim {
                size: 3
              }
              dim {
                size: 1
              }
            }
          }
        }
      }
    }
    node {
      name: "dnn/logits/weights/part_0"
      op: "VariableV2"
      attr {
        key: "_class"
        value {
          list {
            s: "loc:@dnn/logits/weights/part_0"
          }
        }
      }
      attr {
        key: "_output_shapes"
        value {
          list {
            shape {
              dim {
                size: 3
              }
              dim {
                size: 1
              }
            }
          }
        }
      }
      attr {
        key: "container"
        value {
          s: ""
        }
      }
      attr {
        key: "dtype"
        value {
          type: DT_FLOAT
        }
      }
      attr {
        key: "shape"
        value {
          shape {
            dim {
              size: 3
            }
            dim {
              size: 1
            }
          }
        }
      }
      attr {
        key: "shared_name"
        value {
          s: ""
        }
      }
    }
    node {
      name: "dnn/logits/weights/part_0/Assign"
      op: "Assign"
      input: "dnn/logits/weights/part_0"
      input: "dnn/logits/weights/part_0/Initializer/random_uniform"
      attr {
        key: "T"
        value {
          type: DT_FLOAT
        }
      }
      attr {
        key: "_class"
        value {
          list {
            s: "loc:@dnn/logits/weights/part_0"
          }
        }
      }
      attr {
        key: "_output_shapes"
        value {
          list {
            shape {
              dim {
                size: 3
              }
              dim {
                size: 1
              }
            }
          }
        }
      }
      attr {
        key: "use_locking"
        value {
          b: true
        }
      }
      attr {
        key: "validate_shape"
        value {
          b: true
        }
      }
    }
    node {
      name: "dnn/logits/weights/part_0/read"
      op: "Identity"
      input: "dnn/logits/weights/part_0"
      attr {
        key: "T"
        value {
          type: DT_FLOAT
        }
      }
      attr {
        key: "_class"
        value {
          list {
            s: "loc:@dnn/logits/weights/part_0"
          }
        }
      }
      attr {
        key: "_output_shapes"
        value {
          list {
            shape {
              dim {
                size: 3
              }
              dim {
                size: 1
              }
            }
          }
        }
      }
    }
    node {
      name: "dnn/logits/biases/part_0/Initializer/Const"
      op: "Const"
      attr {
        key: "_class"
        value {
          list {
            s: "loc:@dnn/logits/biases/part_0"
          }
        }
      }
      attr {
        key: "_output_shapes"
        value {
          list {
            shape {
              dim {
                size: 1
              }
            }
          }
        }
      }
      attr {
        key: "dtype"
        value {
          type: DT_FLOAT
        }
      }
      attr {
        key: "value"
        value {
          tensor {
            dtype: DT_FLOAT
            tensor_shape {
              dim {
                size: 1
              }
            }
            float_val: 0.0
          }
        }
      }
    }
    node {
      name: "dnn/logits/biases/part_0"
      op: "VariableV2"
      attr {
        key: "_class"
        value {
          list {
            s: "loc:@dnn/logits/biases/part_0"
          }
        }
      }
      attr {
        key: "_output_shapes"
        value {
          list {
            shape {
              dim {
                size: 1
              }
            }
          }
        }
      }
      attr {
        key: "container"
        value {
          s: ""
        }
      }
      attr {
        key: "dtype"
        value {
          type: DT_FLOAT
        }
      }
      attr {
        key: "shape"
        value {
          shape {
            dim {
              size: 1
            }
          }
        }
      }
      attr {
        key: "shared_name"
        value {
          s: ""
        }
      }
    }
    node {
      name: "dnn/logits/biases/part_0/Assign"
      op: "Assign"
      input: "dnn/logits/biases/part_0"
      input: "dnn/logits/biases/part_0/Initializer/Const"
      attr {
        key: "T"
        value {
          type: DT_FLOAT
        }
      }
      attr {
        key: "_class"
        value {
          list {
            s: "loc:@dnn/logits/biases/part_0"
          }
        }
      }
      attr {
        key: "_output_shapes"
        value {
          list {
            shape {
              dim {
                size: 1
              }
            }
          }
        }
      }
      attr {
        key: "use_locking"
        value {
          b: true
        }
      }
      attr {
        key: "validate_shape"
        value {
          b: true
        }
      }
    }
    node {
      name: "dnn/logits/biases/part_0/read"
      op: "Identity"
      input: "dnn/logits/biases/part_0"
      attr {
        key: "T"
        value {
          type: DT_FLOAT
        }
      }
      attr {
        key: "_class"
        value {
          list {
            s: "loc:@dnn/logits/biases/part_0"
          }
        }
      }
      attr {
        key: "_output_shapes"
        value {
          list {
            shape {
              dim {
                size: 1
              }
            }
          }
        }
      }
    }
    node {
      name: "dnn/logits/weights"
      op: "Identity"
      input: "dnn/logits/weights/part_0/read"
      attr {
        key: "T"
        value {
          type: DT_FLOAT
        }
      }
…
              dim {
                size: 1
              }
            }
          }
        }
      }
      attr {
        key: "dtype"
        value {
          type: DT_STRING
        }
      }
      attr {
        key: "value"
        value {
          tensor {
            dtype: DT_STRING
            tensor_shape {
              dim {
                size: 1
              }
            }
            string_val: "dnn/logits/biases"
          }
        }
      }
    }
    node {
      name: "save/RestoreV2_6/shape_and_slices"
      op: "Const"
      attr {
        key: "_output_shapes"
        value {
          list {
            shape {
              dim {
                size: 1
              }
            }
          }
        }
      }
      attr {
        key: "dtype"
        value {
          type: DT_STRING
        }
      }
      attr {
        key: "value"
        value {
          tensor {
            dtype: DT_STRING
            tensor_shape {
              dim {
                size: 1
              }
            }
            string_val: "1 0,1"
          }
        }
      }
    }
    node {
      name: "save/RestoreV2_6"
      op: "RestoreV2"
      input: "save/Const"
      input: "save/RestoreV2_6/tensor_names"
      input: "save/RestoreV2_6/shape_and_slices"
      attr {
        key: "_output_shapes"
        value {
          list {
            shape {
              unknown_rank: true
            }
          }
        }
      }
      attr {
        key: "dtypes"
        value {
          list {
            type: DT_FLOAT
          }
        }
      }
    }
    node {
      name: "save/Assign_6"
      op: "Assign"
      input: "dnn/logits/biases/part_0"
      input: "save/RestoreV2_6"
      attr {
        key: "T"
        value {
          type: DT_FLOAT
        }
      }
      attr {
        key: "_class"
        value {
          list {
            s: "loc:@dnn/logits/biases/part_0"
          }
        }
      }
      attr {
        key: "_output_shapes"
        value {
          list {
            shape {
              dim {
                size: 1
              }
            }
          }
        }
      }
      attr {
        key: "use_locking"
        value {
          b: true
        }
      }
      attr {
        key: "validate_shape"
        value {
          b: true
        }
      }
    }
    node {
      name: "save/RestoreV2_7/tensor_names"
      op: "Const"
      attr {
        key: "_output_shapes"
        value {
          list {
            shape {
              dim {
                size: 1
              }
            }
          }
        }
      }
      attr {
        key: "dtype"
        value {
          type: DT_STRING
        }
      }
      attr {
        key: "value"
        value {
          tensor {
            dtype: DT_STRING
            tensor_shape {
              dim {
                size: 1
              }
            }
            string_val: "dnn/logits/weights"
          }
        }
      }
    }
    node {
      name: "save/RestoreV2_7/shape_and_slices"
      op: "Const"
      attr {
        key: "_output_shapes"
        value {
          list {
            shape {
              dim {
                size: 1
              }
            }
          }
        }
      }
      attr {
        key: "dtype"
        value {
          type: DT_STRING
        }
      }
      attr {
        key: "value"
        value {
          tensor {
            dtype: DT_STRING
            tensor_shape {
              dim {
                size: 1
              }
            }
            string_val: "3 1 0,3:0,1"
          }
        }
      }
    }
    node {
      name: "save/RestoreV2_7"
      op: "RestoreV2"
      input: "save/Const"
      input: "save/RestoreV2_7/tensor_names"
      input: "save/RestoreV2_7/shape_and_slices"
      attr {
        key: "_output_shapes"
        value {
          list {
            shape {
              unknown_rank: true
            }
          }
        }
      }
      attr {
        key: "dtypes"
        value {
          list {
            type: DT_FLOAT
          }
        }
      }
    }
    node {
      name: "save/Assign_7"
      op: "Assign"
      input: "dnn/logits/weights/part_0"
      input: "save/RestoreV2_7"
      attr {
        key: "T"
        value {
          type: DT_FLOAT
        }
      }
      attr {
        key: "_class"
        value {
          list {
            s: "loc:@dnn/logits/weights/part_0"
          }
        }
      }
      attr {
        key: "_output_shapes"
        value {
          list {
            shape {
              dim {
                size: 3
              }
              dim {
                size: 1
              }
            }
          }
        }
      }
      attr {
        key: "use_locking"
        value {
          b: true
        }
      }
      attr {
        key: "validate_shape"
        value {
          b: true
        }
      }
    }
    node {
      name: "save/RestoreV2_8/tensor_names"
      op: "Const"
      attr {
        key: "_output_shapes"
        value {
          list {
            shape {
              dim {
                size: 1
              }
            }
          }
        }
      }
      attr {
        key: "dtype"
        value {
          type: DT_STRING
        }
      }
      attr {
        key: "value"
        value {
          tensor {
            dtype: DT_STRING
            tensor_shape {
              dim {
                size: 1
              }
            }
            string_val: "global_step"
          }
        }
      }
    }
    node {
      name: "save/RestoreV2_8/shape_and_slices"
      op: "Const"
      attr {
        key: "_output_shapes"
        value {
          list {
            shape {
              dim {
                size: 1
              }
            }
          }
        }
      }
      attr {
        key: "dtype"
        value {
          type: DT_STRING
        }
      }
      attr {
        key: "value"
        value {
          tensor {
            dtype: DT_STRING
            tensor_shape {
              dim {
                size: 1
              }
            }
            string_val: ""
          }
        }
      }
    }
    node {
      name: "save/RestoreV2_8"
      op: "RestoreV2"
      input: "save/Const"
      input: "save/RestoreV2_8/tensor_names"
      input: "save/RestoreV2_8/shape_and_slices"
      attr {
        key: "_output_shapes"
        value {
          list {
            shape {
              unknown_rank: true
            }
          }
        }
      }
      attr {
        key: "dtypes"
        value {
          list {
            type: DT_INT64
          }
        }
      }
    }
    node {
      name: "save/Assign_8"
      op: "Assign"
      input: "global_step"
      input: "save/RestoreV2_8"
      attr {
        key: "T"
        value {
          type: DT_INT64
        }
      }
      attr {
        key: "_class"
        value {
          list {
            s: "loc:@global_step"
          }
        }
      }
      attr {
        key: "_output_shapes"
        value {
          list {
            shape {
            }
          }
        }
      }
      attr {
        key: "use_locking"
        value {
          b: true
        }
      }
      attr {
        key: "validate_shape"
        value {
          b: true
        }
      }
    }
    node {
      name: "save/restore_shard"
      op: "NoOp"
      input: "^save/Assign"
      input: "^save/Assign_1"
      input: "^save/Assign_2"
      input: "^save/Assign_3"
      input: "^save/Assign_4"
      input: "^save/Assign_5"
      input: "^save/Assign_6"
      input: "^save/Assign_7"
      input: "^save/Assign_8"
    }
    node {
      name: "save/restore_all"
      op: "NoOp"
      input: "^save/restore_shard"
    }
    node {
      name: "init_2"
      op: "NoOp"
    }
    node {
      name: "init_3"
      op: "NoOp"
    }
    node {
      name: "init_all_tables_1"
      op: "NoOp"
      input: "^dnn/input_from_feature_columns/input_from_feature_columns/origin_one_hot/lookup/hash_table/table_init"
    }
    node {
      name: "group_deps"
      op: "NoOp"
      input: "^init_2"
      input: "^init_3"
      input: "^init_all_tables_1"
    }
    node {
      name: "save_1/Const"
      op: "Const"
      attr {
        key: "_output_shapes"
        value {
          list {
            shape {
            }
          }
        }
      }
      attr {
        key: "dtype"
        value {
          type: DT_STRING
        }
      }
      attr {
        key: "value"
        value {
          tensor {
            dtype: DT_STRING
            tensor_shape {
            }
            string_val: "model"
          }
        }
      }
    }
    node {
      name: "save_1/StringJoin/inputs_1"
      op: "Const"
      attr {
        key: "_output_shapes"
        value {
          list {
            shape {
            }
          }
        }
      }
      attr {
        key: "dtype"
        value {
          type: DT_STRING
        }
      }
      attr {
        key: "value"
        value {
          tensor {
            dtype: DT_STRING
            tensor_shape {
            }
            string_val: "_temp_74c80ea554784a2b8b31695cb64f1697/part"
          }
        }
      }
    }
    node {
      name: "save_1/StringJoin"
      op: "StringJoin"
      input: "save_1/Const"
      input: "save_1/StringJoin/inputs_1"
      attr {
        key: "N"
        value {
          i: 2
        }
      }
      attr {
        key: "_output_shapes"
        value {
          list {
            shape {
            }
          }
        }
      }
      attr {
        key: "separator"
        value {
          s: ""
        }
      }
    }
    node {
      name: "save_1/num_shards"
      op: "Const"
      attr {
        key: "_output_shapes"
        value {
          list {
            shape {
            }
          }
        }
      }
      attr {
        key: "dtype"
        value {
          type: DT_INT32
        }
      }
      attr {
        key: "value"
        value {
          tensor {
            dtype: DT_INT32
            tensor_shape {
            }
            int_val: 1
          }
        }
      }
    }
    node {
      name: "save_1/ShardedFilename/shard"
      op: "Const"
      attr {
        key: "_output_shapes"
        value {
          list {
            shape {
            }
          }
        }
      }
      attr {
        key: "dtype"
        value {
          type: DT_INT32
        }
      }
      attr {
        key: "value"
        value {
          tensor {
            dtype: DT_INT32
            tensor_shape {
            }
            int_val: 0
          }
        }
      }
    }
    node {
      name: "save_1/ShardedFilename"
      op: "ShardedFilename"
      input: "save_1/StringJoin"
      input: "save_1/ShardedFilename/shard"
      input: "save_1/num_shards"
      attr {
        key: "_output_shapes"
        value {
          list {
            shape {
            }
          }
        }
      }
    }
    node {
      name: "save_1/SaveV2/tensor_names"
      op: "Const"
      attr {
        key: "_output_shapes"
        value {
          list {
            shape {
              dim {
                size: 9
              }
            }
          }
        }
      }
      attr {
        key: "dtype"
        value {
          type: DT_STRING
        }
      }
      attr {
        key: "value"
        value {
          tensor {
            dtype: DT_STRING
            tensor_shape {
              dim {
                size: 9
              }
            }
            string_val: "dnn/hiddenlayer_0/biases"
            string_val: "dnn/hiddenlayer_0/weights"
            string_val: "dnn/hiddenlayer_1/biases"
            string_val: "dnn/hiddenlayer_1/weights"
            string_val: "dnn/hiddenlayer_2/biases"
            string_val: "dnn/hiddenlayer_2/weights"
            string_val: "dnn/logits/biases"
            string_val: "dnn/logits/weights"
            string_val: "global_step"
          }
        }
      }
    }
    node {
      name: "save_1/SaveV2/shape_and_slices"
      op: "Const"
      attr {
        key: "_output_shapes"
        value {
          list {
            shape {
              dim {
                size: 9
              }
            }
          }
        }
      }
      attr {
        key: "dtype"
        value {
          type: DT_STRING
        }
      }
      attr {
        key: "value"
        value {
          tensor {
            dtype: DT_STRING
            tensor_shape {
              dim {
                size: 9
              }
            }
            string_val: "7 0,7"
            string_val: "9 7 0,9:0,7"
            string_val: "5 0,5"
            string_val: "7 5 0,7:0,5"
            string_val: "3 0,3"
            string_val: "5 3 0,5:0,3"
            string_val: "1 0,1"
            string_val: "3 1 0,3:0,1"
            string_val: ""
          }
        }
      }
    }
    node {
      name: "save_1/SaveV2"
      op: "SaveV2"
      input: "save_1/ShardedFilename"
      input: "save_1/SaveV2/tensor_names"
      input: "save_1/SaveV2/shape_and_slices"
      input: "dnn/hiddenlayer_0/biases/part_0/read"
      input: "dnn/hiddenlayer_0/weights/part_0/read"
      input: "dnn/hiddenlayer_1/biases/part_0/read"
      input: "dnn/hiddenlayer_1/weights/part_0/read"
      input: "dnn/hiddenlayer_2/biases/part_0/read"
      input: "dnn/hiddenlayer_2/weights/part_0/read"
      input: "dnn/logits/biases/part_0/read"
      input: "dnn/logits/weights/part_0/read"
      input: "global_step"
      attr {
        key: "dtypes"
        value {
          list {
            type: DT_FLOAT
            type: DT_FLOAT
            type: DT_FLOAT
            type: DT_FLOAT
            type: DT_FLOAT
            type: DT_FLOAT
            type: DT_FLOAT
            type: DT_FLOAT
            type: DT_INT64
          }
        }
      }
    }
    node {
      name: "save_1/control_dependency"
      op: "Identity"
      input: "save_1/ShardedFilename"
      input: "^save_1/SaveV2"
      attr {
        key: "T"
        value {
          type: DT_STRING
        }
      }
      attr {
        key: "_class"
        value {
          list {
            s: "loc:@save_1/ShardedFilename"
          }
        }
      }
      attr {
        key: "_output_shapes"
        value {
          list {
            shape {
            }
          }
        }
      }
    }
    node {
      name: "save_1/MergeV2Checkpoints/checkpoint_prefixes"
      op: "Pack"
      input: "save_1/ShardedFilename"
      input: "^save_1/control_dependency"
      attr {
        key: "N"
        value {
          i: 1
        }
      }
      attr {
        key: "T"
        value {
          type: DT_STRING
        }
      }
      attr {
        key: "_output_shapes"
        value {
          list {
            shape {
              dim {
                size: 1
              }
            }
          }
        }
      }
      attr {
        key: "axis"
        value {
          i: 0
        }
      }
    }
    node {
      name: "save_1/MergeV2Checkpoints"
      op: "MergeV2Checkpoints"
      input: "save_1/MergeV2Checkpoints/checkpoint_prefixes"
      input: "save_1/Const"
      attr {
        key: "delete_old_dirs"
        value {
          b: true
        }
      }
    }
    node {
      name: "save_1/Identity"
      op: "Identity"
      input: "save_1/Const"
      input: "^save_1/control_dependency"
      input: "^save_1/MergeV2Checkpoints"
      attr {
        key: "T"
        value {
          type: DT_STRING
        }
      }
      attr {
        key: "_output_shapes"
        value {
          list {
            shape {
            }
          }
        }
      }
    }
    node {
      name: "save_1/RestoreV2/tensor_names"
      op: "Const"
      attr {
        key: "_output_shapes"
        value {
          list {
            shape {
              dim {
                size: 1
              }
            }
          }
        }
      }
      attr {
        key: "dtype"
        value {
          type: DT_STRING
        }
      }
      attr {
        key: "value"
        value {
          tensor {
            dtype: DT_STRING
            tensor_shape {
              dim {
                size: 1
              }
            }
            string_val: "dnn/hiddenlayer_0/biases"
          }
        }
      }
    }
    node {
      name: "save_1/RestoreV2/shape_and_slices"
      op: "Const"
      attr {
        key: "_output_shapes"
        value {
          list {
            shape {
              dim {
                size: 1
              }
            }
          }
        }
      }
      attr {
        key: "dtype"
        value {
          type: DT_STRING
        }
      }
      attr {
        key: "value"
        value {
          tensor {
            dtype: DT_STRING
            tensor_shape {
              dim {
                size: 1
              }
            }
            string_val: "7 0,7"
          }
        }
      }
    }
    node {
      name: "save_1/RestoreV2"
      op: "RestoreV2"
      input: "save_1/Const"
      input: "save_1/RestoreV2/tensor_names"
      input: "save_1/RestoreV2/shape_and_slices"
      attr {
        key: "_output_shapes"
        value {
          list {
            shape {
              unknown_rank: true
            }
          }
        }
      }
      attr {
        key: "dtypes"
        value {
          list {
            type: DT_FLOAT
          }
        }
      }
    }
    node {
      name: "save_1/Assign"
      op: "Assign"
      input: "dnn/hiddenlayer_0/biases/part_0"
      input: "save_1/RestoreV2"
      attr {
        key: "T"
        value {
          type: DT_FLOAT
        }
      }
      attr {
        key: "_class"
        value {
          list {
            s: "loc:@dnn/hiddenlayer_0/biases/part_0"
          }
        }
      }
      attr {
        key: "_output_shapes"
        value {
          list {
            shape {
              dim {
                size: 7
              }
            }
          }
        }
      }
      attr {
        key: "use_locking"
        value {
          b: true
        }
      }
      attr {
        key: "validate_shape"
        value {
          b: true
        }
      }
    }
    node {
      name: "save_1/RestoreV2_1/tensor_names"
      op: "Const"
      attr {
        key: "_output_shapes"
        value {
          list {
            shape {
              dim {
                size: 1
              }
            }
          }
        }
      }
      attr {
        key: "dtype"
        value {
          type: DT_STRING
        }
      }
      attr {
        key: "value"
        value {
          tensor {
            dtype: DT_STRING
            tensor_shape {
              dim {
                size: 1
              }
            }
            string_val: "dnn/hiddenlayer_0/weights"
          }
        }
      }
    }
    node {
      name: "save_1/RestoreV2_1/shape_and_slices"
      op: "Const"
      attr {
        key: "_output_shapes"
        value {
          list {
            shape {
              dim {
                size: 1
              }
            }
          }
        }
      }
      attr {
        key: "dtype"
        value {
          type: DT_STRING
        }
      }
      attr {
        key: "value"
        value {
          tensor {
            dtype: DT_STRING
            tensor_shape {
              dim {
                size: 1
              }
            }
            string_val: "9 7 0,9:0,7"
          }
        }
      }
    }
    node {
      name: "save_1/RestoreV2_1"
      op: "RestoreV2"
      input: "save_1/Const"
      input: "save_1/RestoreV2_1/tensor_names"
      input: "save_1/RestoreV2_1/shape_and_slices"
      attr {
        key: "_output_shapes"
        value {
          list {
            shape {
              unknown_rank: true
            }
          }
        }
      }
      attr {
        key: "dtypes"
        value {
          list {
            type: DT_FLOAT
          }
        }
      }
    }
    node {
      name: "save_1/Assign_1"
      op: "Assign"
      input: "dnn/hiddenlayer_0/weights/part_0"
      input: "save_1/RestoreV2_1"
      attr {
        key: "T"
        value {
          type: DT_FLOAT
        }
      }
      attr {
        key: "_class"
        value {
          list {
            s: "loc:@dnn/hiddenlayer_0/weights/part_0"
          }
        }
      }
      attr {
        key: "_output_shapes"
        value {
          list {
            shape {
              dim {
                size: 9
              }
              dim {
                size: 7
              }
            }
          }
        }
      }
      attr {
        key: "use_locking"
        value {
          b: true
        }
      }
      attr {
        key: "validate_shape"
        value {
          b: true
        }
      }
    }
    node {
      name: "save_1/RestoreV2_2/tensor_names"
      op: "Const"
      attr {
        key: "_output_shapes"
        value {
          list {
            shape {
              dim {
                size: 1
              }
            }
          }
        }
      }
      attr {
        key: "dtype"
        value {
          type: DT_STRING
        }
      }
      attr {
        key: "value"
        value {
          tensor {
            dtype: DT_STRING
            tensor_shape {
              dim {
                size: 1
              }
            }
            string_val: "dnn/hiddenlayer_1/biases"
          }
        }
      }
    }
    node {
      name: "save_1/RestoreV2_2/shape_and_slices"
      op: "Const"
      attr {
        key: "_output_shapes"
        value {
          list {
            shape {
              dim {
                size: 1
              }
            }
          }
        }
      }
      attr {
        key: "dtype"
        value {
          type: DT_STRING
        }
      }
      attr {
        key: "value"
        value {
          tensor {
            dtype: DT_STRING
            tensor_shape {
              dim {
                size: 1
              }
            }
            string_val: "5 0,5"
          }
        }
      }
    }
    node {
      name: "save_1/RestoreV2_2"
      op: "RestoreV2"
      input: "save_1/Const"
      input: "save_1/RestoreV2_2/tensor_names"
      input: "save_1/RestoreV2_2/shape_and_slices"
      attr {
        key: "_output_shapes"
        value {
          list {
            shape {
              unknown_rank: true
            }
          }
        }
      }
      attr {
        key: "dtypes"
        value {
          list {
            type: DT_FLOAT
          }
        }
      }
    }
    node {
      name: "save_1/Assign_2"
      op: "Assign"
      input: "dnn/hiddenlayer_1/biases/part_0"
      input: "save_1/RestoreV2_2"
      attr {
        key: "T"
        value {
          type: DT_FLOAT
        }
      }
      attr {
        key: "_class"
        value {
          list {
            s: "loc:@dnn/hiddenlayer_1/biases/part_0"
          }
        }
      }
      attr {
        key: "_output_shapes"
        value {
          list {
            shape {
              dim {
                size: 5
              }
            }
          }
        }
      }
      attr {
        key: "use_locking"
        value {
          b: true
        }
      }
      attr {
        key: "validate_shape"
        value {
          b: true
        }
      }
    }
    node {
      name: "save_1/RestoreV2_3/tensor_names"
      op: "Const"
      attr {
        key: "_output_shapes"
        value {
          list {
            shape {
              dim {
                size: 1
              }
            }
          }
        }
      }
      attr {
        key: "dtype"
        value {
          type: DT_STRING
        }
      }
      attr {
        key: "value"
        value {
          tensor {
            dtype: DT_STRING
            tensor_shape {
              dim {
                size: 1
              }
            }
            string_val: "dnn/hiddenlayer_1/weights"
          }
        }
      }
    }
    node {
      name: "save_1/RestoreV2_3/shape_and_slices"
      op: "Const"
      attr {
        key: "_output_shapes"
        value {
          list {
            shape {
              dim {
                size: 1
              }
            }
          }
        }
      }
      attr {
        key: "dtype"
        value {
          type: DT_STRING
        }
      }
      attr {
        key: "value"
        value {
          tensor {
            dtype: DT_STRING
            tensor_shape {
              dim {
                size: 1
              }
            }
            string_val: "7 5 0,7:0,5"
          }
        }
      }
    }
    node {
      name: "save_1/RestoreV2_3"
      op: "RestoreV2"
      input: "save_1/Const"
      input: "save_1/RestoreV2_3/tensor_names"
      input: "save_1/RestoreV2_3/shape_and_slices"
      attr {
        key: "_output_shapes"
        value {
          list {
            shape {
              unknown_rank: true
            }
          }
        }
      }
      attr {
        key: "dtypes"
        value {
          list {
            type: DT_FLOAT
          }
        }
      }
    }
    node {
      name: "save_1/Assign_3"
      op: "Assign"
      input: "dnn/hiddenlayer_1/weights/part_0"
      input: "save_1/RestoreV2_3"
      attr {
        key: "T"
        value {
          type: DT_FLOAT
        }
      }
      attr {
        key: "_class"
        value {
          list {
            s: "loc:@dnn/hiddenlayer_1/weights/part_0"
          }
        }
      }
      attr {
        key: "_output_shapes"
        value {
          list {
            shape {
              dim {
                size: 7
              }
              dim {
                size: 5
              }
            }
          }
        }
      }
      attr {
        key: "use_locking"
        value {
          b: true
        }
      }
      attr {
        key: "validate_shape"
        value {
          b: true
        }
      }
    }
    node {
      name: "save_1/RestoreV2_4/tensor_names"
      op: "Const"
      attr {
        key: "_output_shapes"
        value {
          list {
            shape {
              dim {
                size: 1
              }
            }
          }
        }
      }
      attr {
        key: "dtype"
        value {
          type: DT_STRING
        }
      }
      attr {
        key: "value"
        value {
          tensor {
            dtype: DT_STRING
            tensor_shape {
              dim {
                size: 1
              }
            }
            string_val: "dnn/hiddenlayer_2/biases"
          }
        }
      }
    }
    node {
      name: "save_1/RestoreV2_4/shape_and_slices"
      op: "Const"
      attr {
        key: "_output_shapes"
        value {
          list {
            shape {
              dim {
                size: 1
              }
            }
          }
        }
      }
      attr {
        key: "dtype"
        value {
          type: DT_STRING
        }
      }
      attr {
        key: "value"
        value {
          tensor {
            dtype: DT_STRING
            tensor_shape {
              dim {
                size: 1
              }
            }
            string_val: "3 0,3"
          }
        }
      }
    }
    node {
      name: "save_1/RestoreV2_4"
      op: "RestoreV2"
      input: "save_1/Const"
      input: "save_1/RestoreV2_4/tensor_names"
      input: "save_1/RestoreV2_4/shape_and_slices"
      attr {
        key: "_output_shapes"
        value {
          list {
            shape {
              unknown_rank: true
            }
          }
        }
      }
      attr {
        key: "dtypes"
        value {
          list {
            type: DT_FLOAT
          }
        }
      }
    }
    node {
      name: "save_1/Assign_4"
      op: "Assign"
      input: "dnn/hiddenlayer_2/biases/part_0"
      input: "save_1/RestoreV2_4"
      attr {
        key: "T"
        value {
          type: DT_FLOAT
        }
      }
      attr {
        key: "_class"
        value {
          list {
            s: "loc:@dnn/hiddenlayer_2/biases/part_0"
          }
        }
      }
      attr {
        key: "_output_shapes"
        value {
          list {
            shape {
              dim {
                size: 3
              }
            }
          }
        }
      }
      attr {
        key: "use_locking"
        value {
          b: true
        }
      }
      attr {
        key: "validate_shape"
        value {
          b: true
        }
      }
    }
    node {
      name: "save_1/RestoreV2_5/tensor_names"
      op: "Const"
      attr {
        key: "_output_shapes"
        value {
          list {
            shape {
              dim {
                size: 1
              }
            }
          }
        }
      }
      attr {
        key: "dtype"
        value {
          type: DT_STRING
        }
      }
      attr {
        key: "value"
        value {
          tensor {
            dtype: DT_STRING
            tensor_shape {
              dim {
                size: 1
              }
            }
            string_val: "dnn/hiddenlayer_2/weights"
          }
        }
      }
    }
    node {
      name: "save_1/RestoreV2_5/shape_and_slices"
      op: "Const"
      attr {
        key: "_output_shapes"
        value {
          list {
            shape {
              dim {
                size: 1
              }
            }
          }
        }
      }
      attr {
        key: "dtype"
        value {
          type: DT_STRING
        }
      }
      attr {
        key: "value"
        value {
          tensor {
            dtype: DT_STRING
            tensor_shape {
              dim {
                size: 1
              }
            }
            string_val: "5 3 0,5:0,3"
          }
        }
      }
    }
    node {
      name: "save_1/RestoreV2_5"
      op: "RestoreV2"
      input: "save_1/Const"
      input: "save_1/RestoreV2_5/tensor_names"
      input: "save_1/RestoreV2_5/shape_and_slices"
      attr {
        key: "_output_shapes"
        value {
          list {
            shape {
              unknown_rank: true
            }
          }
        }
      }
      attr {
        key: "dtypes"
        value {
          list {
            type: DT_FLOAT
          }
        }
      }
    }
    node {
      name: "save_1/Assign_5"
      op: "Assign"
      input: "dnn/hiddenlayer_2/weights/part_0"
      input: "save_1/RestoreV2_5"
      attr {
        key: "T"
        value {
          type: DT_FLOAT
        }
      }
      attr {
        key: "_class"
        value {
          list {
            s: "loc:@dnn/hiddenlayer_2/weights/part_0"
          }
        }
      }
      attr {
        key: "_output_shapes"
        value {
          list {
            shape {
              dim {
                size: 5
              }
              dim {
                size: 3
              }
            }
          }
        }
      }
      attr {
        key: "use_locking"
        value {
          b: true
        }
      }
      attr {
        key: "validate_shape"
        value {
          b: true
        }
      }
    }
    node {
      name: "save_1/RestoreV2_6/tensor_names"
      op: "Const"
      attr {
        key: "_output_shapes"
        value {
          list {
            shape {
              dim {
                size: 1
              }
            }
          }
        }
      }
      attr {
        key: "dtype"
        value {
          type: DT_STRING
        }
      }
      attr {
        key: "value"
        value {
          tensor {
            dtype: DT_STRING
            tensor_shape {
              dim {
                size: 1
              }
            }
            string_val: "dnn/logits/biases"
          }
        }
      }
    }
    node {
      name: "save_1/RestoreV2_6/shape_and_slices"
      op: "Const"
      attr {
        key: "_output_shapes"
        value {
          list {
            shape {
              dim {
                size: 1
              }
            }
          }
        }
      }
      attr {
        key: "dtype"
        value {
          type: DT_STRING
        }
      }
      attr {
        key: "value"
        value {
          tensor {
            dtype: DT_STRING
            tensor_shape {
              dim {
                size: 1
              }
            }
            string_val: "1 0,1"
          }
        }
      }
    }
    node {
      name: "save_1/RestoreV2_6"
      op: "RestoreV2"
      input: "save_1/Const"
      input: "save_1/RestoreV2_6/tensor_names"
      input: "save_1/RestoreV2_6/shape_and_slices"
      attr {
        key: "_output_shapes"
        value {
          list {
            shape {
              unknown_rank: true
            }
          }
        }
      }
      attr {
        key: "dtypes"
        value {
          list {
            type: DT_FLOAT
          }
        }
      }
    }
    node {
      name: "save_1/Assign_6"
      op: "Assign"
      input: "dnn/logits/biases/part_0"
      input: "save_1/RestoreV2_6"
      attr {
        key: "T"
        value {
          type: DT_FLOAT
        }
      }
      attr {
        key: "_class"
        value {
          list {
            s: "loc:@dnn/logits/biases/part_0"
          }
        }
      }
      attr {
        key: "_output_shapes"
        value {
          list {
            shape {
              dim {
                size: 1
              }
            }
          }
        }
      }
      attr {
        key: "use_locking"
        value {
          b: true
        }
      }
      attr {
        key: "validate_shape"
        value {
          b: true
        }
      }
    }
    node {
      name: "save_1/RestoreV2_7/tensor_names"
      op: "Const"
      attr {
        key: "_output_shapes"
        value {
          list {
            shape {
              dim {
                size: 1
              }
            }
          }
        }
      }
      attr {
        key: "dtype"
        value {
          type: DT_STRING
        }
      }
      attr {
        key: "value"
        value {
          tensor {
            dtype: DT_STRING
            tensor_shape {
              dim {
                size: 1
              }
            }
            string_val: "dnn/logits/weights"
          }
        }
      }
    }
    node {
      name: "save_1/RestoreV2_7/shape_and_slices"
      op: "Const"
      attr {
        key: "_output_shapes"
        value {
          list {
            shape {
              dim {
                size: 1
              }
            }
          }
        }
      }
      attr {
        key: "dtype"
        value {
          type: DT_STRING
        }
      }
      attr {
        key: "value"
        value {
          tensor {
            dtype: DT_STRING
            tensor_shape {
              dim {
                size: 1
              }
            }
            string_val: "3 1 0,3:0,1"
          }
        }
      }
    }
    node {
      name: "save_1/RestoreV2_7"
      op: "RestoreV2"
      input: "save_1/Const"
      input: "save_1/RestoreV2_7/tensor_names"
      input: "save_1/RestoreV2_7/shape_and_slices"
      attr {
        key: "_output_shapes"
        value {
          list {
            shape {
              unknown_rank: true
            }
          }
        }
      }
      attr {
        key: "dtypes"
        value {
          list {
            type: DT_FLOAT
          }
        }
      }
    }
    node {
      name: "save_1/Assign_7"
      op: "Assign"
      input: "dnn/logits/weights/part_0"
      input: "save_1/RestoreV2_7"
      attr {
        key: "T"
        value {
          type: DT_FLOAT
        }
      }
      attr {
        key: "_class"
        value {
          list {
            s: "loc:@dnn/logits/weights/part_0"
          }
        }
      }
      attr {
        key: "_output_shapes"
        value {
          list {
            shape {
              dim {
                size: 3
              }
              dim {
                size: 1
              }
            }
          }
        }
      }
      attr {
        key: "use_locking"
        value {
          b: true
        }
      }
      attr {
        key: "validate_shape"
        value {
          b: true
        }
      }
    }
    node {
      name: "save_1/RestoreV2_8/tensor_names"
      op: "Const"
      attr {
        key: "_output_shapes"
        value {
          list {
            shape {
              dim {
                size: 1
              }
            }
          }
        }
      }
      attr {
        key: "dtype"
        value {
          type: DT_STRING
        }
      }
      attr {
        key: "value"
        value {
          tensor {
            dtype: DT_STRING
            tensor_shape {
              dim {
                size: 1
              }
            }
            string_val: "global_step"
          }
        }
      }
    }
    node {
      name: "save_1/RestoreV2_8/shape_and_slices"
      op: "Const"
      attr {
        key: "_output_shapes"
        value {
          list {
            shape {
              dim {
                size: 1
              }
            }
          }
        }
      }
      attr {
        key: "dtype"
        value {
          type: DT_STRING
        }
      }
      attr {
        key: "value"
        value {
          tensor {
            dtype: DT_STRING
            tensor_shape {
              dim {
                size: 1
              }
            }
            string_val: ""
          }
        }
      }
    }
    node {
      name: "save_1/RestoreV2_8"
      op: "RestoreV2"
      input: "save_1/Const"
      input: "save_1/RestoreV2_8/tensor_names"
      input: "save_1/RestoreV2_8/shape_and_slices"
      attr {
        key: "_output_shapes"
        value {
          list {
            shape {
              unknown_rank: true
            }
          }
        }
      }
      attr {
        key: "dtypes"
        value {
          list {
            type: DT_INT64
          }
        }
      }
    }
    node {
      name: "save_1/Assign_8"
      op: "Assign"
      input: "global_step"
      input: "save_1/RestoreV2_8"
      attr {
        key: "T"
        value {
          type: DT_INT64
        }
      }
      attr {
        key: "_class"
        value {
          list {
            s: "loc:@global_step"
          }
        }
      }
      attr {
        key: "_output_shapes"
        value {
          list {
            shape {
            }
          }
        }
      }
      attr {
        key: "use_locking"
        value {
          b: true
        }
      }
      attr {
        key: "validate_shape"
        value {
          b: true
        }
      }
    }
    node {
      name: "save_1/restore_shard"
      op: "NoOp"
      input: "^save_1/Assign"
      input: "^save_1/Assign_1"
      input: "^save_1/Assign_2"
      input: "^save_1/Assign_3"
      input: "^save_1/Assign_4"
      input: "^save_1/Assign_5"
      input: "^save_1/Assign_6"
      input: "^save_1/Assign_7"
      input: "^save_1/Assign_8"
    }
    node {
      name: "save_1/restore_all"
      op: "NoOp"
      input: "^save_1/restore_shard"
    }
    versions {
      producer: 21
    }
  }
  saver_def {
    filename_tensor_name: "save_1/Const:0"
    save_tensor_name: "save_1/Identity:0"
    restore_op_name: "save_1/restore_all"
    max_to_keep: 5
    sharded: true
    keep_checkpoint_every_n_hours: 10000.0
    version: V2
  }
  collection_def {
    key: "dnn"
    value {
      node_list {
        value: "dnn/hiddenlayer_0/weights/part_0:0"
        value: "dnn/hiddenlayer_0/biases/part_0:0"
        value: "dnn/hiddenlayer_1/weights/part_0:0"
        value: "dnn/hiddenlayer_1/biases/part_0:0"
        value: "dnn/hiddenlayer_2/weights/part_0:0"
        value: "dnn/hiddenlayer_2/biases/part_0:0"
        value: "dnn/logits/weights/part_0:0"
        value: "dnn/logits/biases/part_0:0"
      }
    }
  }
  collection_def {
    key: "global_step"
    value {
      node_list {
        value: "global_step:0"
      }
    }
  }
  collection_def {
    key: "legacy_init_op"
    value {
      node_list {
        value: "group_deps"
      }
    }
  }
  collection_def {
    key: "model_variables"
    value {
      node_list {
        value: "dnn/hiddenlayer_0/weights/part_0:0"
        value: "dnn/hiddenlayer_0/biases/part_0:0"
        value: "dnn/hiddenlayer_1/weights/part_0:0"
        value: "dnn/hiddenlayer_1/biases/part_0:0"
        value: "dnn/hiddenlayer_2/weights/part_0:0"
        value: "dnn/hiddenlayer_2/biases/part_0:0"
        value: "dnn/logits/weights/part_0:0"
        value: "dnn/logits/biases/part_0:0"
      }
    }
  }
  collection_def {
    key: "summaries"
    value {
      node_list {
        value: "dnn/dnn/hiddenlayer_0_fraction_of_zero_values:0"
        value: "dnn/dnn/hiddenlayer_0_activation:0"
        value: "dnn/dnn/hiddenlayer_1_fraction_of_zero_values:0"
        value: "dnn/dnn/hiddenlayer_1_activation:0"
        value: "dnn/dnn/hiddenlayer_2_fraction_of_zero_values:0"
        value: "dnn/dnn/hiddenlayer_2_activation:0"
        value: "dnn/dnn/logits_fraction_of_zero_values:0"
        value: "dnn/dnn/logits_activation:0"
      }
    }
  }
  collection_def {
    key: "table_initializer"
    value {
      node_list {
        value: "dnn/input_from_feature_columns/input_from_feature_columns/origin_one_hot/lookup/hash_table/table_init"
      }
    }
  }
  collection_def {
    key: "trainable_variables"
    value {
      bytes_list {
        value: "\n\"dnn/hiddenlayer_0/weights/part_0:0\022\'dnn/hiddenlayer_0/weights/part_0/Assign\032\'dnn/hiddenlayer_0/weights/part_0/read:0\"\'\n\031dnn/hiddenlayer_0/weights\022\002\t\007\032\002\000\000\"\002\t\007"
        value: "\n!dnn/hiddenlayer_0/biases/part_0:0\022&dnn/hiddenlayer_0/biases/part_0/Assign\032&dnn/hiddenlayer_0/biases/part_0/read:0\"#\n\030dnn/hiddenlayer_0/biases\022\001\007\032\001\000\"\001\007"
        value: "\n\"dnn/hiddenlayer_1/weights/part_0:0\022\'dnn/hiddenlayer_1/weights/part_0/Assign\032\'dnn/hiddenlayer_1/weights/part_0/read:0\"\'\n\031dnn/hiddenlayer_1/weights\022\002\007\005\032\002\000\000\"\002\007\005"
        value: "\n!dnn/hiddenlayer_1/biases/part_0:0\022&dnn/hiddenlayer_1/biases/part_0/Assign\032&dnn/hiddenlayer_1/biases/part_0/read:0\"#\n\030dnn/hiddenlayer_1/biases\022\001\005\032\001\000\"\001\005"
        value: "\n\"dnn/hiddenlayer_2/weights/part_0:0\022\'dnn/hiddenlayer_2/weights/part_0/Assign\032\'dnn/hiddenlayer_2/weights/part_0/read:0\"\'\n\031dnn/hiddenlayer_2/weights\022\002\005\003\032\002\000\000\"\002\005\003"
        value: "\n!dnn/hiddenlayer_2/biases/part_0:0\022&dnn/hiddenlayer_2/biases/part_0/Assign\032&dnn/hiddenlayer_2/biases/part_0/read:0\"#\n\030dnn/hiddenlayer_2/biases\022\001\003\032\001\000\"\001\003"
        value: "\n\033dnn/logits/weights/part_0:0\022 dnn/logits/weights/part_0/Assign\032 dnn/logits/weights/part_0/read:0\" \n\022dnn/logits/weights\022\002\003\001\032\002\000\000\"\002\003\001"
        value: "\n\032dnn/logits/biases/part_0:0\022\037dnn/logits/biases/part_0/Assign\032\037dnn/logits/biases/part_0/read:0\"\034\n\021dnn/logits/biases\022\001\001\032\001\000\"\001\001"
      }
    }
  }
  collection_def {
    key: "variables"
    value {
      bytes_list {
        value: "\n\rglobal_step:0\022\022global_step/Assign\032\022global_step/read:0"
        value: "\n\"dnn/hiddenlayer_0/weights/part_0:0\022\'dnn/hiddenlayer_0/weights/part_0/Assign\032\'dnn/hiddenlayer_0/weights/part_0/read:0\"\'\n\031dnn/hiddenlayer_0/weights\022\002\t\007\032\002\000\000\"\002\t\007"
        value: "\n!dnn/hiddenlayer_0/biases/part_0:0\022&dnn/hiddenlayer_0/biases/part_0/Assign\032&dnn/hiddenlayer_0/biases/part_0/read:0\"#\n\030dnn/hiddenlayer_0/biases\022\001\007\032\001\000\"\001\007"
        value: "\n\"dnn/hiddenlayer_1/weights/part_0:0\022\'dnn/hiddenlayer_1/weights/part_0/Assign\032\'dnn/hiddenlayer_1/weights/part_0/read:0\"\'\n\031dnn/hiddenlayer_1/weights\022\002\007\005\032\002\000\000\"\002\007\005"
        value: "\n!dnn/hiddenlayer_1/biases/part_0:0\022&dnn/hiddenlayer_1/biases/part_0/Assign\032&dnn/hiddenlayer_1/biases/part_0/read:0\"#\n\030dnn/hiddenlayer_1/biases\022\001\005\032\001\000\"\001\005"
        value: "\n\"dnn/hiddenlayer_2/weights/part_0:0\022\'dnn/hiddenlayer_2/weights/part_0/Assign\032\'dnn/hiddenlayer_2/weights/part_0/read:0\"\'\n\031dnn/hiddenlayer_2/weights\022\002\005\003\032\002\000\000\"\002\005\003"
        value: "\n!dnn/hiddenlayer_2/biases/part_0:0\022&dnn/hiddenlayer_2/biases/part_0/Assign\032&dnn/hiddenlayer_2/biases/part_0/read:0\"#\n\030dnn/hiddenlayer_2/biases\022\001\003\032\001\000\"\001\003"
        value: "\n\033dnn/logits/weights/part_0:0\022 dnn/logits/weights/part_0/Assign\032 dnn/logits/weights/part_0/read:0\" \n\022dnn/logits/weights\022\002\003\001\032\002\000\000\"\002\003\001"
        value: "\n\032dnn/logits/biases/part_0:0\022\037dnn/logits/biases/part_0/Assign\032\037dnn/logits/biases/part_0/read:0\"\034\n\021dnn/logits/biases\022\001\001\032\001\000\"\001\001"
      }
    }
  }
  signature_def {
    key: "default_input_alternative:None"
    value {
      inputs {
        key: "acceleration"
        value {
          name: "acceleration:0"
          dtype: DT_DOUBLE
          tensor_shape {
            dim {
              size: -1
            }
            dim {
              size: 1
            }
          }
        }
      }
      inputs {
        key: "cylinders"
        value {
          name: "cylinders:0"
          dtype: DT_DOUBLE
          tensor_shape {
            dim {
              size: -1
            }
            dim {
              size: 1
            }
          }
        }
      }
      inputs {
        key: "displacement"
        value {
          name: "displacement:0"
          dtype: DT_DOUBLE
          tensor_shape {
            dim {
              size: -1
            }
            dim {
              size: 1
            }
          }
        }
      }
      inputs {
        key: "horsepower"
        value {
          name: "horsepower:0"
          dtype: DT_DOUBLE
          tensor_shape {
            dim {
              size: -1
            }
            dim {
              size: 1
            }
          }
        }
      }
      inputs {
        key: "model_year"
        value {
          name: "model_year:0"
          dtype: DT_DOUBLE
          tensor_shape {
            dim {
              size: -1
            }
            dim {
              size: 1
            }
          }
        }
      }
      inputs {
        key: "origin"
        value {
          name: "origin:0"
          dtype: DT_STRING
          tensor_shape {
            dim {
              size: -1
            }
            dim {
              size: 1
            }
          }
        }
      }
      inputs {
        key: "weight"
        value {
          name: "weight:0"
          dtype: DT_DOUBLE
          tensor_shape {
            dim {
              size: -1
            }
            dim {
              size: 1
            }
          }
        }
      }
      outputs {
        key: "outputs"
        value {
          name: "dnn/regression_head/predictions/Identity:0"
          dtype: DT_FLOAT
          tensor_shape {
            dim {
              size: -1
            }
          }
        }
      }
      method_name: "tensorflow/serving/predict"
    }
  }
  signature_def {
    key: "serving_default"
    value {
      inputs {
        key: "acceleration"
        value {
          name: "acceleration:0"
          dtype: DT_DOUBLE
          tensor_shape {
            dim {
              size: -1
            }
            dim {
              size: 1
            }
          }
        }
      }
      inputs {
        key: "cylinders"
        value {
          name: "cylinders:0"
          dtype: DT_DOUBLE
          tensor_shape {
            dim {
              size: -1
            }
            dim {
              size: 1
            }
          }
        }
      }
      inputs {
        key: "displacement"
        value {
          name: "displacement:0"
          dtype: DT_DOUBLE
          tensor_shape {
            dim {
              size: -1
            }
            dim {
              size: 1
            }
          }
        }
      }
      inputs {
        key: "horsepower"
        value {
          name: "horsepower:0"
          dtype: DT_DOUBLE
          tensor_shape {
            dim {
              size: -1
            }
            dim {
              size: 1
            }
          }
        }
      }
      inputs {
        key: "model_year"
        value {
          name: "model_year:0"
          dtype: DT_DOUBLE
          tensor_shape {
            dim {
              size: -1
            }
            dim {
              size: 1
            }
          }
        }
      }
      inputs {
        key: "origin"
        value {
          name: "origin:0"
          dtype: DT_STRING
          tensor_shape {
            dim {
              size: -1
            }
            dim {
              size: 1
            }
          }
        }
      }
      inputs {
        key: "weight"
        value {
          name: "weight:0"
          dtype: DT_DOUBLE
          tensor_shape {
            dim {
              size: -1
            }
            dim {
              size: 1
            }
          }
        }
      }
      outputs {
        key: "outputs"
        value {
          name: "dnn/regression_head/predictions/Identity:0"
          dtype: DT_FLOAT
          tensor_shape {
            dim {
              size: -1
            }
          }
        }
      }
      method_name: "tensorflow/serving/predict"
    }
  }
}
